lstm/federated/base_lstm_member2_federated.pt (torch, 125303 bytes, 10 tensors)

lstm1.weight_ih_l0 f4 [256, 3]
0.10036737 0.21785028 0.030823458 -0.053160995 -0.17326298 0.14809942 -0.029712655 -0.11870684
0.015067608 0.13179284 0.111207314 -0.18889976 0.3252138 0.25548103 0.2297546 0.20644082
0.21930438 0.19024329 -0.14357443 -0.034359932 0.07638149 0.10550189 -0.45951867 -0.42612082
-0.66024745 0.097304545 0.99179304 -0.1472708 0.06272291 -0.00504175 -0.22147132 -0.19631684
-0.06775147 -0.21294752 0.10321259 0.2850314 -0.3364043 -0.35162285 -0.15127468 -0.25137383
-0.097832695 0.17830151 0.1264722 0.16541985 0.30649868 0.4882632 0.5495595 0.60189486
0.17030671 0.1767017 0.2411336 -0.20355116 -0.19213858 -0.07774692 0.3246306 0.4304723
0.35147005 0.043510836 0.24130023 -0.28306735 -0.1818293 -0.1597132 0.008607352 0.45375407
-0.30691534 -0.63127387 0.25304353 0.21419786 0.08992471 -0.04314219 0.058561035 0.0028663408
0.12574416 0.11850636 0.27250165 0.22445415 0.32731566 0.24149191 -0.27864224 -0.112465516
-0.05126588 0.264889 0.17030615 0.2037707 -0.34733504 -0.002500853 -0.102988 -0.16882432
-0.3049804 -0.20679107 0.2171208 0.20973668 0.29518974 -0.11566657 0.14598921 0.082762614
0.4079087 0.3728293 0.1334335 0.24018198 0.22776479 0.29417336 -0.447479 -0.54736745
-0.09258778 -0.15261364 -0.041105643 0.53323674 0.061695203 0.30536154 0.2640013 -0.38863954
-0.030534923 -0.25969893 -0.2540299 0.35992733 0.47146416 -0.3463685 0.034548383 -0.067039676
0.10030359 0.10455713 -0.029026236 -0.09683281 -0.28164166 -0.48062795 0.22909595 0.13923512
0.11674036 -0.46436432 0.44066387 0.2411185 -0.07165143 -0.046173323 0.3074238 0.0016022807
0.24337648 0.08030264 -0.34021842 -0.013007052 0.06544722 -0.23547496 0.06255596 -0.037523806
0.2537454 0.041244127 0.111875944 0.32401395 0.4715824 -0.15519944 0.19478035 -0.5710146
-0.63486624 0.19819964 0.0625138 0.2745606 0.7423577 -0.13298216 -0.611297 0.05988209
-0.12827657 -0.22461876 -0.14574623 -0.09743917 0.0708563 -0.24655287 -0.42474708 -0.2518717
0.4689451 0.19187757 0.055248618 0.0018594163 0.23760921 0.20848276 -0.46384847 -0.42402208
-0.13195801 -0.20617601 -0.04314995 -0.03366343 -0.30260798 -0.14958075 -0.15689775 -0.3642817
-0.105434686 0.24981096 0.27147773 -1.176126 0.40781572 0.29101074 -0.020982021 0.22200783
0.08728633 0.048296113 0.21104921 0.037751798 -0.04839408 -0.14776075 -0.28829095 -0.30719352
-0.082380034 -0.44253337 -0.20037198 -0.17566428 -0.046919778 -0.02587412 0.10677604 0.037408173
0.13695626 0.10778805 0.0057537276 -0.07175545 0.03660948 0.013471585 0.47533733 0.077628
0.28230074 0.12919393 -0.08302657 -0.17458326 -0.26129344 -0.15384808 -0.10514835 0.052174322
-0.09338353 -0.021920852 -0.0024516133 -0.09351861 0.41593587 0.20449376 -0.041803166 0.34203723
0.6083302 0.47659957 0.023302644 -0.31049484 -0.3279854 0.24807128 0.08480467 -0.035094514
-0.00070518 0.035267036 0.103761874 0.19086546 0.11575535 -0.047579408 0.0061307717 -0.08498874
-0.058592558 -0.21613444 -0.27614918 -0.19482878 0.018818872 -0.02042851 -0.23183441 -0.4126375
00000000: 688d cd3d 2514 5f3e 7a81 fc3c 58bf 59bd
00000010: da6b 31be 60a7 173e f467 f3bc 921c f3bd
00000020: 21de 763c b4f4 063e a9c0 e33d f06e 41be
00000030: 6c82 a63e 69ce 823e ca44 6b3e 3965 533e
00000040: 5491 603e 23cf 423e 2d05 13be 00bd 0cbd
00000050: e66d 9c3d 6011 d83d 0846 ebbe 822c dabe
00000060: fa05 29bf 9b47 c73d 26e6 7d3f 28ce 16be
00000070: de74 803d 4435 a5bb 61c9 62be 4807 49be
00000080: 48c1 8abd ea0e 5abe 1f61 d33d a3ef 913e
00000090: 2f3d acbe e907 b4be c0e7 1abe 12b4 80be
000000a0: 825c c8bd ac94 363e ee81 013e d263 293e
000000b0: 65ed 9c3e a2fd f93e eeaf 0c3f c815 1a3f
000000c0: e264 2e3e 4af1 343e baeb 763e b76f 50be
000000d0: fabf 44be c739 9fbd fb35 a63e de66 dc3e
000000e0: e2f3 b33e 6b38 323d 6817 773e 34ee 90be
000000f0: 7631 3abe db8b 23be da05 0d3c 7452 e83e
00000100: 0224 9dbe 2a9b 21bf ec8e 813e af56 5b3e
00000110: 722a b83d ddb5 30bd b2dd 6f3d 38d9 3b3b
00000120: 14c3 003e 76b3 f23d 5685 8b3e 4fd7 653e
00000130: eb95 a73e a849 773e 32aa 8ebe 5254 e6bd
00000140: 2cfc 51bd 889f 873e bc64 2e3e 44a9 503e
00000150: e6d5 b1be 5ae5 23bb 5feb d2bd 48e0 2cbe
00000160: 6426 9cbe 0ac1 53be ea54 5e3e 36c5 563e
00000170: 1c23 973e 98e2 ecbd 327e 153e 727f a93d
00000180: 69d9 d03e 7be3 be3e cba2 083e 44f2 753e
00000190: 2c3b 693e e49d 963e f81b e5be 4620 0cbf
000001a0: a99e bdbd c046 1cbe 645e 28bd 3482 083f
000001b0: 1cb4 7c3d 5958 9c3e 2e2b 873e c3fb c6be
000001c0: 6024 fabc 42f7 84be 3510 82be 6548 b83e
000001d0: c063 f13e 3657 b1be 9b82 0d3d 194c 89bd
000001e0: f86b cd3d 0c22 d63d 6ec8 edbc 4850 c6bd
000001f0: 5633 90be de14 f6be 2198 6a3e a793 0e3e
00000200: 9215 ef3d 29c1 edbe b29e e13e c5e7 763e
00000210: fcbd 92bd 3d20 3dbd a766 9d3e 9e03 d23a
00000220: af37 793e b675 a43d 1c31 aebe 881b 55bc
00000230: 3109 863d 5920 71be 571d 803d 90b2 19bd
00000240: ebea 813e 9aef 283d 371f e53d 28e5 a53e
00000250: 4073 f13e 9aec 1ebe 8074 473e 032e 12bf
00000260: 9886 22bf d9f4 4a3e 3c07 803d 3593 8c3e
00000270: 270b 3e3f 7a2c 08be f67d 1cbf ec46 753d
00000280: ef5a 03be 7602 66be 803e 15be 308e c7bd
00000290: 1c1d 913d 5b78 7cbe 7378 d9be 54f5 80be
000002a0: 9219 f03e 8e7b 443e 604c 623d a8b7 f33a
000002b0: d44f 733e 817c 553e 8c7d edbe 6c19 d9be
000002c0: 0020 07be ce1f 53be 01be 30bd aae2 09bd
000002d0: 6fef 9abe b22b 19be cea9 20be 2283 babe
000002e0: 24ee d7bd 72ce 7f3e 21ff 8a3e 4c8b 96bf
000002f0: 39cd d03e 5cff 943e 7de2 abbc 0556 633e
00000300: 2dc3 b23d 25d2 453d 491d 583e a1a1 1a3d
00000310: df38 46bd 984e 17be df9a 93be 7848 9dbe
00000320: ddb6 a8bd bc93 e2be 502e 4dbe 56e1 33be
00000330: f42e 40bd f6f5 d3bc 65ad da3d 5039 193d
00000340: 433e 0c3e fbbf dc3d c489 bc3b 85f4 92bd
00000350: d2f3 153d ecb7 5c3c 6a5f f33e 6efb 9e3d
00000360: b989 903e 6a4b 043e d609 aabd f4c5 32be
00000370: 41c8 85be 5a8a 1dbe 0558 d7bd beb4 553d
00000380: dd3f bfbd 5c93 b3bc 3fab 20bb af86 bfbd
00000390: 8cf5 d43e d066 513e cc39 2bbd 811f af3e
000003a0: 87bb 1b3f dc04 f43e 30e5 be3c 2ef9 9ebe
000003b0: b4ed a7be 6606 7e3e 12ae ad3d 44bf 0fbd
000003c0: d4db 38ba 2b74 103d 1b81 d43d 3c72 433e
000003d0: 2411 ed3d a0e2 42bd a4e4 c83b 940e aebd
000003e0: c0fe 6fbd 5952 5dbe 6d63 8dbe 3281 47be
000003f0: 092a 9a3c b159 a7bc 0066 6dbe 3945 d3be

lstm1.weight_hh_l0 f4 [256, 64]
-0.014229 0.19810978 -0.05899411 0.041527294 -0.08292611 -0.0574845 0.17622787 0.0481461
0.049602427 0.06932768 -0.0779193 -0.19719048 0.020263797 0.047653683 -0.18410328 -0.12948807
0.16257468 0.10117856 0.28219047 0.04604943 -0.10255524 -0.03931309 -0.01008301 0.030581791
-0.28656083 -0.19017182 -0.030196382 -0.008947326 -0.14299776 0.09821269 0.059493408 -0.019568194
-0.11583136 -0.20974688 -0.16094175 0.2072334 -0.13023329 -0.07723968 0.16456917 -0.14179702
0.2008189 -0.12998784 0.12933391 0.080396004 0.22034141 -0.21102333 -0.087463945 -0.22936583
-0.0734245 0.050978504 -0.076168925 0.038820706 0.026755754 -0.17935747 0.19998205 0.08179039
-0.10175852 -0.24791613 0.09384631 -0.07564341 0.10059519 -0.21088256 -0.15999356 0.1524806
0.02285489 -0.0018952338 -0.023016287 0.07329881 0.117851615 -0.06701469 -0.096739694 0.076189205
0.17410006 0.027312532 -0.0005332634 0.06250628 0.10318914 0.14150132 0.13340577 -0.17838328
-0.16693541 0.035320763 -0.15647532 -0.17481337 -0.11015109 0.023208061 0.067381874 0.12443074
0.08885693 0.13242413 -0.08120495 0.11192036 0.17026892 0.010027273 -0.045720562 -0.055629533
0.23286825 0.17311376 0.09432462 -0.04026529 0.05964393 0.06064016 -0.13605702 -0.19070192
0.12350164 -0.0740985 0.042506523 0.11494196 0.037635617 0.17606771 -0.054938205 -0.0423025
-0.025332417 -0.024418067 -0.016458752 -0.1230181 -0.023142608 0.12272945 -0.007146276 -0.04553013
0.028636403 0.14145169 0.01220302 0.075810164 -0.0046912595 -0.03712025 -0.03811884 -0.054305095
-0.16793142 -0.064392775 -0.024192605 0.091689795 0.12473983 -0.00553919 -0.09646494 -0.05506617
0.06457873 0.09214415 -0.15159887 -0.13688384 0.14622924 0.20154524 0.20202452 -0.3394832
0.08590181 0.080709234 0.027777795 0.01939686 0.081798494 -0.19933124 -0.041301906 -0.070815064
-0.06327802 -0.052577138 0.073899396 -0.017008392 0.022708472 -0.10916054 -0.2244431 0.09812825
0.20084095 0.14472851 0.15880345 0.07963369 -0.036891818 0.06019364 -0.17358266 -0.13381436
0.035149503 0.08225943 -0.07922989 -0.115582444 0.020290907 -0.078946784 0.102195024 1.830794e-05
0.016103849 -0.23112497 0.046602905 -0.10157417 0.12368639 -0.14704032 -0.03897747 -0.08562573
-0.24156636 0.171397 -0.025386773 0.030816223 0.12488557 -0.028903805 -0.049764812 0.052183203
-0.018347804 0.0934813 0.020282194 0.17365217 -0.031017603 0.09459962 -0.02153527 0.0271056
0.09954836 0.035328258 -0.023832595 0.086015485 0.1745633 0.10445605 0.18933007 0.04656153
-0.042642355 0.28175238 -0.2121432 0.006010494 0.03815857 -0.07202126 0.1868769 -0.045803487
0.00869125 0.00680771 -0.08517754 0.18290357 0.024239078 0.020225916 -0.2682888 -0.14731692
0.23158777 0.043839466 -0.03762984 -0.004243715 -0.030768275 -0.023686564 -0.11695522 -0.051793702
-0.0763499 -0.117422104 0.02432619 -0.11885105 -0.010578899 -0.007261468 -0.014706066 -0.029519357
0.123812705 -0.032644384 -0.09679259 -0.055878107 0.16301052 0.10018817 -0.0903801 0.13670936
-0.15652686 0.082614094 -0.17670569 -0.0029548649 0.034647383 0.069322154 0.065148756 0.09222137
00000000: c020 69bc 4add 4a3e cfa3 71bd 8618 2a3d
00000010: 2ad5 a9bd de74 6bbd 1475 343e d834 453d
00000020: ea2b 4b3d acfb 8d3d 2794 9fbd 4dec 49be
00000030: 4300 a63c 8230 433d 9285 3cbe 8598 04be
00000040: fa79 263e b436 cf3d 457b 903e 549e 3c3d
00000050: 7b08 d2bd c306 21bd 3633 25bc aa86 fa3c
00000060: 1ab8 92be 67bc 42be 675e f7bc ce97 12bc
00000070: 016e 12be bc23 c93d 5caf 733d 7a4d a0bc
00000080: fe38 edbd e3c7 56be eacd 24be fe34 543e
00000090: e05b 05be d62f 9ebd d284 283e 3d33 11be
000000a0: 78a3 4d3e 881b 05be 1c70 043e a9a6 a43d
000000b0: 2ea1 613e 8016 58be 4c20 b3bd e0de 6abe
000000c0: 965f 96bd d6ce 503d 74fe 9bbd 7602 1f3d
000000d0: e22e db3c 7ca9 37be 18c8 4c3e b881 a73d
000000e0: c566 d0bd badd 7dbe 7f32 c03d efea 9abd
000000f0: da04 ce3d 99f1 57be 5ad5 23be e023 1c3e
00000100: 2e3a bb3c 7e69 f8ba a78c bcbc b01d 963d
00000110: 305c f13d ff3e 89bd 761f c6bd 1609 9c3d
00000120: 4947 323e 88be df3c b3ca 0bba 4b03 803d
00000130: d454 d33d b9e5 103e 869b 083e 1baa 36be
00000140: 1ef1 2abe 81ac 103d 113b 20be 4702 33be
00000150: e596 e1bd d51e be3c 82ff 893d 8bd5 fe3d
00000160: 9ffa b53d 319a 073e c84e a6bd 8036 e53d
00000170: fa5a 2e3e 6e49 243c 7c45 3bbd cbdb 63bd
00000180: 0475 6e3e bc44 313e 442d c13d 37ed 24bd
00000190: 324d 743d d161 783d 8852 0bbe 5d47 43be
000001a0: 6eee fc3d f4c0 97bd 521b 2e3d b166 eb3d
000001b0: ce27 1a3d 184b 343e e206 61bd 6345 2dbd
000001c0: ee85 cfbc 6608 c8bc 81d4 86bc eaf0 fbbd
000001d0: 9195 bdbc 9459 fb3d 4f2b eabb cd7d 3abd
000001e0: e496 ea3c b6d8 103e 2def 473c 5c42 9b3d
000001f0: 23b9 99bb 670b 18bd 8022 1cbd 056f 5ebd
00000200: 37f6 2bbe 5ce0 83bd 922f c6bc dcc7 bb3d
00000210: 9977 ff3d 1882 b5bb 698f c5bd 108d 61bd
00000220: da41 843d 12b6 bc3d bc3c 1bbe 472b 0cbe
00000230: 1ebd 153e e061 4e3e 84df 4e3e bed0 adbe
00000240: 4aed af3d e24a a53d 428e e33c 2ae6 9e3c
00000250: f885 a73d 7d1d 4cbe 302c 29bd 7d07 91bd
00000260: e897 81bd 205b 57bd 9158 973d 2f55 8bbc
00000270: 1e07 ba3c 908f dfbd 69d4 65be 77f7 c83d
00000280: 40a9 4d3e b633 143e 5f9d 223e fd16 a33d
00000290: e01b 17bd 9b8d 763d a7bf 31be a206 09be
000002a0: edf8 0f3d a277 a83d 4843 a2bd 7db6 ecbd
000002b0: 1e39 a63c daae a1bd a04b d13d 0094 9937
000002c0: 38ec 833c 06ac 6cbe b0e2 3e3d 1e06 d0bd
000002d0: 4a4f fd3d bd91 16be d7a6 1fbd 8b5c afbd
000002e0: 2c5d 77be b282 2f3e ecf7 cfbc 4e72 fc3c
000002f0: 01c4 ff3d acc7 ecbc 30d6 4bbd 0ebe 553d
00000300: 224e 96bc 2073 bf3d d826 a63c e0d1 313e
00000310: a118 febc 72bd c13d bc6a b0bc 900c de3c
00000320: 03e0 cb3d 5db4 103d 933c c3bc e328 b03d
00000330: b9c0 323e 0eed d53d bedf 413e 4eb7 3e3d
00000340: c0a9 2ebd d941 903e 113c 59be aef3 c43b
00000350: 294c 1c3d e27f 93bd a85c 3f3e 709c 3bbd
00000360: bf65 0e3c 3613 df3b 9071 aebd 134b 3b3e
00000370: 0891 c63c d2b0 a53c 265d 89be 3fda 16be
00000380: 5825 6d3e 0391 333d bf21 1abd dd0e 8bbb
00000390: c00d fcbc 530a c2bc 3886 efbd a225 54bd
000003a0: 565d 9cbd 007b f0bd b847 c73c 2e68 f3bd
000003b0: 1e53 2dbc 9cf1 edbb b6f1 70bc 94d2 f1bc
000003c0: 8491 fd3d 1eb6 05bd 323b c6bd 71e0 64bd
000003d0: 3bec 263e 752f cd3d 3419 b9bd 8afd 0b3e
000003e0: 9448 20be 9431 a93d 56f2 34be 68a6 41bb
000003f0: 6aea 0d3d c6f8 8d3d b66c 853d 8fde bc3d

lstm1.bias_ih_l0 f4 [256]
-0.089451164 -0.01609835 -0.17853715 -0.098837465 0.08390907 0.014003311 0.03787648 -0.09710351
-0.0034118395 -0.10994428 -0.024323573 -0.02797129 -0.085651115 0.03877441 -0.013732899 0.014462436
0.14516026 0.06795604 -0.01983398 -0.05111184 -0.13940236 -0.035310514 -0.096071675 -0.08974058
-0.05734484 -0.17548391 0.11787426 -0.16016427 -0.013639369 -0.047852024 0.0046822485 0.07148933
-0.15667957 0.062013075 -0.013202137 -0.004138067 -0.0054743057 -0.008827569 0.1067889 -0.016983284
-0.016105099 -0.08543302 0.06483419 -0.03339302 -0.0117127355 -0.05421684 -0.0016503428 0.037196767
-0.061683852 -0.014827093 0.10318886 0.0963124 -0.03808212 -0.012668308 0.061900064 -0.06390062
-0.015589468 -0.002049195 -0.087034434 -0.063380994 0.085708916 -0.002398572 -0.23117045 -0.0722198
0.031150538 0.07312971 0.022339888 -0.028102806 -0.08306299 0.11191433 0.01192713 0.034777347
0.16418105 -0.013556719 0.061827853 -0.076430574 0.17912655 -0.00051057665 0.15620145 0.16257592
-0.03119567 0.1341181 0.25084683 -0.07827933 0.09184296 0.043654688 -0.047688417 -0.143098
0.26556587 -0.032859504 -0.029810263 -0.13099968 -0.048011415 0.12681168 -0.09330118 0.06184435
0.026878566 -0.04997301 0.08221118 0.019405939 0.09640874 0.14740777 0.23772654 -0.044785477
-0.04265122 -0.017603245 -0.016576547 0.14394994 0.081766576 -0.039090633 -0.024801778 -0.036806487
-0.08313318 0.013605512 0.06798372 0.05016778 -0.034762956 -0.071041465 -0.09535508 0.04884327
0.08026061 0.088986985 -0.020705234 -0.047446087 -0.07558144 -0.10214752 0.088445775 0.10162592
-0.055743672 -0.09092068 -0.08158156 -0.013557663 -0.043570403 0.081514366 0.027410213 -0.020731542
-0.13891938 -0.053272348 0.1042392 0.12874281 -0.14010003 -0.095655434 -0.04722815 0.045345344
0.14148039 -0.11144331 0.10663132 0.13802749 0.061330475 -0.05252169 0.076653235 0.07989325
0.13406208 -0.012143473 0.10676744 -0.07748748 0.09032464 -0.13991863 0.00020193867 -0.08349782
0.11096851 0.021225458 -0.030189365 -0.07723915 0.051478337 -0.04565115 0.12725213 -0.053530477
0.102912426 -0.006035353 0.09515427 0.08688268 -0.030330675 0.13507402 0.114912026 -0.039768524
0.05531964 -0.002698443 0.08516033 -0.03559269 0.117639326 -0.04544803 0.018238628 -0.035585538
0.13463816 -0.06599296 0.15459184 -0.072086364 -0.044982627 0.10116317 0.08336824 -0.02950272
0.031466037 -0.061565306 -0.019474735 0.109323226 0.048214443 -0.07234303 0.012717402 0.17715135
0.15854228 -0.13893497 -0.03387966 0.005902401 0.020205518 0.00043336127 0.026362874 0.11282174
0.067304015 0.08328229 0.24755916 -0.03886336 -0.07703926 0.10411824 -0.13959478 -0.092725486
0.15726064 -0.1166063 0.07335216 -0.119968414 -0.0133808125 0.05648201 0.07273866 -0.043497417
-0.06530514 0.018000713 0.051403966 -0.023744034 0.06703478 0.099390626 0.16187136 0.048884135
0.0075406693 0.08855142 -0.12867713 0.057289824 -0.15820023 -0.04321983 0.020756066 -0.06692515
-0.003892027 0.18709077 0.21381947 0.16088119 0.06267162 0.0694888 -0.04703434 0.06888788
0.27188447 -0.01465374 0.15498516 -0.11284246 -0.01647701 -0.047921304 0.18481266 -0.1074716
00000000: 2c32 b7bd b0e0 83bc 71d2 36be 4c6b cabd
00000010: 85d8 ab3d 256e 653c 5e24 1b3d 34de c6bd
00000020: 2b99 5fbb 772a e1bd 3b42 c7bc 0c24 e5bc
00000030: da69 afbd ead1 1e3d f4ff 60bc daf3 6c3c
00000040: e4a4 143e 892c 8b3d df7a a2bc a65a 51bd
00000050: 7ebf 0ebe c2a1 10bd 3ac1 c4bd e9c9 b7bd
00000060: 6ce2 6abd 0eb2 33be 0f68 f13d 1a02 24be
00000070: a977 5fbc 7c00 44bd 8c6d 993b ff68 923d
00000080: 9c70 20be 6c01 7e3d c74d 58bc 9f98 87bb
00000090: ce61 b3bb 82a1 10bc 24b4 da3d 8720 8bbc
000000a0: d7ee 83bc 82f7 aebd cac7 843d 1fc7 08bd
000000b0: c6e6 3fbc 7a12 5ebd 5150 d8ba a35b 183d
000000c0: 35a8 7cbd 56ed 72bc ae54 d33d 703f c53d
000000d0: fffb 1bbd bc8e 4fbc ec8a 7d3d 54de 82bd
000000e0: f86a 7fbc ca4b 06bb 1c3f b2bd e5cd 81bd
000000f0: 2888 af3d 5c31 1dbb f2b7 6cbe f9e7 93bd
00000100: 6a2f ff3c 08c5 953d 2402 b73c db37 e6bc
00000110: ee1c aabd 5733 e53d 026a 433c b172 0e3d
00000120: 141f 283e 001d 5ebc 343f 7d3d a287 9cbd
00000130: f36c 373e 38d8 05ba 46f3 1f3e 4d7a 263e
00000140: 108e ffbc 4156 093e ff6e 803e ea50 a0bd
00000150: 2918 bc3d 42cf 323d ee54 43bd 4888 12be
00000160: 40f8 873e b097 06bd a734 f4bc c824 06be
00000170: 9ea7 44bd ecda 013e b014 bfbd 8050 7d3d
00000180: 7030 dc3c 80b0 4cbd 565e a83d 34f9 9e3c
00000190: f271 c53d 10f2 163e 966e 733e fa70 37bd
000001a0: 0cb3 2ebd ae34 90bc 8acb 87bc 9d67 133e
000001b0: 3c75 a73d 801d 20bd 192d cbbc 66c2 16bd
000001c0: bb41 aabd a7e9 5e3c 0c3b 8b3d bb7c 4d3d
000001d0: 9a63 0ebd 307e 91bd 8649 c3bd e10f 483d
000001e0: ad5f a43d cf3e b63d 069e a9bc d456 42bd
000001f0: 71ca 9abd b832 d1bd 0f23 b53d 4021 d03d
00000200: 7a53 64bd 9f34 babd 3c14 a7bd f620 5ebc
00000210: e176 32bd 01f1 a63d 628b e03c 32d5 a9bc
00000220: e240 0ebe 1b34 5abd 5d7b d53d 28d5 033e
00000230: 6276 0fbe ffe6 c3bd 4e72 41bd 0abc 393d
00000240: 3ce0 103e 643c e4bd 8661 da3d 1457 0d3e
00000250: aa35 7b3d fc20 57bd 5ffc 9c3d 129f a33d
00000260: 9247 093e 6bf5 46bc e3a8 da3d c2b1 9ebd
00000270: 20fc b83d d446 0fbe 80bf 5339 e800 abbd
00000280: 7543 e33d 03e1 ad3c b04f f7bc 8f2f 9ebd
00000290: f3da 523d b3fc 3abd 624e 023e c642 5bbd
000002a0: c0c3 d23d 36c4 c5bb 3ee0 c23d 8cef b13d
000002b0: 0978 f8bc d850 0a3e ff56 eb3d 52e4 22bd
000002c0: d996 623d 5cd8 30bb 8a68 ae3d a4c9 11bd
000002d0: e3ec f03d b727 3abd 2d69 953c 24c2 11bd
000002e0: 96de 093e 5127 87bd 534d 1e3e 04a2 93bd
000002f0: b43f 38bd a32e cf3d f8bc aa3d b0af f1bc
00000300: 88e2 003d e72b 7cbd 7b89 9fbc dbe4 df3d
00000310: 827c 453d 9528 94bd a65c 503c 2a67 353e
00000320: e858 223e f844 0ebe 66c5 0abd ee68 c13b
00000330: 0b86 a53c c434 e339 f4f6 d73c 160f e73d
00000340: b0d6 893d e88f aa3d 2680 7d3e 302f 1fbd
00000350: c2c6 9dbd f23b d53d eff1 0ebe dce6 bdbd
00000360: ef08 213e 49cf eebd a839 963d 00b2 f5bd
00000370: 323b 5bbc ae59 673d 02f8 943d 592a 32bd
00000380: b4be 85bd 3b76 933c f78c 523d d982 c2bc
00000390: 8849 893d 508d cb3d 9bc1 253e bb3a 483d
000003a0: b817 f73b 725a b53d f0c3 03be bca8 6a3d
000003b0: 3eff 21be 4707 31bd a008 aa3c 0e10 89bd
000003c0: 6111 7fbb b994 3f3e 7ef3 5a3e 0abe 243e
000003d0: fa59 803d 2550 8e3d 15a7 40bd 1715 8d3d
000003e0: 7134 8b3e 3e16 70bc 6eb4 1e3e f319 e7bd
000003f0: cbfa 86bc 2149 44bd 883f 3d3e 121a dcbd

lstm1.bias_hh_l0 f4 [256]
-0.05531007 -0.027322367 -0.12672561 0.100049816 0.039113756 0.14156744 0.00043639448 -0.0045967503
0.034417845 -0.10351669 -0.031232804 0.0138084795 -0.11331321 0.030501299 -0.049124822 -0.060347695
-0.019296486 -0.051297095 0.07280202 -0.06499853 0.097929366 -0.08013354 0.010397974 -0.07421324
0.08621996 -0.05992394 -0.025721243 -0.061004523 0.058733776 -0.14493878 0.07858893 0.13921408
0.018647522 0.024591563 -0.13932477 0.0501038 -0.06083192 0.066775315 -0.08890627 0.018790046
0.14099362 0.026820209 0.059718713 -0.0959396 -0.20306589 0.15123492 -0.048999183 -0.14963564
0.025935136 -0.04056319 0.017209813 0.14358018 -0.021385994 0.01829855 0.008164387 -0.16844176
0.05568415 -0.03240698 -0.12429896 -0.02189089 0.09441001 -0.088604465 -0.19847533 -0.063200735
0.08278535 -0.088154435 0.05171387 -0.01054381 0.054349203 0.15210311 0.04113897 0.075584136
0.09726307 -0.03437624 0.086505376 -0.020772573 0.16108628 0.042027786 -0.012098817 0.11674606
-0.05476054 -0.0077830614 0.27483088 -0.038754836 -0.044240706 -0.031581823 0.116469234 0.09272383
0.075618275 0.018661585 0.08770233 -0.1570236 0.07146123 -0.0958211 -0.016177487 0.02979139
0.16928193 -0.02305191 0.13877317 -0.056386694 0.14832772 0.13465422 0.12827028 -0.015713628
0.042488337 0.009358679 0.07822185 0.147802 -0.04206956 -0.07421962 -0.11867016 0.019915614
0.053736407 0.06371121 0.25465894 0.13278022 -0.021738512 0.105457164 -0.016695006 0.12794662
-0.066731565 0.13432138 0.02078408 -0.017862203 0.120345734 0.04088402 0.09269581 -0.13169783
0.15434837 0.005778172 0.07892822 0.039404243 -0.02678651 0.10285446 0.15272626 -0.12423886
-0.06748038 0.09212139 0.115657985 0.035104588 0.0422733 -0.10879344 0.1345568 0.09878501
-0.05078185 -0.09294842 -0.094102904 0.011217533 0.07167663 -0.08613163 0.034663744 -0.0737034
-0.018287363 -0.05269041 0.1405739 0.07973622 -0.111139335 0.03599039 -0.07673369 -0.123298705
0.059718974 0.07680376 -0.112654604 -0.05367116 -0.025367802 -0.072907 0.004674608 0.08727063
0.02125273 0.03981468 -0.030105801 -0.11225902 -0.041537706 -0.025630612 -0.059439566 0.12103038
0.018536879 -0.020011181 0.1406967 0.07828412 -0.10637416 0.064147264 0.15417172 -0.1057293
-0.08425934 0.041148078 -0.016300881 -0.076989606 -0.05603181 -0.050885413 0.030480282 0.020796627
-0.030519327 0.005514716 0.009536042 0.096269645 0.020235484 -0.07255417 0.13612933 0.16141905
0.101701826 -0.23433225 -0.0075587993 -0.02349065 0.175727 -0.03053573 0.04444962 0.19471186
0.030349018 0.10822277 0.25428408 -0.07923188 0.023207406 0.14493683 -0.07324568 -0.1411959
-0.024802864 -0.14870855 0.118422054 0.050127774 0.040162943 0.04543568 0.021732803 -0.02270615
-0.04264082 0.04668071 -0.060317717 0.06448637 -0.049094535 -0.07833385 0.051234946 -0.01645485
-0.010372279 -0.05657436 -0.115953356 0.094838776 -0.046399985 0.0917514 -0.1631069 0.0029078228
-0.00041016564 0.026663538 0.032693036 0.039374206 0.058736123 0.04542366 -0.055703554 0.087495215
0.08704096 -0.040360942 -0.012368695 0.01844758 -0.018450575 0.05301648 0.20760113 0.056049526
00000000: d08c 62bd 28d3 dfbc 5cc4 01be ebe6 cc3d
00000010: bf35 203d 0ef7 103e e0cb e439 56a0 96bb
00000020: baf9 0c3d 8f00 d4bd f0db ffbc f63c 623c
00000030: c210 e8bd dcdd f93c 1c37 49bd 252f 77bd
00000040: aa13 9ebc e71c 52bd 3a19 953d f31d 85bd
00000050: 318f c83d 0e1d a4bd 445c 2a3c 1cfd 97bd
00000060: 1794 b03d ce72 75bd 5bb5 d2bc e1df 79bd
00000070: d492 703d d56a 14be 3cf3 a03d 238e 0e3e
00000080: b0c2 983c 3f74 c93c 27ab 0ebe a439 4d3d
00000090: e42a 79bd 7fc1 883d 7e14 b6bd 95ed 993c
000000a0: a260 103e 0eb6 db3c 9c9b 743d fb7b c4bd
000000b0: 81f0 4fbe 54dd 1a3e 5eb3 48bd 163a 19be
000000c0: ec75 d43c 9625 26bd 98fb 8c3c af06 133e
000000d0: ae31 afbc d7e6 953c ecc3 053c ff7b 2cbe
000000e0: 1015 643d 2ebd 04bd 7490 febd 8654 b3bc
000000f0: 095a c13d 4276 b5bd 1e3d 4bbe 636f 81bd
00000100: 5e8b a93d 508a b4bd ecd1 533d f2bf 2cbc
00000110: 459d 5e3d ebc0 1b3e 5681 283d dbcb 9a3d
00000120: dc31 c73d 1ace 0cbd bb29 b13d 3e2b aabc
00000130: cdf3 243e 5425 2c3d 1e3a 46bc 8f18 ef3d
00000140: 974c 60bd 0d09 ffbb a2b6 8c3e 64bd 1ebd
00000150: be35 35bd f15b 01bd 6c87 ee3d fee5 bd3d
00000160: c1dd 9a3d 2ee0 983c 479d b33d cbca 20be
00000170: 445a 923d da3d c4bd a686 84bc 130d f43c
00000180: 3e58 2d3e 5cd7 bcbc 8e1a 0e3e bcf5 66bd
00000190: 39e3 173e cce2 093e 4959 033e deb9 80bc
000001a0: 4008 2e3d 2555 193c c732 a03d 6859 173e
000001b0: 2251 2cbd 7500 98bd 5709 f3bd 1226 a33c
000001c0: b51a 5c3d 067b 823d a862 823e 8af7 073e
000001d0: f714 b2bc edf9 d73d f7c3 88bc 7004 033e
000001e0: 8faa 88bd 8b8b 093e 6043 aa3c c153 92bc
000001f0: d377 f63d 0176 273d 4dd7 bd3d ccdb 06be
00000200: 800d 1e3e d256 bd3b 1ea5 a13d 5866 213d
00000210: 626f dbbc 5ca5 d23d 4664 1c3e f270 febd
00000220: 2733 8abd 24aa bc3d 18de ec3d d4c9 0f3d
00000230: c526 2d3d 18cf debd 42c9 093e cc4f ca3d
00000240: a100 50bd be5b bebd 06b9 c0bd bec9 373c
00000250: 32cb 923d c865 b0bd 92fb 0d3d cff1 96bd
00000260: 61cf 95bc e6d1 57bd 9bf2 0f3e be4c a33d
00000270: 059d e3bd a96a 133d 8e26 9dbd 0884 fcbd
00000280: e29b 743d 4a4b 9d3d 75b7 e6bd 4ad6 5bbd
00000290: 23d0 cfbc 4450 95bd 742d 993b f2ba b23d
000002a0: 351a ae3c b814 233d 71a0 f6bc 0fe8 e5bd
000002b0: 7123 2abd 4af7 d1bc e776 73bd c7de f73d
000002c0: a7da 973c 7dee a3bc cc12 103e 6d53 a03d
000002d0: b2da d9bd a45f 833d 31df 1d3e 9a88 d8bd
000002e0: 2990 acbd e38a 283d 6d89 85bc baac 9dbd
000002f0: 9c81 65bd 396d 50bd c9b1 f93c b05d aa3c
00000300: ab03 fabc cab4 b43b 0f3d 1c3c 0529 c53d
00000310: e3c4 a53c 4897 94bd 7d65 0b3e 094b 253e
00000320: 0c49 d03d cbf4 6fbe ceaf f7bb 776f c0bc
00000330: c7f1 333e 1126 fabc ce10 363d 8c62 473e
00000340: 819e f83c e6a3 dd3d 8631 823e 5344 a2bd
00000350: 751d be3c 526a 143e d501 96bd a895 10be
00000360: 602f cbbc 0e47 18be 4387 f23d c852 4d3d
00000370: e681 243d c31a 3a3d fe08 b23c 3f02 babc
00000380: 24a8 2ebd 4634 3f3d b60f 77bd 6e11 843d
00000390: 5a17 49bd 7f6d a0bd bcdb 513d 52cc 86bc
000003a0: 7ef0 29bc 84ba 67bd f478 edbd d53a c23d
000003b0: e90d 3ebd 28e8 bb3d 7f05 27be 2c91 3e3b
000003c0: 800b d7b9 7e6d da3c 22e9 053d d946 213d
000003d0: 4a95 703d 290e 3a3d 6929 64bd b130 b33d
000003e0: 8842 b23d 8451 25bd 11a6 4abc 611f 973c
000003f0: a925 97bc cf27 593d 6495 543e 3094 653d

lstm2.weight_ih_l0 f4 [128, 64]
0.3884387 0.15443903 -0.006152898 0.07624142 -0.2688342 0.26211965 0.24371606 0.043859478
0.10227445 0.29142892 -0.054005362 0.1557159 0.11829374 -0.032496173 -0.098856896 -0.107658185
0.023112684 -0.017087663 0.007673403 -0.068485565 -0.29844347 -0.009894777 0.16752225 0.012009449
-0.13795647 0.14650851 0.25229138 -0.3365409 -0.16699868 0.0034659142 0.091981426 -0.11225256
-0.024751032 -0.042639017 0.21850981 0.30685398 -0.04365982 -0.19848894 0.35268834 -0.07690419
0.1366851 -0.12798639 0.06774927 0.13556007 -0.13215625 0.018946126 0.1181276 -0.092128515
-0.16688 0.11183559 -0.054692335 0.16124831 -0.05166762 0.008606798 0.21824968 0.13243844
-0.3135493 -0.20745444 -0.08059713 -0.36479235 -0.15504205 0.24372128 0.21915129 0.20591486
-0.06425663 0.045173645 -0.07850304 -0.13655567 0.10752012 -0.0062603294 0.16238724 0.012441847
-0.16513604 -0.18755981 0.16826743 -0.036278524 -0.20507386 -0.22412531 -0.13023928 0.29817948
0.034323245 -0.30243382 0.019778542 -0.017208394 -0.07882427 0.12104294 -0.01731426 -0.03967819
-0.05497254 -0.10845387 0.059605584 -0.103576995 -0.048838723 0.029176539 0.38443178 -0.12921774
-0.06829869 -0.10016534 0.007956561 0.026566043 -0.10511866 -0.021191847 0.15416759 -0.03400027
0.18119527 0.1340291 0.11617786 0.04779218 -0.1059383 0.078548834 -0.05521841 0.15112917
-0.19653052 0.096159235 0.029314501 -0.05321445 -0.3084038 0.17770709 0.15626958 -0.17460941
0.41622877 0.023582483 0.111437954 0.04310973 0.0047303815 0.0013737311 -0.09705866 0.048933998
0.17741737 -0.19199543 0.10534196 0.16272886 0.038510673 0.15771392 0.012577848 -0.07837184
-0.31581414 0.18519697 0.0038120188 0.08195176 -0.11239804 0.020710211 0.22294562 -0.030807436
-0.055283055 -0.1641896 0.11570759 0.04004966 -0.024703516 -0.08592544 0.11389014 -0.021271616
-0.06901282 0.08103083 0.034764387 0.05119128 0.04740887 0.2339566 0.07380292 -0.1777876
0.03375142 -0.183927 -0.026118532 0.10482918 0.00026059727 0.21997832 0.15268768 0.25424737
0.051375113 -0.06300969 0.005782139 -0.23305961 -0.09583006 0.11698187 0.23387644 0.14474124
0.1365131 -0.08039559 0.09371226 0.16827112 0.1533509 0.09580934 0.16805363 0.33581936
-0.045267306 -0.14857785 0.04427956 -0.070665404 0.17116697 0.23220837 0.103284225 -0.100581214
0.18849723 -0.2603169 -0.0626286 0.20989409 -0.07098585 0.08357374 0.117768146 0.049138635
-0.2636061 -0.072898336 0.18490505 0.049199156 -0.000188848 0.0023346944 0.006486873 -0.028513912
0.06883294 -0.005379702 0.07828816 0.2247198 0.26527944 0.105954416 -0.14237432 0.10136804
-0.069053 -0.0017588735 0.2327978 0.038661472 -0.1358222 -0.05627699 -0.1864698 -0.3114282
0.13885084 0.13645482 -0.12170579 -0.136623 0.04571371 0.058833614 -0.07168126 0.10878832
-0.18078195 0.034840338 -0.12558168 -0.2139654 -0.27996916 0.21198031 0.13864212 0.10105582
-0.021431942 0.039648507 0.054418065 0.07770839 0.29817218 -0.007864721 -0.018785281 0.16351184
0.15175955 0.12617142 0.49477744 0.062172078 -0.19635099 0.10109305 -0.27780268 -0.18993977
00000000: 70e1 c63e 4425 1e3e 409e c9bb 7624 9c3d
00000010: a3a4 89be 8c34 863e b490 793e ffa5 333d
00000020: 4475 d13d 2c36 953e ba34 5dbd fd73 1f3e
00000030: fd43 f23d b51a 05bd 7c75 cabd e57b dcbd
00000040: d056 bd3c 6dfb 8bbc 2b71 fb3b 2942 8cbd
00000050: 95cd 98be b41d 22bc f48a 2b3e 48c3 443c
00000060: 7644 0dbe 5406 163e 562c 813e 174f acbe
00000070: b401 2bbe 6424 633b c260 bc3d ace4 e5bd
00000080: adc2 cabc 40a6 2ebd 09c1 5f3e f71b 9d3e
00000090: a4d4 32bd af40 4bbe 9193 b43e f27f 9dbd
000000a0: 2ef7 0b3e dd0e 03be 21c0 8a3d 42d0 0a3e
000000b0: f853 07be e834 9b3c e2ec f13d e0ad bcbd
000000c0: 97e2 2abe 0f0a e53d 1205 60bd 471e 253e
000000d0: 6da1 53bd 8703 0d3c d87c 5f3e f19d 073e
000000e0: 8989 a0be f06e 54be 1c10 a5bd 10c6 babe
000000f0: 58c3 1ebe 1292 793e 3269 603e 58db 523e
00000100: fb98 83bd 0008 393d 34c6 a0bd 40d5 0bbe
00000110: 8233 dc3d 7323 cdbb d748 263e e3d8 4b3c
00000120: 6c19 29be ae0f 40be 4c4e 2c3e ca98 14bd
00000130: e2fe 51be 1b81 65be 725d 05be fbaa 983e
00000140: 8896 0c3d 9bd8 9abe 9c06 a23c 9ef8 8cbc
00000150: 9e6e a1bd 5ce5 f73d a3d6 8dbc 9985 22bd
00000160: e32a 61bd 101d debd fc24 743d 2d20 d4bd
00000170: 1d0b 48bd a303 ef3c 3ed4 c43e a851 04be
00000180: 2fe0 8bbd 7c23 cdbd 3c5c 023c 08a1 d93c
00000190: 7448 d7bd 869a adbc 1cde 1d3e de43 0bbd
000001a0: 418b 393e ed3e 093e a8ee ed3d bcc1 433d
000001b0: 2ef6 d8bd 36de a03d b32c 62bd 9bc1 1a3e
000001c0: 4c3f 49be 22ef c43d f724 f03c 65f7 59bd
000001d0: 1ae7 9dbe d9f8 353e 2205 203e cfcc 32be
000001e0: f01b d53e 0d30 c13c 9539 e43d d493 303d
000001f0: 5101 9b3b c40e b43a b1c6 c6bd 046f 483d
00000200: e6ac 353e 739a 44be 87bd d73d 65a2 263e
00000210: 5ebd 1d3d c27f 213e 5113 4e3c 6a81 a0bd
00000220: 64b2 a1be 46a4 3d3e 10d3 793b 53d6 a73d
00000230: f230 e6bd 76a8 a93c db4b 643e e05f fcbc
00000240: 7c70 62bd 5221 28be 1af8 ec3d 1d0b 243d
00000250: 075f cabc adf9 afbd 3c3f e93d d041 aebc
00000260: 9856 8dbd 7ef3 a53d 1a65 0e3d f3ad 513d
00000270: ce2f 423d 5292 6f3e fc25 973d f40d 36be
00000280: ee3e 0a3d 5c57 3cbe 88f6 d5bc aeb0 d63d
00000290: c6a0 8839 ff41 613e 295a 1c3e b62c 823e
000002a0: b66e 523d 390b 81bd 1978 bd3b 2ea7 6ebe
000002b0: 8d42 c4bd 3194 ef3d 4e7d 6f3e 0c37 143e
000002c0: 17ca 0b3e 71a6 a4bd 37ec bf3d 444f 2c3e
000002d0: 0508 1d3e b037 c43d 4016 2c3e 84f0 ab3e
000002e0: 366a 39bd cb24 18be 7c5e 353d 06b9 90bd
000002f0: 6546 2f3e 08c8 6d3e ae86 d33d 86fd cdbd
00000300: 6b05 413e 4248 85be 6c43 80bd 7aee 563e
00000310: 0861 91bd b628 ab3d 6d30 f13d 9845 493d
00000320: 61f7 86be b94b 95bd c057 3d3e 0e85 493d
00000330: 8005 46b9 ac01 193b d68f d43b 0296 e9bc
00000340: 49f8 8c3d 3648 b0bb 8b55 a03d f21c 663e
00000350: b5d2 873e a1fe d83d 93ca 11be 0c9a cf3d
00000360: a96b 8dbd 008a e6ba 8c62 6e3e 7e5b 1e3d
00000370: fa14 0bbe b382 66bd f0f1 3ebe 8473 9fbe
00000380: ea2e 0e3e d0ba 0b3e e340 f9bd e6e6 0bbe
00000390: 4d3e 3b3d 84fb 703d a0cd 92bd 69cc de3d
000003a0: e71e 39be beb4 0e3d 7c98 00be bf19 5bbe
000003b0: 1e58 8fbe 5e11 593e 33f8 0d3e 5bf6 ce3d
000003c0: 0a92 afbc 7966 223d 7ae5 5e3d 9425 9f3d
000003d0: 06aa 983e 08db 00bc 97e3 99bc a66f 273e
000003e0: db66 1b3e 1533 013e 7853 fd3e 26a8 7e3d
000003f0: 3c10 49be df09 cf3d 273c 8ebe 927f 42be

lstm2.weight_hh_l0 f4 [128, 32]
-0.08928299 0.08640544 -0.25263178 0.037685253 0.26433092 0.16178565 -0.21311536 -0.2525975
-0.16638398 0.17712803 0.062416926 -0.09701176 0.15308204 0.14645763 -0.0809565 0.1835761
-0.13554399 -0.0971857 0.22128506 -0.11889752 0.010584632 -0.471903 0.045118682 -0.1053887
0.14695516 -0.048448905 -0.24356173 0.31314614 0.032954656 0.081264146 0.07730086 0.21145731
0.1849045 0.007733307 0.027415825 0.039559714 0.124965325 -0.24379441 -0.03586813 0.042212494
-0.16654071 0.18768656 -0.021166012 0.2459988 0.04445627 0.14920062 0.18244338 0.12294294
-0.024514124 0.02579294 0.115786955 0.11035894 -0.13123628 0.10976294 -0.03657919 -0.0980086
-0.1974892 -0.10839705 -0.080276884 0.20559311 -0.12268554 0.23335347 -0.12844127 0.12035334
0.045807756 -0.035686266 -0.09464116 -0.08116766 -0.041504644 -0.01958897 -0.18651187 -0.23051682
-0.21747373 0.18486585 0.13455594 0.15434557 0.18801723 -0.044300273 0.11882493 -0.0751856
-0.020973627 -0.032578588 -0.022229325 0.2508211 0.202865 -0.09367448 -0.0037040105 0.014472039
-0.05983923 0.059425943 0.040170945 -0.015434155 -0.13731441 -0.079007305 0.17479986 0.1401006
-0.11168717 0.08513691 0.2203606 -0.11560602 0.2087408 -0.11574778 -0.17754835 -0.20292528
-0.044973906 0.041066088 -0.2582694 0.08114019 -0.18788327 0.24398819 -0.21617079 0.092350975
0.0460225 0.018776722 -0.20508088 0.23890075 0.034960635 0.12775251 0.06296152 0.1750665
-0.010779811 0.27391443 -0.15973836 0.1824581 0.20145601 -0.0058293156 -0.50495493 0.02446094
0.045792513 -0.17176993 -0.10891777 0.023981351 0.21596777 0.037703797 -0.20018913 0.08224882
0.21940958 0.20385039 0.27634418 0.17001292 -0.36648053 0.24166071 0.21047509 -0.012038009
-0.34411567 0.032350928 0.18984604 0.021877721 0.11871991 -0.06202522 -0.072323106 0.064672805
0.24805573 0.16222167 -0.22934902 -0.0021599238 -0.2783301 0.2950587 0.03953093 -0.26121646
-0.18356314 0.17844957 -0.154076 -0.08534042 0.25837857 -0.42123848 -0.050694607 -0.059258215
-0.30527145 0.28896013 -0.124992356 -0.009258823 0.28685278 0.22717267 0.102574065 -0.11979346
0.10742799 0.18780053 0.012999502 1.0045339 -0.13591515 -0.18258747 -0.02645155 -0.13781314
-0.20651424 -0.17681912 -0.035284795 -0.10412503 0.2868924 -0.07951648 -0.18313739 0.13930908
-0.065485716 -0.0817823 -0.00065943925 -0.15002419 0.3647251 -0.17667392 -0.03958275 -0.07808818
-0.088836625 0.26025623 -0.19831507 0.1562169 0.24184066 0.34222323 0.17561859 0.07777757
-0.06536349 0.05905717 -0.1415996 -0.12539026 -0.08818274 0.047093567 0.20084949 -0.10941373
-0.16517869 -0.203964 -0.027946662 0.09476091 -0.121278256 0.21361853 0.19617648 0.23550767
0.1866084 -0.16943526 -0.23186319 -0.22345018 0.34623393 0.03936784 -0.11153899 0.12430131
-0.2477799 0.15170816 0.039432824 -0.1167833 0.2219173 0.099328816 -0.013099709 0.08852486
-0.29300433 -0.09128696 -0.007961712 0.09558365 0.03074408 -0.36966532 -0.09470112 0.30191928
0.33880582 -0.2932862 -0.113274455 0.22103307 -0.15470344 0.35458487 -0.036272325 0.09328306
00000000: 00da b6bd 56f5 b03d f458 81be da5b 1a3d
00000010: 6256 873e 23ab 253e ea3a 5abe 7654 81be
00000020: 9060 2abe 0d61 353e e4a8 7f3d 1aae c6bd
00000030: 8ac1 1c3e fdf8 153e 85cc a5bd 60fb 3b3e
00000040: 0bcc 0abe 4c09 c7bd 8d98 623e 8b80 f3bd
00000050: 2a6b 2d3c 459d f1be 5ece 383d 08d6 d7bd
00000060: 6a7b 163e 5c72 46bd 3f68 79be b154 a03e
00000070: 76fb 063d d16d a63d ea4f 9e3d 4488 583e
00000080: 9b57 3d3e ae67 fd3b 2797 e03c 5e09 223d
00000090: d2ed ff3d 3ea5 79be 76ea 12bd 02e7 2c3d
000000a0: a689 2abe e830 403e 5864 adbc 1ce7 7b3e
000000b0: c717 363d 0cc8 183e 70d2 3a3e 82c9 fb3d
000000c0: d8d1 c8bc b74b d33c b621 ed3d de03 e23d
000000d0: ce62 06be 64cb e03d 10d4 15bd bcb8 c8bd
000000e0: 9c3a 4abe 46ff ddbd 3568 a4bd 0087 523e
000000f0: 8e42 fbbd 36f4 6e3e 1c86 03be d07b f63d
00000100: eaa0 3b3d c32b 12bd 39d3 c1bd 3b3b a6bd
00000110: c600 2abd 0c79 a0bc f8fc 3ebe 9a0c 6cbe
00000120: 6fb1 5ebe 794d 3d3e 08c9 093e c40c 1e3e
00000130: 9787 403e 3474 35bd 7c5a f33d e8fa 99bd
00000140: e2d0 abbc 2071 05bd 461a b6bc a06b 803e
00000150: d8bb 4f3e 68d8 bfbd fcbe 72bb 221c 6d3c
00000160: fb19 75bd 9e68 733d 4a8a 243d 8adf 7cbc
00000170: 269c 0cbe 95ce a1bd bcfe 323e 8876 0f3e
00000180: 3ebc e4bd 435c ae3d 36a6 613e d9c2 ecbd
00000190: 26c0 553e 2c0d edbd 3ccf 35be a5cb 4fbe
000001a0: 8f36 38bd ea34 283d e33b 84be d42c a63d
000001b0: 7964 40be 0ad8 793e e05b 5dbe 8222 bd3d
000001c0: 1782 3c3d a4d1 993c b900 52be 66a2 743e
000001d0: e232 0f3d 8ed1 023e f8f1 803d a244 333e
000001e0: ce9d 30bc 833e 8c3e 7492 23be 4cd6 3a3e
000001f0: 7c4a 4e3e d803 bfbb ba44 01bf 4f62 c83c
00000200: ee90 3b3d 75e4 2fbe 4810 dfbd 8a74 c43c
00000210: a826 5d3e 4c6f 1a3d 61fe 4cbe 1272 a83d
00000220: e8ac 603e 28be 503e fc7c 8d3e de17 2e3e
00000230: 56a3 bbbe e875 773e c886 573e 123b 45bc
00000240: ee2f b0be 6882 043d 0067 423e e838 b33c
00000250: 6d23 f33d 280e 7ebd 231e 94bd 2d73 843d
00000260: 5202 7e3e 701d 263e 78da 6abe 828d 0dbb
00000270: 4881 8ebe ef11 973e 2feb 213d 2abe 85be
00000280: faf7 3bbe 7cbb 363e 19c6 1dbe f5c6 aebd
00000290: 324a 843e 92ac d7be 26a5 4fbd beb8 72bd
000002a0: 8a4c 9cbe 95f2 933e fefb ffbd 51b2 17bc
000002b0: 5ede 923e f49f 683e 5a12 d23d 4656 f5bd
000002c0: 3503 dc3d c84e 403e ddfb 543c 9194 803f
000002d0: 572d 0bbe 36f8 3abe ecb0 d8bc e31e 0dbe
000002e0: 7878 53be 1210 35be ca86 10bd 813f d5bd
000002f0: 90e3 923e 89d9 a2bd 5e88 3bbe 0aa7 0e3e
00000300: 601d 86bd 7a7d a7bd 38de 2cba f19f 19be
00000310: 40bd ba3e 02ea 34be 8621 22bd b2ec 9fbd
00000320: faef b5bd 4e40 853e 1b13 4bbe 53f7 1f3e
00000330: 14a5 773e e237 af3e 5cd5 333e d949 9f3d
00000340: 4bdd 85bd eee5 713d 7cff 10be 4e66 00be
00000350: 2799 b4bd 2fe5 403d 7dab 4d3e 4e14 e0bd
00000360: 9a24 29be f0db 50be 66f0 e4bc 0212 c23d
00000370: bc60 f8bd d1be 5a3e 7de2 483e ec28 713e
00000380: 4616 3f3e 7080 2dbe 8b6d 6dbe 20d0 64be
00000390: 9345 b13e 2c40 213d 8e6e e4bd af91 fe3d
000003a0: 04ba 7dbe 6259 1b3e 5084 213d 152c efbd
000003b0: 4a3e 633e e86c cb3d 29a0 56bc 864c b53d
000003c0: aa04 96be a8f4 babd d771 02bc 5cc1 c33d
000003d0: 02db fb3c c644 bdbe a9f2 c1bd 2a95 9a3e
000003e0: f577 ad3e 9c29 96be 70fc e7bd 7e56 623e
000003f0: 946a 1ebe 268c b53e 4a92 14bd 300b bf3d

lstm2.bias_ih_l0 f4 [128]
0.1306569 -0.09494077 0.16680542 0.33537996 -0.0014075995 0.084525555 0.19123474 0.041347653
0.1296263 -0.07641542 -0.17870224 0.1282306 0.004612587 0.11305493 -0.11786014 -0.019101484
0.13797823 0.06861486 0.17691013 0.0068981573 0.14239532 0.070972554 -0.0889963 -0.033743206
0.08810246 -0.06682081 0.084694505 -0.03884892 0.33304346 -0.18853343 -0.104925975 -0.18730009
-0.03158302 0.17734356 0.061524846 -0.021535143 0.3168335 0.18803917 0.21004063 0.24205935
0.23166555 0.11906934 0.14583436 0.20771329 0.22464572 0.13092598 0.23206764 0.106279
0.14944856 0.23832661 0.3517188 0.20281155 0.14519629 0.18216375 0.23638263 0.13375095
0.18885572 0.013405114 0.012103094 0.34052876 0.20364194 0.12857582 0.10566625 0.4019791
0.046506986 0.1766001 -0.05846463 0.06111551 0.106483296 0.017387088 -0.20373225 0.007170593
-0.10450724 0.078149974 -0.03518501 0.0149920285 0.060194835 0.058764637 0.06463976 0.099851
-0.06968951 -0.019355163 0.04753345 0.07094815 0.15303284 0.104697645 0.023241838 0.11854947
0.120042026 -0.039893895 -0.08623138 -0.15099302 0.20880859 0.111799985 -0.08190169 0.20533547
0.24258947 0.143483 0.1248517 0.22077674 0.2002323 -0.022129044 0.10520878 0.1229861
0.18740174 -0.04349611 0.27460954 0.1306842 0.12910962 0.21437597 0.32603058 0.06436241
0.09801311 0.32019985 0.37658697 0.01733191 0.273988 0.10550445 0.062948495 0.3139291
0.22684413 0.24913803 0.32141316 -0.063062325 0.19612476 -0.021974867 0.24812937 0.014799584
00000000: ecca 053e 4e70 c2bd 0acf 2a3e ecb6 ab3e
00000010: 347f b8ba bc1b ad3d 0ad3 433e 285c 293d
00000020: c2bc 043e b07f 9cbd b8fd 36be e24e 033e
00000030: 2f25 973b 5889 e73d a860 f1bd b77a 9cbc
00000040: 2a4a 0d3e f385 8c3d ee27 353e f009 e23b
00000050: 14d0 113e 0f5a 913d b143 b6bd 5136 0abd
00000060: 106f b43d 59d9 88bd 5074 ad3d 0c20 1fbd
00000070: ac84 aa3e e80e 41be 6ee3 d6bd 98cb 3fbe
00000080: 325d 01bd 8d99 353e 7a01 7c3d 786a b0bc
00000090: 0038 a23e 578d 403e e414 573e 68de 773e
000000a0: bc39 6d3e a0da f33d 9a55 153e cbb2 543e
000000b0: 8709 663e 7611 063e 24a3 6d3e cea8 d93d
000000c0: 0b09 193e e40b 743e 7d14 b43e d5ad 4f3e
000000d0: 56ae 143e 2289 3a3e 4a0e 723e 02f6 083e
000000e0: 6563 413e 20a1 5b3c 0e4c 463c c959 ae3e
000000f0: 8387 503e 61a9 033e 8c67 d83d 34d0 cd3e
00000100: 1c7e 3e3d a8d6 343e 9c78 6fbd 4254 7a3d
00000110: ea13 da3d 5e6f 8e3c 309f 50be 4bf7 ea3b
00000120: e407 d6bd 180d a03d 281e 10bd 20a1 753c
00000130: dc8e 763d 30b3 703d da61 843d ae7e cc3d
00000140: 60b9 8ebd b88e 9ebc 6fb2 423d 434d 913d
00000150: a4b4 1c3e b86b d63d ab65 be3c 11ca f23d
00000160: 98d8 f53d c867 23bd 149a b0bd ea9d 1abe
00000170: ebd1 553e 64f7 e43d 13bc a7bd 7643 523e
00000180: 6069 783e 35ed 123e 40b2 ff3d 4c13 623e
00000190: b209 4d3e f847 b5bc b377 d73d 23e0 fb3d
000001a0: 3ee6 3f3e fa28 32bd 9f99 8c3e 14d2 053e
000001b0: 5035 043e 6085 5b3e 7bed a63e 70d0 833d
000001c0: 19bb c83d 3cf1 a33e 02d0 c03e a6fb 8d3c
000001d0: 2848 8c3e b812 d83d 24eb 803d 51bb a03e
000001e0: d449 683e 0a1e 7f3e 4490 a43e d226 81bd
000001f0: eed4 483e a304 b4bc a015 7e3e f479 723c

lstm2.bias_hh_l0 f4 [128]
0.17832652 0.16651067 0.21093029 0.27091587 -0.12465181 0.04365794 -0.1269164 -0.020840697
0.10840689 0.17085592 -0.26038015 0.1882596 -0.12548263 0.07111955 0.01139542 0.09222323
0.08875048 -0.07796028 0.15339684 0.10852726 0.13576806 -0.0030313106 0.062025603 0.10481186
-0.122606784 0.022923306 0.11023679 0.05935896 0.10354374 -0.0886114 -0.091228925 -0.0628345
0.144861 0.3234484 0.17134061 0.288978 0.16976449 0.073908195 0.072418064 0.1602746
0.05616022 0.35055083 0.15340307 0.32750326 0.2915685 -0.021533024 0.2574409 -0.00021992065
-0.01976863 0.3091662 0.2151946 0.20804717 0.23029289 0.036457505 0.46796572 0.13391952
0.13510104 -0.021552175 0.13812566 0.25294924 0.11041777 0.36610448 0.015724393 0.4204182
0.1323005 0.010965956 0.0002866625 -0.086830676 0.12735885 0.030031532 -0.01505699 -0.21433882
-0.10558266 0.09552569 -0.17706375 0.20461608 0.014629127 0.016259357 0.08977609 -0.071309134
0.04418369 -0.08332586 -0.22712728 0.10229117 0.07143049 -0.09894701 -0.034623876 0.20581476
0.0412665 -0.1233532 -0.04413688 0.14757058 -0.025875455 0.06414732 0.10224295 0.14063662
0.0740318 0.22144377 0.20578314 0.47566605 -0.016751502 0.10169762 -0.07446188 0.30449536
-0.028494434 0.23049662 0.18675515 0.24411249 0.09877713 0.12786603 0.3506926 0.15454945
0.059908316 0.3903249 0.14681822 0.2027085 0.23890835 0.09156342 0.042080067 0.18631783
0.13240165 0.098204456 0.40530798 0.15462093 0.12280157 -0.020442931 0.19199097 0.27587688
00000000: 3a9b 363e c681 2a3e 1cfe 573e 7cb5 8a3e
00000010: 7349 ffbd abd2 323d 5ff6 01be 1cba aabc
00000020: 6e04 de3d dbf4 2e3e 8c50 85be 20c7 403e
00000030: 857e 00be 20a7 913d dbb3 3a3c 88df bc3d
00000040: d0c2 b53d a4a9 9fbd 1014 1d3e 8a43 de3d
00000050: c806 0b3e f4a8 46bb 8f0e 7e3d 9aa7 d63d
00000060: 4419 fbbd a8c9 bb3c d3c3 e13d 6122 733d
00000070: be0e d43d e579 b5bd 3bd6 babd 60af 80bd
00000080: 7156 143e 079b a53e ea73 2f3e edf4 933e
00000090: bed6 2d3e 2e5d 973d ec4f 943d 061f 243e
000000a0: 4208 663d 667b b33e b215 1d3e 82ae a73e
000000b0: 7748 953e 0666 b0bc 4bcf 833e 809a 66b9
000000c0: d2f1 a1bc 084b 9e3e f95b 5c3e 510a 553e
000000d0: e6d1 6b3e 7754 153d 3499 ef3e 3322 093e
000000e0: ed57 0a3e 308e b0bc d070 0d3e 9082 813e
000000f0: b622 e23d 0c72 bb3e 71d0 803c 0e41 d73e
00000100: c879 073e 8eaa 333c 304b 9639 48d4 b1bd
00000110: 5c6a 023e b004 f63c 98b1 76bc a37b 5bbe
00000120: b93b d8bd f9a2 c33d 3350 35be e186 513e
00000130: 02af 6f3c 5832 853c 87dc b73d 860a 92bd
00000140: f5f9 343d c0a6 aabd 0e94 68be 087e d13d
00000150: 264a 923d bba4 cabd c4d1 0dbd 1bc1 523e
00000160: 1007 293d 9aa0 fcbd e0c8 34bd be1c 173e
00000170: c3f8 d3bc ac5f 833d c064 d13d 0c03 103e
00000180: fc9d 973d 28c2 623e d1b8 523e 808a f33e
00000190: 723a 89bc d746 d03d 787f 98bd d1e6 9b3e
000001a0: 296d e9bc 4e07 6c3e be3c 3f3e a0f8 793e
000001b0: aa4b ca3d 50ef 023e fb8d b33e 3642 1e3e
000001c0: 6c62 753d aad8 c73e 8457 163e d192 4f3e
000001d0: 64a4 743e 9a85 bb3d 265c 2c3d 1aca 3e3e
000001e0: 4c94 073e 6b1f c93d 8784 cf3e f354 1e3e
000001f0: 647f fb3d ef77 a7bc 4899 443e bc3f 8d3e

fc.weight f4 [6, 32]
-0.45187017 -0.3066755 0.24207124 0.6975476 0.26004738 0.5371657 0.36115974 0.14538282
0.37661326 0.26025784 0.7790415 0.018431284 0.052670073 0.4705544 0.1933543 0.31386852
0.33792022 -0.4193405 0.079181045 0.6255678 0.12664929 0.90149677 -0.7483741 -0.11784754
-0.07669792 -0.39474636 -0.27688533 -0.4059278 0.18454212 0.51712704 0.7865735 -0.066067286
0.14832555 -0.40663096 -0.17391066 -0.04626564 -0.62543064 0.08872567 -0.0050326344 0.0698061
0.48400578 -0.26249757 0.2923061 0.11124693 -0.18336456 -0.24880284 0.11000314 -0.73527515
-0.17352687 -0.54831207 0.31870243 -0.31902248 0.19553831 -0.32572302 0.08327646 0.015996777
0.06975464 -0.055866286 0.30970004 -0.6591492 -0.19017008 -0.2854241 -0.48555163 -0.35865852
0.18566303 -0.17223671 -0.16949269 -0.07340786 0.2645061 0.55957127 -0.041413624 0.05712477
-0.06422726 -0.3009233 0.49967504 -0.040851533 -0.14119127 -0.28478625 0.10745687 0.05898624
-0.1665584 0.126456 0.33109206 -0.35891023 0.18566859 -0.30991527 0.117030196 -0.37055966
0.091182016 -0.3130421 -0.11566047 0.31113058 -0.20046715 0.08205697 -0.5292183 0.07180413
-0.46350577 0.024644904 0.39794227 0.52195925 -0.3838973 -0.08553877 0.4563812 0.95208645
-0.23719928 -0.41255575 -0.3234816 -0.44872147 0.31250885 0.20011133 -0.7593931 -0.61036277
0.08650242 0.21032807 -0.097035125 0.20728049 -0.10659973 0.19984964 -0.21107203 0.612278
0.29742783 0.42971334 0.7481407 0.085684106 0.19805014 -0.4362849 -0.18995303 0.016110782
0.04229939 0.15876785 0.021781325 0.482481 -0.33536124 -0.48020795 -0.1099854 0.0634149
-0.3533536 0.17803994 -0.5169441 -0.011470246 0.40207893 -0.31100327 0.12093201 -0.26744708
0.14688802 0.23189577 -0.12926413 -0.03308957 -0.2964617 -0.011074385 0.077223845 -0.4540895
-0.4930299 0.05166954 0.5485559 -0.7248746 0.21555486 -0.40765437 0.19231065 0.16002241
-0.31729484 0.115842216 0.22717485 -0.23885396 0.2856517 -0.5483916 -0.06362953 0.06919374
-0.42245075 0.31266847 -0.4481845 0.15145491 -0.13223043 0.49291116 -0.6146273 0.24734437
-0.15163243 0.04973225 -0.07269552 0.31009004 -0.1839543 0.015907297 0.059879497 0.42728424
0.11278109 0.6942221 -0.29659373 0.4391604 0.31269094 0.005123619 0.0014738345 0.12835014
00000000: 875b e7be 9204 9dbe 86e1 773e 7b92 323f
00000010: ee24 853e b183 093f eee9 b83e 3cdf 143e
00000020: 74d3 c03e 8440 853e 446f 473f 34fd 963c
00000030: 93bc 573d 82ec f03e abfe 453e 60b3 a03e
00000040: e103 ad3e ccb3 d6be ac29 a23d 3625 203f
00000050: 5ab0 013e 7ec8 663f 7295 3fbf 0d5a f1bd
00000060: cd13 9dbd 321c cabe eac3 8dbe c5d5 cfbe
00000070: 9cf8 3c3e 7062 043f e25c 493f 494e 87bd
00000080: a7e2 173e ef31 d0be a315 32be 0a81 3dbd
00000090: 391c 20bf ceb5 b53d cce8 a4bb 80f6 8e3d
000000a0: 9bcf f73e 1566 86be 25a9 953e 6ed5 e33d
000000b0: ebc3 3bbe 2cc6 7ebe 5449 e13d fe3a 3cbf
000000c0: 07b1 31be 2e5e 0cbf f72c a33e ea56 a3be
000000d0: 323b 483e 2bc5 a6be d98c aa3d ac0b 833c
000000e0: 85db 8e3d 0cd4 64bd 0191 9e3e 01be 28bf
000000f0: f2bb 42be 1c23 92be 399a f8be 17a2 b7be
00000100: 731e 3e3e d25e 30be 7e8f 2dbe dc56 96bd
00000110: 586d 873e 1040 0f3f 55a1 29bd aafb 693d
00000120: 9589 83bd 9e12 9abe 68d5 ff3e f053 27bd
00000130: 7294 10be 81cf 91be 5912 dc3d 8e9b 713d
00000140: 498e 2abe af7d 013e e684 a93e 15c3 b7be
00000150: e81f 3e3e 37ad 9ebe 87ad ef3d ffb9 bdbe
00000160: a3bd ba3d 0e47 a0be 66df ecbd 824c 9f3e
00000170: 4347 4dbe 7c0d a83d da7a 07bf 0b0e 933d
00000180: a150 edbe 1ce4 c93c 17bf cb3e 1f9f 053f
00000190: 308e c4be f32e afbd ccaa e93e f0bb 733f
000001a0: 5ee4 72be 823a d3be 619f a5be d2be e5be
000001b0: 2901 a03e fce9 4c3e 9667 42bf bc40 1cbf
000001c0: 2e28 b13d 3e60 573e 5aba c6bd 5641 543e
000001d0: f650 dabd 62a5 4c3e 4423 58be 40be 1c3f
000001e0: 7648 983e 6303 dc3e 2686 3f3f 267b af3d
000001f0: a8cd 4a3e bc60 dfbe 0c83 42be c2fa 833c
00000200: 2042 2d3d 0a94 223e c06e b23c c007 f73e
00000210: 78b4 abbe d1dd f5be 0740 e1bd acdf 813d
00000220: c3ea b4be 1a50 363e 7356 04bf b3ed 3bbc
00000230: 4add cd3e d23b 9fbe 34ab f73d d3ee 88be
00000240: d069 163e 1676 6d3e d15d 04be ee88 07bd
00000250: d4c9 97be 5671 35bc 8927 9e3d 6b7e e8be
00000260: 6a6e fcbe 71a3 533d 296e 0c3f 6291 39bf
00000270: 6aba 5c3e 13b8 d0be 15ed 443e eadc 233e
00000280: 7874 a2be af3e ed3d 86a0 683e 2296 74be
00000290: f140 923e 6463 0cbf 3350 82bd 73b5 8d3d
000002a0: 774b d8be 1516 a03e 7078 e5be ff16 1b3e
000002b0: 6a67 07be da5e fc3e 3758 1dbf d847 7d3e
000002c0: 8845 1bbe 0bb4 4b3d 64e1 94bd 1fc4 9e3e
000002d0: 845e 3cbe 0550 823c 3444 753d 00c5 da3e
000002e0: c6f9 e63d 8ab8 313f 22db 97be a2d9 e03e
000002f0: 0719 a03e 08e4 a73b ae2d c13a 386e 033e

fc.bias f4 [6]
-0.14727089 -0.19861197 0.16435133 -0.7662016 -0.5284018 -0.14673239
00000000: 2ece 16be f060 4bbe b74b 283e ca25 44bf
00000010: 5745 07bf 0441 16be
