lstm/federated/base_lstm_member2_federated.pt (torch, 125303 bytes, 10 tensors)

lstm1.weight_ih_l0 f4 [256, 3]
0.045318745 0.012402243 -0.062305987 -0.24618636 -0.06274994 -0.2851665 0.38236648 0.007256424
0.32153928 0.28644 0.32469755 0.42635757 0.20062459 0.0027173357 0.16561586 0.1889807
-0.2028502 0.010844212 0.055576008 -0.062193334 -0.18015154 -0.48656052 -0.44017982 -0.82190967
-0.22163612 -0.11507541 -0.07254531 -0.18943956 -0.24545294 -0.32812294 -0.01894391 0.06777395
-0.35015222 0.14129117 0.04043453 -0.1456444 0.50322056 0.17692187 -0.055856824 0.3567367
0.4357962 0.32181668 -0.24489126 0.15549758 0.23644073 -0.02813363 -0.16480969 -0.32118785
0.030672215 0.26125467 0.27558798 -0.012709296 0.028545955 -0.22996375 0.006917371 -0.046843022
-0.028850002 -0.45048016 -0.38985145 -0.08999232 -0.6607029 0.07969696 0.79242843 -0.51326513
-0.20332603 -0.45847207 0.843048 -0.51348543 -0.44231963 -0.19852239 -0.39517683 -0.04597053
-0.14138219 0.04463658 0.52485514 -0.22109398 -0.0633207 -0.2798186 -0.05129409 0.09710962
-0.06262772 -0.0014848887 0.38343132 0.24322596 0.11172392 0.34261912 0.22180367 0.25342104
-0.57626617 -0.26792434 0.09261279 0.23631582 0.15344368 -0.014792909 0.050964117 0.23290391
-0.2450234 -0.10637514 -0.12963066 0.23604941 0.5645808 -0.07228066 -0.034012694 -0.06530531
0.107885644 -0.08724116 0.19142818 0.22523336 0.17523164 0.023490433 -0.23240016 -0.20536748
-0.16079783 -0.42394304 -0.09051039 -0.03862334 -0.09374491 0.07383759 0.15041858 0.05028517
-0.43237418 -0.5642688 0.39448917 -0.028683525 -0.102784276 -0.1492266 0.1374986 -0.3065147
-0.07324886 -0.59580374 0.22272865 0.28545052 0.23159157 0.21335684 -0.098177 0.3791231
0.20893364 0.40395063 -0.22234225 -0.09024521 0.10439964 -0.036107756 -0.078386694 -0.047387224
-0.1787299 0.47425938 0.26951385 -0.12654431 -0.01679772 -0.0538147 0.21539596 -0.10200485
0.01865467 -0.030115671 0.20503229 0.22480005 0.007528847 -0.16160576 -0.2307041 0.24360639
0.4015425 0.27080685 0.28383932 -0.021298243 -0.05860543 0.056901865 -0.061322786 0.034300227
0.27928072 0.22854283 0.29437852 -0.67858493 0.29090384 0.4772438 -0.23306791 -0.12370743
0.55990297 -0.12149006 0.03291198 0.015895154 -0.3215619 -0.14998932 -0.07731841 -0.04725056
0.10115217 -0.0737375 0.04129011 0.07492681 0.1280143 0.30114305 0.28798014 -0.2661935
-0.008723689 0.08708228 0.024199422 -0.060619034 0.055296756 0.15444213 0.035458535 -0.01221942
0.05055917 -0.13134146 -0.14295812 -0.10198251 -0.1696398 -0.14880557 -0.16708963 -0.19359115
-0.19129987 -0.06493507 -0.14516154 -0.017783027 -0.15629673 0.022484126 -0.026856637 0.04835362
-0.13646005 0.0528877 -0.018528769 0.30241254 0.1552418 0.021897662 -0.15504667 -0.11333248
-0.025074119 0.034461528 -0.08161418 -0.022897612 -0.30365354 -0.287058 -0.22494425 0.13551547
0.07965228 -0.056431625 0.053871468 0.07364111 -0.028287526 -0.10860017 -0.0889058 0.055919304
0.051231615 -0.038216688 0.1382765 -0.10415628 -0.07439932 -0.11823656 -0.24085493 -0.22429264
0.088400185 0.2950821 0.16119567 0.07527752 -0.004632421 -0.09376587 -0.016790852 -0.07735581
00000000: 26a0 393d c732 4b3c 9034 7fbd 4718 7cbe
00000010: 0a83 80bd 5801 92be 8ac5 c33e 4cc7 ed3b
00000020: cca0 a43e 44a8 923e c23e a63e 8a4b da3e
00000030: 8870 4d3e 5415 323b 3497 293e 2884 413e
00000040: f6b7 4fbe ecab 313c aba3 633d 70be 7ebd
00000050: a579 38be 761e f9be 405f e1be ac68 52bf
00000060: 94f4 62be a8ac ebbd a392 94bd 72fc 41be
00000070: 0458 7bbe bbff a7be 4230 9bbc 12cd 8a3d
00000080: 2747 b3be a2ae 103e ad9e 253d ce23 15be
00000090: 10d3 003f 022b 353e 20ca 64bd 31a6 b63e
000000a0: ae20 df3e 28c5 a43e c6c4 7abe c23a 1f3e
000000b0: 851d 723e 8078 e6bc dfc3 28be bc72 a4be
000000c0: 4c44 fb3c 2cc3 853e de19 8d3e a73a 50bc
000000d0: 35d9 e93c 9e7b 6bbe 1dab e23b 78de 3fbd
000000e0: d756 ecbc 56a5 e6be 9c9a c7be e54d b8bd
000000f0: d323 29bf 2938 a33d 97dc 4a3f 5865 03bf
00000100: b334 50be dabc eabe fed1 573f c873 03bf
00000110: b877 e2be 7449 4bbe 9e54 cabe 984b 3cbd
00000120: 7ec6 10be d9d4 363d e85c 063f 7666 62be
00000130: 48ae 81bd 6244 8fbe c019 52bd 69e1 c63d
00000140: f642 80bd 99a0 c2ba 1c51 c43e 3a10 793e
00000150: 83cf e43d c66b af3e 8020 633e 67c0 813e
00000160: 2e86 13bf 612d 89be c6ab bd3d c6fc 713e
00000170: 5720 1d3e f55d 72bc c0bf 503d 5d7e 6e3e
00000180: 6ae7 7abe 36db d9bd e6bd 04be f0b6 713e
00000190: 5e88 103f e207 94bd e550 0bbd cabe 85bd
000001a0: 26f3 dc3d 7eab b2bd c005 443e 93a3 663e
000001b0: ec6f 333e 026f c03c 4ffa 6dbe da4b 52be
000001c0: 30a8 24be 100f d9be 835d b9bd 8233 1ebd
000001d0: 55fd bfbd 2a38 973d 5407 1a3e d3f7 4d3d
000001e0: 2660 ddbe ec73 10bf 7cfa c93e b6f9 eabc
000001f0: 9080 d2bd dcce 18be 6fcc 0c3e 7fef 9cbe
00000200: 8003 96bd 9886 18bf fb12 643e 9226 923e
00000210: 5726 6d3e 377a 5a3e 0611 c9bd 6c1c c23e
00000220: b3f2 553e 9ed2 ce3e b0ad 63be 7bd2 b8bd
00000230: 7acf d53d bae5 13bd 3489 a0bd 1b19 42bd
00000240: f904 37be 20d2 f23e b8fd 893e d594 01be
00000250: 5f9b 89bc ce6c 5cbd c290 5c3e ebe7 d0bd
00000260: aed1 983c 24b5 f6bc fcf3 513e fc31 663e
00000270: 8cb4 f63b fb7b 25be b23d 6cbe f473 793e
00000280: fb96 cd3e 32a7 8a3e 6353 913e a779 aebc
00000290: 3f0c 70bd ee11 693d 9a2d 7bbd 657e 0c3d
000002a0: e2fd 8e3e 2207 6a3e c8b8 963e beb7 2dbf
000002b0: 59f1 943e 4d59 f43e 5ba9 6ebe 525a fdbd
000002c0: cd55 0f3f c8cf f8bd b6ce 063d 8e36 823c
000002d0: c3a3 a4be cd96 19be 1d59 9ebd ce89 41bd
000002e0: de28 cf3d b003 97bd d21f 293d 3a73 993d
000002f0: 2e16 033e 6c2f 9a3e 2272 933e 844a 88be
00000300: ceed 0ebc 3258 b23d de3d c63c aa4b 78bd
00000310: da7e 623d 1426 1e3e f83c 113d f633 48bc
00000320: 2217 4f3d 607e 06be 9d63 12be 35dc d0bd
00000330: 0eb6 2dbe 7d60 18be 8b19 2bbe c23c 46be
00000340: 1de4 43be aefc 84bd 3aa5 14be b6ad 91bc
00000350: 400c 20be a130 b83c 7302 dcbc 720e 463d
00000360: 2fbc 0bbe c6a0 583d a5c9 97bc d1d5 9a3e
00000370: b5f7 1e3e ba62 b33c 8ec4 1ebe dc1a e8bd
00000380: 3d68 cdbc 8827 0d3d 5625 a7bd c693 bbbc
00000390: 7a78 9bbe 44f9 92be c957 66be 91c4 0a3e
000003a0: bc20 a33d d924 67bd 54a8 5c3d 26d1 963d
000003b0: 3ebb e7bc c469 debd 3e14 b6bd a40b 653d
000003c0: 3ed8 513d 1a89 1cbd 5b98 0d3e e34f d5bd
000003d0: ac5e 98bd 0226 f2bd ada2 76be f8ac 65be
000003e0: 280b b53d 0015 973e 7a10 253e 1a2b 9a3d
000003f0: 90cb 97bb 5208 c0bd f88c 89bc b96c 9ebd

lstm1.weight_hh_l0 f4 [256, 64]
0.14735205 0.0018962185 0.08958976 0.08815181 0.029441014 0.049458995 0.09993908 0.07055156
-0.004848105 -0.26689807 0.08801717 0.06823536 -0.0058574406 0.13343287 0.014979407 -0.06006501
-0.0014852147 -0.15046147 0.022301504 -0.04521502 0.0032013548 -0.0031454873 -0.031456396 0.107893355
-0.040668752 -0.1225346 -0.090886205 0.011693176 -0.14074641 0.14105888 0.016908806 -0.0656901
-0.1080544 0.093068734 -0.13849199 0.1487298 -0.18951704 0.083212964 0.008807626 -0.10852106
0.07904982 -0.009733591 -0.02255979 0.054788202 -0.10728927 -0.121093936 -0.10528794 0.11211325
0.055048943 0.14166993 0.025445051 -0.0046969717 0.0008667486 -0.13318592 0.03532833 -0.034849543
0.0118342005 0.04939607 0.04839535 -0.072298944 0.058141388 0.059160996 0.042410936 0.14293951
0.068512544 -0.12871417 0.006275812 -0.0055524665 -0.14913534 -0.062049508 0.009447969 0.22985357
0.11687794 -0.217852 0.043162234 0.09644924 0.20128584 -0.08101642 0.062370323 -0.048784845
0.07068826 -0.089689136 0.16323046 0.24894527 -0.021419168 0.24975568 0.08351384 0.14927568
0.034042627 0.021615453 0.061383337 -0.12385827 0.17379186 -0.06030225 -0.10686788 0.1427582
0.13143633 -0.15515138 -0.19740574 0.17873283 -0.029094597 0.0015324326 -0.1327694 -0.010443351
0.029082276 -0.15876198 -0.1181859 0.083477035 -0.0941502 0.03848655 -0.17177173 -0.0017829908
-0.0663877 -0.11529217 -0.060005307 -0.04385019 -0.05683633 0.06220168 -0.062754065 0.088459164
-0.06244438 -0.022851782 -0.025862852 0.083377235 0.08519541 -0.03906149 0.0313337 0.01874141
0.08251566 0.0649381 0.107685134 -0.038810432 -0.11491035 -0.10487782 -0.091518074 0.17909463
-0.0140883615 -0.2162767 0.12250084 -0.08131286 -0.085569315 0.038990423 0.019898105 -0.1383535
-0.03837544 -0.21587789 -0.06287087 -0.04434801 -0.03213318 -0.032741375 0.15040208 0.07281561
-0.20158702 0.05423932 -0.089375034 -0.047655668 -0.023092285 0.053329147 0.07750492 0.08353995
0.017750941 0.15568094 0.027674522 0.03034776 -0.03831654 0.048797354 0.12778947 0.10109377
0.13575503 -0.014275905 -0.029402327 0.06647552 -0.107623085 0.022404194 -0.06927184 -0.013510212
-0.05248931 -0.0031336574 -0.104513876 -0.122233875 -0.010570193 0.05675886 -0.009095055 -0.02685452
0.07382997 0.032935947 0.08535251 0.08711499 0.17168732 0.12756053 0.12219568 0.023349922
-0.07657501 0.10177417 0.04440427 -0.21518892 -0.034226093 0.13547312 0.08993164 -0.11040207
0.0264762 0.10128758 0.008246101 -0.1483047 -0.16715306 -0.02041841 0.07855791 0.040733736
-0.048740022 0.122320116 -0.16208237 0.025454648 0.020799223 -0.23453361 0.082268454 -0.014819979
-0.1398595 -0.09936363 0.13909036 -0.12634566 -0.038321603 0.03643449 0.13732427 -0.16566211
-0.19233058 0.15708488 -0.02369417 0.062261596 0.099143445 -0.008522724 0.0078115584 0.16512062
0.05240033 0.107279964 0.003929538 -0.0019244016 -0.018994594 0.010183468 -0.0015348776 0.029750358
0.051049918 -0.04371514 0.017953249 0.0076331077 -0.014935411 0.06490471 -0.22595021 0.11926189
0.016939119 0.13671982 0.04042401 -0.023786811 -0.019805513 0.13389474 -0.1058988 -0.032707434
00000000: 75e3 163e 898a f83a d67a b73d f088 b43d
00000010: 482e f13c 8495 4a3d dcac cc3d 567d 903d
00000020: dadc 9ebb dda6 88be 5942 b43d fbbe 8b3d
00000030: c6ef bfbb a0a2 083e 306c 753c ba06 76bd
00000040: 89ab c2ba 9212 1abe a5b1 b63c 6333 39bd
00000050: d2cd 513b 8524 4ebb 6cd8 00bd 31f7 dc3d
00000060: 4794 26bd 6cf3 fabd 8c22 babd bc94 3f3c
00000070: d41f 10be bd71 103e 5684 8a3c 8888 86bd
00000080: a04b ddbd d29a be3d d8d0 0dbe a04c 183e
00000090: c110 42be 8f6b aa3d dc4d 103c 4a40 debd
000000a0: dfe4 a13d a479 1fbc 4fcf b8bc 9869 603d
000000b0: 7aba dbbd 1900 f8bd 34a1 d7bd a29b e53d
000000c0: 007b 613d ec11 113e 2472 d03c 0ee9 99bb
000000d0: 8436 633a e461 08be 70b4 103d 65be 0ebd
000000e0: 3ce4 413c 8953 4a3d 343a 463d 7811 94bd
000000f0: aa25 6e3d cd52 723d 17b7 2d3d bc5e 123e
00000100: 4e50 8c3d a6cd 03be 54a5 cd3b 77f1 b5bb
00000110: efb6 18be a027 7ebd a7cb 1a3c bc5e 6b3e
00000120: b45d ef3d 9814 5fbe e2ca 303d 2e87 c53d
00000130: e01d 4e3e f0eb a5bd 0678 7f3d 9ed2 47bd
00000140: 02c5 903d f0ae b7bd e325 273e 82eb 7e3e
00000150: 4077 afbc f4bf 7f3e 4e09 ab3d b9db 183e
00000160: 4870 0b3d e412 b13c 186d 7b3d 68a9 fdbd
00000170: 7ef6 313e 7eff 76bd 8cdd dabd 352f 123e
00000180: 3f97 063e 01e0 1ebe bb24 4abe bd05 373e
00000190: cb57 eebc e8db c83a b4f4 07be 971a 2bbc
000001a0: f43d ee3c 8092 22be 730b f2bd 02f6 aa3d
000001b0: d2d1 c0bd 13a4 1d3d eee4 2fbe 3eb3 e9ba
000001c0: 46f6 87bd 4d1e ecbd 20c8 75bd 429c 33bd
000001d0: 36cd 68bd 30c7 7e3d 3485 80bd 142a b53d
000001e0: aec5 7fbd a933 bbbc 55de d3bc afc1 aa3d
000001f0: ee7a ae3d f1fe 1fbd c457 003d 9687 993c
00000200: f8fd a83d 44fe 843d 068a dc3d b0f7 1ebd
00000210: 1e56 ebbd 2fca d6bd d46d bbbd 9564 373e
00000220: dfd2 66bc a477 5dbe b8e1 fa3d 5b87 a6bd
00000230: f73e afbd 6cb4 1f3d 5a01 a33c 8aac 0dbe
00000240: 912f 1dbd 180f 5dbe 71c2 80bd 42a6 35bd
00000250: 159e 03bd d21b 06bd 0103 1a3e 5a20 953d
00000260: d46c 4ebe 0d2a 5e3d 420a b7bd 9732 43bd
00000270: 082c bdbc aa6f 5a3d e6ba 9e3d fe16 ab3d
00000280: 6c6a 913c d36a 1f3e aeb5 e23c de9b f83c
00000290: cef1 1cbd bcdf 473d 3edb 023e 400a cf3d
000002a0: 5e03 0b3e 7ce5 69bc 26dd f0bc 5124 883d
000002b0: 7e69 dcbd 0089 b73c 65de 8dbd f059 5dbc
000002c0: 08ff 56bd 0c5e 4dbb 5f0b d6bd c155 fabd
000002d0: 9a2e 2dbc fa7b 683d 6d03 15bc 03fe dbbc
000002e0: 2b34 973d d8e7 063d 4ccd ae3d 5869 b23d
000002f0: cdce 2f3e 3a9f 023e bb41 fa3d 5648 bf3c
00000300: 5cd3 9cbd fa6e d03d 40e1 353d 7c5a 5cbe
00000310: a930 0cbd 77b9 0a3e 142e b83d 7b1a e2bd
00000320: 9ee4 d83c dd6f cf3d a81a 073c 30dd 17be
00000330: 2c2a 2bbe 8244 a7bc f8e2 a03d 6bd8 263d
00000340: 9ea3 47bd f882 fa3d ecf8 25be 4486 d03c
00000350: 2263 aa3c 9429 70be 5d7c a83d 7fcf 72bc
00000360: 5437 0fbe 297f cbbd b46d 0e3e c260 01be
00000370: 1df7 1cbd 553c 153d bc9e 0c3e 54a3 29be
00000380: 4ff2 44be dcda 203e 471a c2bc 0406 7f3d
00000390: b80b cb3d e5a2 0bbc 1af8 ff3b 6115 293e
000003a0: baa1 563d 99b5 db3d 5bc3 803b 343c fcba
000003b0: 8d9a 9bbc 90d8 263c f22d c9ba 06b7 f33c
000003c0: b819 513d a60e 33bd b112 933c 261f fa3b
000003d0: a7b3 74bc c3ec 843d 7e5f 67be 943f f43d
000003e0: e8c3 8a3c 4800 0c3e a693 253d 8fdc c2bc
000003f0: 2c3f a2bc b41b 093e 78e1 d8bd 3bf8 05bd

lstm1.bias_ih_l0 f4 [256]
-0.066602506 -0.048605993 -0.018158143 0.13560957 -0.040119648 -0.11492486 -0.13387677 -0.058771618
-0.017675601 0.15629776 0.082313776 -0.08409673 0.0027583651 -0.2476833 -0.048275523 -0.027507398
0.040671837 -0.09575039 0.093920834 -0.049714353 -0.08582209 -0.11828629 -0.12356834 -0.06347443
0.03596648 0.04889618 -0.016537428 0.009406404 -0.045931432 -0.032293636 0.12774861 -0.08466038
0.015381437 -0.13144182 -0.032386243 -0.06872533 0.022841636 -0.23024184 -0.09859051 -0.110657506
-0.12641266 -0.02251986 -0.0734157 -0.18154307 -0.07652569 -0.009210775 -0.1213017 -0.09024573
0.010493245 -0.020178046 -0.08831428 -0.0984592 0.08984879 -0.059629217 0.05963651 0.016546933
0.107089564 -0.033957403 -0.1461799 -0.15547661 0.018092535 0.04165467 -0.05523902 0.007294417
-0.012974736 0.039434254 0.020889075 0.25293395 0.0011434301 -0.02112177 -0.10701692 0.13934152
-0.04699542 0.15383346 0.053831246 -0.029281456 -0.008175581 0.048354845 -0.03398704 -0.12253073
0.09346844 0.038919844 -0.009608717 0.11286693 0.16175523 0.06403777 0.20731422 -0.059982155
0.1427683 -0.037229445 0.029639274 0.23856461 0.09112895 0.013681166 0.041588172 0.06818469
0.121984884 0.19705057 -0.041605413 -0.16211489 0.103850976 -0.0421215 -0.0087874 -0.16545694
0.22403134 0.058738176 0.019486904 -0.046623394 0.15654038 0.072349034 -0.09700884 -0.011359087
0.0027020513 -0.082114965 0.16007482 0.037598915 -0.029171664 0.0647296 0.045334544 0.09837449
-0.063813664 -0.061946966 -0.113223284 -0.104123965 -0.070833676 0.01751161 -0.13632855 -0.03963326
0.0041412218 0.013814832 -0.016024418 0.034688137 0.0051058754 -0.012023431 -0.031017087 0.041073903
-0.01699921 -0.017384619 -0.090045094 -0.061117917 -0.11875774 -0.03107804 -0.020570854 -0.005213357
0.019775625 0.055669844 -0.051762067 0.011592308 0.036338888 0.043045484 -0.018131182 0.023762288
0.016449593 0.1675757 0.071597144 0.01641131 -0.01342486 0.10762894 -0.022649802 0.022823643
0.04816115 0.047302023 0.15392865 -0.04675263 0.14243756 0.06492751 0.07820095 0.042902473
0.11543198 -0.056465592 -0.009453494 -0.06560476 0.084421754 -0.0851125 0.038064923 0.022940712
-0.06559999 -0.09979599 -0.015308937 -0.11291605 0.03133358 0.06772773 0.031496514 0.10709194
0.030706435 0.11636266 0.056350566 0.003633213 -0.11169188 -0.002646042 -0.112712555 0.10100536
0.024574626 -0.041430686 0.10152942 0.117490895 0.079646245 0.012860622 -0.0876501 0.14429675
-0.12826192 0.049554348 0.0879238 -0.08977628 0.1714813 0.056343615 -0.15394908 -0.06682463
0.11585112 0.052181542 0.11993011 -0.009122192 0.08007115 -0.042277295 0.16042782 -0.1284776
0.08333607 -0.12678693 -0.0735665 0.10877028 -0.08494794 -0.007386471 0.034801647 0.024138145
-0.12462248 0.039235547 -0.009992058 0.043756455 -0.031805247 -0.11705282 -0.032566544 -0.1654851
0.21264026 0.098478235 -0.14614445 -0.07994335 0.08288288 0.0435789 0.054437086 0.015099239
-0.03506861 -0.15551874 -0.025506277 -0.05181785 0.05364858 -0.097952366 0.03423931 0.10798979
-0.06874615 0.0023828023 0.07819857 -0.13080153 0.036741342 -0.13909216 -0.10146333 -0.07038261
00000000: e566 88bd 1417 47bd 63c0 94bc 3cdd 0a3e
00000010: 8054 24bd ba5d ebbd fe16 09be 82ba 70bd
00000020: 6ccc 90bc 850c 203e 2094 a83d e83a acbd
00000030: b0c5 343b b1a0 7dbe 8ebc 45bd 3257 e1bc
00000040: 8397 263d c818 c4bd 9159 c03d 47a1 4bbd
00000050: 7ec3 afbd 1540 f2bd 6611 fdbd e2fe 81bd
00000060: 9651 133d 5c47 483d 8079 87bc 511d 1a3c
00000070: 9922 3cbd 5546 04bd 88d0 023e 6c62 adbd
00000080: 6c02 7c3c af98 06be 70a7 04bd debf 8cbd
00000090: 621e bb3c 84c4 6bbe d2e9 c9bd 67a0 e2bd
000000a0: 5272 01be 927b b8bc f85a 96bd 6de6 39be
000000b0: 80b9 9cbd cae8 16bc 076d f8bd c1d2 b8bd
000000c0: dceb 2b3c 6e4c a5bc 1ede b4bd faa4 c9bd
000000d0: a402 b83d c43d 74bd 6a45 743d 6f8d 873c
000000e0: c651 db3d eb16 0bbd 2fb0 15be 4335 1fbe
000000f0: cc36 943c 169e 2a3d 5042 62bd 0106 ef3b
00000100: fd93 54bc d085 213d 911f ab3c 8f80 813e
00000110: 26df 953a 9007 adbc b02b dbbd 8baf 0e3e
00000120: 457e 40bd 8586 1d3e 277e 5c3d aadf efbc
00000130: dff2 05bc bb0f 463d ff35 0bbd 64f1 fabd
00000140: 626c bf3d 6a6a 1f3d e16d 1dbc c726 e73d
00000150: 2aa3 253e 3c26 833d 2e4a 543e d9af 75bd
00000160: da31 123e e77d 18bd 10ce f23c 484a 743e
00000170: d1a1 ba3d f826 603c 5c58 2a3d 6aa4 8b3d
00000180: 36d3 f93d a0c7 493e 706a 2abd 7201 26be
00000190: d2af d43d 9887 2cbd 07f9 0fbc 8b6d 29be
000001a0: 7968 653e 7197 703d 00a3 9f3c 2cf8 3ebd
000001b0: 1f4c 203e bb2b 943d 92ac c6bd 771b 3abc
000001c0: e614 313b e42b a8bd a7ea 233e 5201 1a3d
000001d0: 6af9 eebc f490 843d b7b0 393d 9178 c93d
000001e0: bdb0 82bd 1abc 7dbd 9ce1 e7bd f23e d5bd
000001f0: 3f11 91bd 8274 8f3c b699 0bbe 7c56 22bd
00000200: 16b3 873b 9b57 623c a445 83bc 2615 0e3d
00000210: 304f a73b edfd 44bc 8c17 febc 1c3d 283d
00000220: ed41 8bbc 306a 8ebc 9069 b8bd c856 7abd
00000230: 4237 f3bd 6097 febc 3584 a8bc cfd4 aabb
00000240: 7e00 a23c 1006 643d 7604 54bd aaed 3d3c
00000250: 16d8 143d 7650 303d d887 94bc 21a9 c23c
00000260: 4cc1 863c f798 2b3e 86a1 923d 0371 863c
00000270: f2f3 5bbc 906c dc3d 148c b9bc a6f8 ba3c
00000280: a044 453d c4bf 413d 799f 1d3e b07f 3fbd
00000290: 27db 113e b7f8 843d d227 a03d 81ba 2f3d
000002a0: 9a67 ec3d 7748 67bd d4e2 1abc ca5b 86bd
000002b0: 50e5 ac3d 764f aebd f7e9 1b3d 29ee bb3c
000002c0: 4a59 86bd d761 ccbd 56d2 7abc 8840 e7bd
000002d0: a457 003d d6b4 8a3d 7d02 013d 0553 db3d
000002e0: 108c fb3c 8c4f ee3d dacf 663d 331b 6e3b
000002f0: b6be e4bd 3869 2dbb d7d5 e6bd e6db ce3d
00000300: ba50 c93c 39b3 29bd a8ee cf3d 119f f03d
00000310: 921d a33d 5cb5 523c e581 b3bd 87c2 133e
00000320: 1857 03be 80f9 4a3d 6511 b43d a0dc b7bd
00000330: cb98 2f3e 90c8 663d d4a4 1dbe 5adb 88bd
00000340: 5a43 ed3d 50bc 553d eb9d f53d 3f75 15bc
00000350: 58fc a33d f52a 2dbd 3147 243e a28f 03be
00000360: 1aac aa3d 6fd4 01be 08aa 96bd f4c2 de3d
00000370: 30f9 adbd 360a f2bb 2c8c 0e3d 5cbd c53c
00000380: 123a ffbd 74b5 203d bbb5 23bc f839 333d
00000390: 3846 02bd 64b9 efbd 7f64 05bd ed74 29be
000003a0: 5ebe 593e f5ae c93d e4a6 15be 57b9 a3bd
000003b0: 80be a93d ca7f 323d 6cf9 5e3d cc62 773c
000003c0: 1aa4 0fbd 4e40 1fbe 8af2 d0bc f43e 54bd
000003d0: 9dbe 5b3d 409b c8bd 853e 0c3d c029 dd3d
000003e0: c8ca 8cbd ca28 1c3b 9226 a03d d6f0 05be
000003f0: 177e 163d 2d6e 0ebe 02cc cfbd c224 90bd

lstm1.bias_hh_l0 f4 [256]
-0.0030159722 0.021529375 0.017121412 0.012985635 -0.030681841 -0.025293775 -0.07021831 -0.022855535
0.0538064 -0.06782169 -0.13360074 -0.095029175 -0.07415522 -0.17288357 -0.04156233 -0.015626295
0.08839374 -0.080243915 -0.11727157 0.040282417 -0.09020594 -0.031980477 -0.042816084 -0.06286227
0.11203389 -0.15045545 0.03492275 0.09873204 -0.032533426 -0.10994482 -0.054436706 0.027135154
-0.13482648 -0.15004304 -0.051938154 0.047580436 -0.03757744 -0.17489694 0.009869131 -0.12766635
-0.10539167 0.11436084 0.021687618 -0.02792527 0.074262656 -0.053764716 -0.1717425 0.029617274
0.071066365 0.062458172 -0.0040842704 -0.18100506 -0.061334483 0.060669575 0.011843175 0.063386
-0.021498606 -0.11781845 -0.14858423 -0.0658335 0.035558335 -0.17466398 -0.042164337 -0.023716334
-0.10121603 -0.039646614 -0.027417568 0.077023245 0.025923379 0.06655653 0.08070223 0.24584964
0.0674693 0.065488264 4.9254857e-05 -0.019928003 0.043144047 -0.10361541 -0.024828162 -0.002695371
0.057933494 -0.06257144 0.1088818 0.009883771 0.05964152 -0.05953423 0.2899618 -0.03973318
0.18830916 -0.0749498 0.12799373 0.02738045 0.04127512 0.006167665 0.089900635 -0.03225091
-0.050366603 0.22309287 0.11365627 -0.03359877 0.060096882 0.13203725 0.06402183 -0.00097551645
0.118974894 0.10989471 -0.10693814 -0.06720111 -0.033678822 -0.010862999 0.044188812 -0.05741094
0.080989555 -0.14085825 -0.0053950036 -0.08903994 0.10349009 0.09826107 -0.015193831 0.037226077
0.03733599 0.028734814 -0.0048261457 0.010572419 -0.038964566 0.11597958 -0.13440554 0.07935836
0.022091968 -0.013945774 -0.064746246 0.1328873 0.044843286 0.10331634 -0.0258156 -0.008208869
-0.02660824 -0.10942416 -0.018727757 -0.03456795 0.020188212 0.025213968 0.008788105 0.051352065
-0.026800439 -0.07329891 -0.03739027 0.0624485 0.020728841 0.041622028 0.081081346 0.01345637
-0.04407315 -0.042298306 0.13160777 -0.072119586 -0.033143938 0.1284754 0.10401276 -0.0041500907
0.11558719 -0.074059606 0.13388658 -0.0650844 0.13247633 0.0025292148 0.028302548 -0.00057194364
-0.05929984 -0.048851416 -0.04136022 -0.048091598 0.09128912 -0.07086996 0.0874445 0.048958078
0.09000754 -0.06276782 0.09054609 -0.03952604 0.04232811 0.09861447 0.055635493 -0.006815128
-0.1701694 0.043372717 0.046054475 0.03762393 0.12407314 0.07144398 0.08299786 -0.0894835
-0.04853665 -0.09816924 -0.0053096237 0.18407017 -0.096965745 -0.06365282 -0.04763612 0.027149035
0.048271544 0.19248007 -0.05286125 0.011340665 0.064971365 -0.07560474 0.0093758805 -0.045302406
0.06763819 -0.09766602 0.038837098 0.07523496 -0.005151181 -0.050023858 0.20487967 0.10038769
0.016077396 -0.12457742 -0.09457293 0.0601883 0.0041224253 -0.08363108 -0.085534416 -0.117541716
0.05821436 0.064204946 -0.04341249 -0.14512612 -0.020775212 -0.06193142 -0.13471824 -0.14070551
0.22888401 0.11089842 0.07305714 0.027613094 0.02813478 0.053428054 -0.17090082 0.102221854
0.16614333 -0.081786215 -0.057542276 0.012468298 0.13033992 0.07686237 -0.07038798 -0.056207832
-0.0063860114 0.005018131 -0.033572756 -0.0053030383 -0.06404761 -0.0036684428 -0.19710983 -0.007624738
00000000: 9ea7 45bb 5f5e b03c 3442 8c3c b3c1 543c
00000010: 7c58 fbbc e434 cfbc 9ece 8fbd 883b bbbc
00000020: 1a64 5c3d 19e6 8abd a2ce 08be a89e c2bd
00000030: b1de 97bd 6408 31be 433d 2abd b702 80bc
00000040: c707 b53d ec56 a4bd 142c f0bd 2dff 243d
00000050: e4bd b8bd f6fd 02bd eb5f 2fbd efbd 80bd
00000060: 0672 e53d fe10 1abe 280b 0f3d 0634 ca3d
00000070: c541 05bd c02a e1bd 06f9 5ebd 8b4a de3c
00000080: f40f 0abe e2a4 19be 1abd 54bd b4e3 423d
00000090: cdea 19bd 2f18 33be 23b2 213c f8ba 02be
000000a0: 96d7 d7bd 0436 ea3d 3baa b13c 89c3 e4bc
000000b0: 0517 983d 6438 5cbd 44dd 2fbe ed9f f23c
000000c0: 3e8b 913d 24d4 7f3d 58d5 85bb 6459 39be
000000d0: de39 7bbd a980 783d e009 423c 85d0 813d
000000e0: d81d b0bc cd4a f1bd 7726 18be b7d3 86bd
000000f0: 9ea5 113d 1ddb 32be 83b4 2cbd c248 c2bc
00000100: 5a4a cfbd 7d64 22bd cf9a e0bc 5dbe 9d3d
00000110: 445d d43c ca4e 883d 3647 a53d 02c0 7b3e
00000120: 582d 8a3d b61e 863d 0097 4e38 0d40 a3bc
00000130: d0b7 303d 5134 d4bd 6e64 cbbc d2a4 30bb
00000140: ac4b 6d3d 7525 80bd 6cfd de3d 8aef 213c
00000150: ab4a 743d 2ada 73bd e075 943e 42bf 22bd
00000160: 1ed4 403e 487f 99bd ca10 033e f74c e03c
00000170: 1a10 293d 201a ca3b d31d b83d 8819 04bd
00000180: 364d 4ebd 7572 643e 9ec4 e83d dd9e 09bd
00000190: 2628 763d c634 073e e11d 833d cdb9 7fba
000001a0: 1ca9 f33d 7a10 e13d 6202 dbbd bca0 89bd
000001b0: cef2 09bd b8fa 31bc 54ff 343d bc27 6bbd
000001c0: dadd a53d 253d 10be 92c8 b0bb 925a b6bd
000001d0: 9df2 d33d 1a3d c93d 8cef 78bc 5f7a 183d
000001e0: a0ed 183d 4665 eb3c a524 9ebb f037 2d3c
000001f0: 4f99 1fbd b486 ed3d 9ba1 09be a386 a23d
00000200: 37fa b43c d17c 64bc ae99 84bd 9c13 083e
00000210: 98ad 373d 8497 d33d 3d7b d3bc 7e7e 06bc
00000220: 86f9 d9bc c619 e0bd f46a 99bc 1f97 0dbd
00000230: c061 a53c 868d ce3c fcfb 0f3c 8b56 523d
00000240: 988c dbbc bd1d 96bd 8a26 19bd 00ca 7f3d
00000250: 88cf a93c dc7b 2a3d fa0d a63d 1b78 5c3c
00000260: 0c86 34bd fd40 2dbd 30c4 063e 6fb3 93bd
00000270: f0c1 07bd 0e8f 033e a404 d53d 7cfd 87bb
00000280: fab8 ec3d 90ac 97bd 9019 093e f84a 85bd
00000290: e0a7 073e 2fc1 253b bfda e73c 7dee 15ba
000002a0: 64e4 72bd 6c18 48bd 5669 29bd b2fb 44bd
000002b0: caf5 ba3d 4524 91bd 1a16 b33d 4488 483d
000002c0: e055 b83d 6a8c 80bd 3a70 b93d 0fe6 21bd
000002d0: 3e60 2d3d 62f6 c93d 0be2 633d 7051 dfbb
000002e0: e340 2ebe 97a7 313d 9ea3 3c3d 8d1b 1a3d
000002f0: 0f1a fe3d 3951 923d c8fa a93d 2043 b7bd
00000300: 5ece 46bd f40c c9bd 5afc adbb e47c 3c3e
00000310: fa95 c6bd 695c 82bd 181e 43bd a767 de3c
00000320: 62b8 453d 7f19 453e 0a85 58bd 32ce 393c
00000330: b50f 853d a8d6 9abd 4b9d 193c 048f 39bd
00000340: e485 8a3d 1f05 c8bd a613 1f3d c914 9a3d
00000350: 3dcb a8bb d1e5 4cbd facb 513e 1098 cd3d
00000360: beb4 833c 7222 ffbd 74af c1bd 0288 763d
00000370: 6915 873b c646 abbd ab2c afbd b6b9 f0bd
00000380: 2e72 6e3d e27d 833d 4cd1 31bd f19b 14be
00000390: c730 aabc cdab 7dbd 94f3 09be 1b15 10be
000003a0: 9260 6a3e b61e e33d fb9e 953d db34 e23c
000003b0: e97a e63c 60d7 5a3d a000 2fbe b159 d13d
000003c0: 7a21 2a3e 887f a7bd 73b1 6bbd d547 4c3c
000003d0: d477 053e 056a 9d3d 9327 90bd 2f3a 66bd
000003e0: bf41 d1bb 226f a43b 9683 09bd 1cc5 adbb
000003f0: 652b 83bd 426a 70bb 29d7 49be f0d8 f9bb

lstm2.weight_ih_l0 f4 [128, 64]
-0.20422952 0.014194982 0.015143638 0.08574882 0.039985813 0.08439712 -0.10406843 -0.20556226
0.20233387 0.08071923 0.10140757 -0.14039502 -0.21026891 -0.20381552 -0.030643366 -0.0005333349
0.09885621 0.16255486 0.055819154 0.1242799 0.14688757 -0.051627424 -0.118295915 -0.09466529
0.22270948 0.22589916 -0.020511629 -0.108190686 0.026243357 -0.008999931 -0.0677444 -0.020984564
-0.11136961 0.14196083 0.18642594 -0.1295535 -0.008015018 0.025559116 0.1778036 0.13593891
-0.12488482 -0.110634595 0.17879833 -0.07601861 -0.11494787 -0.020027176 -0.004404639 -0.086066805
-0.13583308 -0.12858017 0.22732791 -0.06416732 0.04650771 -0.050563045 -0.08372486 0.18470252
0.021180658 -0.033567842 0.020418359 -0.2371034 -0.1908683 0.022855287 -0.2056 -0.050692003
0.088366024 0.19372214 0.16939074 -0.027644046 0.26102325 -0.08783053 0.040214587 0.09465829
0.22556245 -0.023627788 -0.12775236 -0.14733465 0.071809016 0.13172328 -0.21021695 0.06326299
0.15870614 0.1370361 -0.17552191 -0.081501335 0.09145205 -0.14108229 0.07412898 0.082620084
-0.2481367 0.17020753 -0.117042154 -0.14923054 -0.2315942 -0.043694407 0.44535333 -0.17081788
0.060065493 0.041167688 0.26996794 -0.1866246 -0.05196434 0.06741004 0.005740512 -0.23446436
0.024919054 0.099404864 0.15673453 0.06278802 0.44388136 0.2022066 -0.0145746805 0.006307488
0.07522122 -0.066533685 0.32158482 0.18336308 -0.07593858 0.07013335 -0.1129952 0.16743374
0.13369304 0.20687708 0.16564703 0.21728 -0.18724719 0.21318072 -0.067479 0.27284414
-0.02674551 0.110370316 -0.034985647 0.027000124 -0.09261908 0.06523896 0.008835204 0.053379703
-0.031490427 -0.028257217 -0.20085835 -0.19491762 -0.12202968 -0.1595596 0.12293197 -0.051274918
0.083368376 0.17216113 -0.23061919 0.05575639 0.16679764 -0.24785645 -0.019840518 0.29780576
0.08066701 -0.084034465 0.2646338 0.13345563 -0.1993194 -0.06644265 0.05693938 0.043828964
0.13611808 0.207057 0.21384618 -0.1472965 0.26441008 0.07542805 0.012353944 0.17550844
-0.16517974 -0.013634397 -0.06627678 -0.010152401 0.026003122 -0.0898775 0.069359854 0.0330927
0.009275051 0.10670691 -0.16728371 0.047819246 0.18235952 0.17662984 0.12734477 -0.0723297
0.16517842 0.0868742 -0.017282126 -0.12417743 0.11131494 0.0423438 -0.11791675 -0.03832736
0.060421877 -0.055705156 0.0075420104 0.2936662 -0.15197164 -0.062367473 -0.098462984 -0.19578153
0.3928511 -0.2750613 0.022924528 0.15473075 0.24023026 0.014748713 0.008335501 -0.22431654
0.0151688075 -0.12099797 0.006636202 -0.06599926 -0.108342834 -0.40688464 -0.09064224 0.013562907
-0.13638915 -0.014584141 -0.008601263 -0.26981303 -0.13201228 -0.010076083 0.11730185 0.0647612
-0.5774101 0.21254295 0.009910037 0.1832645 -0.085301965 -0.15236583 0.07337367 -0.04681819
-0.019370936 0.14123036 -0.102935836 0.24170941 0.0900062 -0.17171274 0.1803289 -0.025340047
0.010680227 0.032937482 -0.17377552 0.012324555 0.1990465 -0.031619675 0.14060238 -0.014889058
-0.101164155 -0.12748934 0.103206724 0.07946627 0.027871668 -0.05223649 -0.060780413 0.118659414
00000000: 8b21 51be 1292 683c 051d 783c 149d af3d
00000010: 2ac8 233d 66d8 ac3d d421 d5bd ea7e 52be
00000020: 9c30 4f3e 2050 a53d c6ae cf3d b6c3 0fbe
00000030: bc50 57be 04b5 50be cc07 fbbc 80cf 0bba
00000040: 2075 ca3d c874 263e a0a2 643d 7686 fe3d
00000050: b269 163e 4777 53bd 2145 f2bd e0df c1bd
00000060: f40d 643e 1c52 673e 0108 a8bc 1493 ddbd
00000070: 4ffc d63c 7274 13bc 93bd 8abd d2e7 abbc
00000080: c015 e4bd 2e5e 113e 71e6 3e3e aca9 04be
00000090: 6c51 03bc 5a61 d13c 2612 363e 9233 0b3e
000000a0: 9dc3 ffbd 6494 e2bd e916 373e a5af 9bbd
000000b0: ca69 ebbd 0810 a4bc ca54 90bb cb43 b0bd
000000c0: d417 0bbe 85aa 03be a6c8 683e 286a 83bd
000000d0: de7e 3e3d 321b 4fbd f077 abbd a822 3d3e
000000e0: 0f83 ad3c 6f7e 09bd 6744 a73c 3ccb 72be
000000f0: fb72 43be 033b bb3c ce88 52be 6ba2 4fbd
00000100: 3ff9 b43d 195f 463e c474 2d3e c475 e2bc
00000110: d7a4 853e 7ee0 b3bd 0db8 243d 35dc c13d
00000120: d8f9 663e 108f c1bc 84d1 02be e5de 16be
00000130: 9b10 933d 78e2 063e 1d43 57be 0790 813d
00000140: dd83 223e 3153 0c3e 04bc 33be 2cea a6bd
00000150: 364b bb3d e077 10be efd0 973d b834 a93d
00000160: 8c17 7ebe e24a 2e3e ccb3 efbd e4cf 18be
00000170: 0827 6dbe e8f8 32bd 5a05 e43e e2ea 2ebe
00000180: 3c07 763d 739f 283d 3d39 8a3e 851a 3fbe
00000190: 8fd8 54bd 460e 8a3d e81a bc3b 6d17 70be
000001a0: 0b23 cc3c c794 cb3d 047f 203e 0197 803d
000001b0: 6b44 e33e 3f0f 4f3e a4ca 6ebc 0baf ce3b
000001c0: 950d 9a3d d042 88bd c4a6 a43e 88c3 3b3e
000001d0: b085 9bbd 13a2 8f3d 076a e7bd c073 2b3e
000001e0: d4e6 083e 96d7 533e 609f 293e a67e 5e3e
000001f0: babd 3fbe 0c4c 5a3e 6e32 8abd 3ab2 8b3e
00000200: 6619 dbbc d509 e23d 1c4d 0fbd 5d2f dd3c
00000210: 12af bdbd 019c 853d 88c1 103c ada4 5a3d
00000220: 1bfc 00bd ae7b e7bc d0ad 4dbe 7c98 47be
00000230: b2ea f9bd 9763 23be c2c3 fb3d a605 52bd
00000240: 0abd aa3d 024b 303e 7027 6cbe d060 643d
00000250: 00cd 2a3e 15ce 7dbe 9588 a2bc ff79 983e
00000260: bf34 a53d 431a acbd 157e 873e 98a8 083e
00000270: 631a 4cbe 1613 88bd 4439 693d 0086 333d
00000280: 8a62 0b3e c006 543e 7efa 5a3e e5d4 16be
00000290: c260 873e 057a 9a3d 3268 4a3c 7cb8 333e
000002a0: e124 29be ce62 5fbc 1fbc 87bd 4256 26bc
000002b0: 8004 d53c b211 b8bd 8a0c 8e3d 368c 073d
000002c0: 62f6 173c 2789 da3d 6c4c 2bbe 1dde 433d
000002d0: 74bc 3a3e 74de 343e ab66 023e 9821 94bd
000002e0: 8824 293e 1aeb b13d 3f93 8dbc bd50 febd
000002f0: 16f9 e33d b170 2d3d 567e f1bd 26fd 1cbd
00000300: ee7c 773d 172b 64bd f822 f73b 6b5b 963e
00000310: 749e 1bbe 0975 7fbd f6a6 c9bd f47a 48be
00000320: c823 c93e d6d4 8cbe 38cc bb3c bd71 1e3e
00000330: ecfe 753e 96a4 713c a091 083c 3cb3 65be
00000340: 9786 783c c9cd f7bd 7f74 d93b 9f2a 87bd
00000350: d9e2 ddbd 2f53 d0be a4a2 b9bd f536 5e3c
00000360: 99a9 0bbe 52f2 6ebc 50ec 0cbc ef24 8abe
00000370: 3a2e 07be 2816 25bc f43b f03d 85a1 843d
00000380: 26d1 13bf dca4 593e b55d 223c b0a9 3b3e
00000390: ccb2 aebd ca05 1cbe ef44 963d 6ec4 3fbd
000003a0: ccaf 9ebc b19e 103e 06d0 d2bd ac82 773e
000003b0: 2c55 b83d 77d5 2fbe 24a8 383e ee95 cfbc
000003c0: 1efc 2e3c 74e9 063d 36f2 31be eeec 493c
000003d0: d8d2 4b3e a283 01bd 12fa 0f3e 3cf1 73bc
000003e0: 272f cfbd 918c 02be 0c5e d33d 36bf a23d
000003f0: 2053 e43c eef5 55bd e2f4 78bd b503 f33d

lstm2.weight_hh_l0 f4 [128, 32]
-0.12962098 0.09243013 0.02948219 -0.03302523 -0.16885723 0.07200134 0.030937012 -0.011037429
-0.12546916 -0.010694297 -0.0009952998 0.22050743 0.022978662 0.119734325 -0.16506903 -0.19001472
-0.21024045 0.011995172 0.31022048 -0.088955455 -0.3711642 0.108957425 0.06819755 -0.2517119
0.098438054 -0.024069125 -0.0632699 0.24963355 -0.07221017 -0.002763324 -0.050188377 -0.03630054
0.059328727 0.0356968 0.31158784 -0.10132222 0.15709183 -0.056293435 -0.1747954 0.13892154
0.22197282 0.06447958 0.051414546 -0.032861475 -0.15626924 0.028695676 -0.027779514 0.14009969
-0.021707604 0.13986889 -0.054358773 0.22912343 -0.00040171482 0.03625737 -0.15760657 -0.24240792
-0.14619294 -0.0018850056 0.16488545 0.18092874 0.042093072 -0.013942914 0.1798518 0.17173055
-0.10380647 -0.14978644 0.07207499 -0.07197876 -0.0566044 0.07797292 -0.072668485 -0.0049262745
-0.09818453 0.11493657 0.100802794 0.014121873 -0.25582722 0.068946406 0.14631233 -0.1620414
-0.06884894 0.053373355 0.04160947 -0.09444821 -0.31536648 0.1275251 -0.048300277 -0.3586524
-0.18009299 -0.107560806 0.0484879 0.1439215 -0.030476298 0.0032846853 -0.05520444 -0.13312006
-0.073009975 -0.09354459 0.047104154 -0.091344744 -0.008250313 -0.0896396 -0.11289871 0.12914063
0.06044019 -0.12471305 -0.14165318 0.25324687 0.1542787 0.25128615 -0.07899954 -0.3466278
0.08633123 0.22095196 0.19823831 -0.021023432 -0.03442961 0.26172987 0.12082742 -0.11588086
0.20841484 -0.097947426 -0.28401095 0.091858506 -0.020169508 0.23409745 -0.102489345 0.12673971
-0.27496886 0.013050303 -0.012151279 -0.013072151 0.16856459 -0.08660746 -0.021774173 0.121379435
-0.03010226 0.11263864 -0.016844837 0.035724446 -0.024416538 -0.071757756 0.0979754 -0.29383186
-0.023519339 -0.10935803 -0.03154862 -0.07994443 -0.10962102 -0.05149003 -0.15417346 -0.36216488
-0.119645014 -0.012030391 0.27772343 0.22675659 0.06858035 0.054071456 0.16464059 -0.119160235
-0.10109173 -0.13059273 -0.13734652 0.06253448 -0.45500347 -0.1602639 -0.042872924 -0.074901044
-0.23531991 -0.239425 0.15579017 -0.113642305 0.11374974 0.09387031 -0.13650417 -0.16194779
-0.05842637 0.22388555 0.16894282 -0.005636193 -0.027917296 -0.02305692 0.021539662 0.14456554
0.16495568 -0.042955242 -0.008731801 -0.06201503 -0.028890746 0.15186548 -0.03832744 -0.08660189
0.038169652 -0.06052803 0.029525138 0.24336082 -0.18638346 -0.14950319 -0.004905058 0.12886582
0.045713723 0.030128507 -0.0023456193 -0.116485536 0.029925358 0.022437392 -0.11957109 -0.09221624
0.16728902 0.31968778 0.115429565 0.060524885 -0.15113923 -0.010582973 0.15018561 -0.4411595
-0.111019865 0.06054823 -0.02584108 -0.07601413 0.2102631 0.14483988 -0.12653865 -0.019920621
-0.061624542 0.12112005 0.04728262 -0.015831754 0.034846783 0.30157742 -0.21831287 0.32928708
-0.0077459887 -0.24280386 -0.010126633 0.015261638 -0.09822556 0.012268435 -0.23245336 -0.11917088
-0.032128923 0.18501008 0.11476681 -0.12875351 -0.1006487 0.018071165 0.13974631 -0.15399352
-0.24407366 -0.16527812 0.17750862 0.098492 0.0987787 -0.0054617957 0.12683493 0.0376454
00000000: 5dbb 04be 024c bd3d a284 f13c 7745 07bd
00000010: e9e8 2cbe 7075 933d 9e6f fd3c 55d6 34bc
00000020: fd7a 00be 2237 2fbc b874 82ba b3cc 613e
00000030: bf3d bc3c 4537 f53d db07 29be 3893 42be
00000040: 4649 57be 6687 443c 38d5 9e3e 472e b6bd
00000050: 3c09 bebe 1225 df3d 28ab 8b3d 62e0 80be
00000060: e499 c93d 9d2c c5bc a693 81bd f09f 7f3e
00000070: ede2 93bd e218 35bb 5492 4dbd e0af 14bd
00000080: ae02 733d cf36 123d 7188 9f3e 0682 cfbd
00000090: aedc 203e f293 66bd 91fd 32be 7341 0e3e
000000a0: d84c 633e df0d 843d 0f98 523d c199 06bd
000000b0: 0b05 20be 3213 eb3c dd91 e3bc 4b76 0f3e
000000c0: 25d4 b1bc ca39 0f3e 4ea7 5ebd 559f 6a3e
000000d0: 409d d2b9 9c82 143d 9e63 21be c839 78be
000000e0: 9ab3 15be 4b12 f7ba bbd7 283e 6245 393e
000000f0: c969 2c3d d270 64bc 122b 383e 22da 2f3e
00000100: 7d98 d4bd 9e61 19be 0d9c 933d 9a69 93bd
00000110: 04da 67bd 44b0 9f3d 37d3 94bd 966c a1bb
00000120: f914 c9bd dd63 eb3d b271 ce3d 6e5f 673c
00000130: c9fb 82be c633 8d3d e6d2 153e 2eee 25be
00000140: ac00 8dbd 059e 5a3d b16e 2a3d 106e c1bd
00000150: b777 a1be f195 023e 83d6 45bd 4aa1 b7be
00000160: 4c6a 38be d748 dcbd 409b 463d 2860 133e
00000170: 6ea9 f9bc e043 573b 0d1e 62bd a050 08be
00000180: 4186 95bd 4e94 bfbd 49f0 403d f412 bbbd
00000190: 522c 07bc f794 b7bd 7037 e7bd 713d 043e
000001a0: 2290 773d 8e69 ffbd 880d 11be 93a9 813e
000001b0: 3cfb 1d3e 94a8 803e 83ca a1bd 3379 b1be
000001c0: 6ece b03d 3b41 623e fcfe 4a3e 5539 acbc
000001d0: 1006 0dbd 7501 863e 5e74 f73d f252 edbd
000001e0: b36a 553e a998 c8bd e269 91be 5020 bc3d
000001f0: 863a a5bc 3eb7 6f3e efe5 d1bd 0ec8 013e
00000200: b8c8 8cbe f0d0 553c 2816 47bc 932c 56bc
00000210: 329c 2c3e 415f b1bd c05f b2bc c895 f83d
00000220: 0499 f6bc 16af e63d 2ffe 89bc cc53 123d
00000230: 3105 c8bc bbf5 92bd 54a7 c83d 2171 96be
00000240: a1ab c0bc 1af7 dfbd 2039 01bd e8b9 a3bd
00000250: fc80 e0bd 36e7 52bd a6df 1dbe ad6d b9be
00000260: 7208 f5bd 1e1b 45bc c431 8e3e e132 683e
00000270: db73 8c3d 087a 5d3d 8b97 283e 480a f4bd
00000280: 2e09 cfbd 1aba 05be 91a4 0cbe 1412 803d
00000290: 37f6 e8be 381c 24be 859b 2fbd b865 99bd
000002a0: b4f7 70be d42b 75be 7587 1f3e 4cbd e8bd
000002b0: a0f5 e83d 143f c03d c0c7 0bbe a4d5 25be
000002c0: 7d50 6fbd 4142 653e 59ff 2c3e d0af b8bb
000002d0: d0b2 e4bc dee1 bcbc f273 b03c fd08 143e
000002e0: 24ea 283e d6f1 2fbd d40f 0fbc 7903 7ebd
000002f0: 49ac ecbc a082 1b3e 3cfd 1cbd 555c b1bd
00000300: c857 1c3d 3dec 77bd b4de f13c 9433 793e
00000310: 4edb 3ebe 5d17 19be 9cba a0bb 67f5 033e
00000320: 503e 3b3d 0fd0 f63c f6b8 19bb f88f eebd
00000330: 0626 f53c 9fce b73c b0e1 f4bd dedb bcbd
00000340: d04d 2b3e 1eae a33e 5666 ec3d f1e8 773d
00000350: 3ec4 1abe 3564 2dbc 42ca 193e a8df e1be
00000360: 625e e3bd 6c01 783d acb0 d3bc 4cad 9bbd
00000370: 364f 573e e850 143e 5993 01be 9230 a3bc
00000380: 046a 7cbd ca0d f83d 6cab 413d 98b1 81bc
00000390: 80bb 0e3d 5b68 9a3e 698d 5fbe 5198 a83e
000003a0: 10d2 fdbb 93a1 78be 2dea 25bc f30b 7a3c
000003b0: 7b2a c9bd 8c01 493c 4108 6ebe dd0f f4bd
000003c0: 9e99 03bd 4873 3d3e dc0a eb3d f6d7 03be
000003d0: e820 cebd fb09 943c a819 0f3e 7ab0 1dbe
000003e0: 72ee 79be ab3e 29be d2c4 353e 2cb6 c93d
000003f0: 7d4c ca3d ddf8 b2bb 04e1 013e 1032 1a3d

lstm2.bias_ih_l0 f4 [128]
-0.048407346 0.12751473 0.33696815 0.28602755 -0.057271913 -0.11116541 0.23962635 0.048095617
0.15924592 -0.08371864 0.22282334 -0.043017205 0.14519306 0.3053203 0.22815391 -0.036623724
0.002671175 0.032367073 0.16668504 -0.036847223 0.11486171 -0.09764959 0.1338261 0.24245763
0.08530295 0.13693605 0.080451936 -0.018145716 -0.14496292 0.1324201 0.26273203 -0.021839712
0.062399182 0.24129722 0.37263855 0.099215135 0.2902004 0.034903392 0.35801417 0.050148055
0.252051 0.24868871 0.21454354 0.12812153 0.14726758 0.11358376 0.0450988 0.3612706
0.17124262 0.42537236 0.3375303 0.34889933 0.07640767 0.32413644 0.16759427 0.36963943
0.12790537 0.23587424 0.36021426 0.17815523 0.17890869 0.28939718 0.20331582 0.44776243
0.14493209 0.03419184 -0.039329752 0.15304577 0.06865534 -0.049104203 -0.07491014 -0.07713933
0.15577081 -0.050534524 0.14782883 0.22590889 -0.15512067 -0.1220561 -0.19189247 -0.013284075
0.07699026 0.09032936 0.18562445 0.046447568 -0.02856905 -0.11777587 -0.049538605 -0.23599619
-0.019036856 -0.19943401 0.11436449 -0.06826416 0.015078758 0.16405798 -0.1289221 -0.14062993
0.15006873 -0.008944396 0.122489534 0.06714159 0.10035896 0.07454948 0.27116442 0.2783249
0.3268768 0.14662728 0.21934912 0.1903355 0.19401339 0.00289491 0.007979025 0.26327777
0.00283152 0.14015572 0.07943552 0.21695438 0.064268164 0.29720837 0.34917057 0.23203701
0.24175659 0.24874756 0.27695978 0.33752006 0.23508656 0.1801551 0.251404 0.06881373
00000000: c846 46bd 3993 023e 1787 ac3e 3472 923e
00000010: f495 6abd b1aa e3bd 9c60 753e e9ff 443d
00000020: 5d11 233e ae74 abbd cd2b 643e cf32 30bd
00000030: 7dad 143e f152 9c3e 2ea1 693e c202 16bd
00000040: e10e 2f3b 5693 043d 7caf 2a3e 1ded 16bd
00000050: 9e3c eb3d 82fc c7bd b609 093e d046 783e
00000060: 50b3 ae3d f738 0c3e fcc3 a43d 53a6 94bc
00000070: 2971 14be 2299 073e d084 863e 32e9 b2bc
00000080: 4996 7f3d 9e16 773e 7bca be3e 4e31 cb3d
00000090: 2695 943e dcf6 0e3d a24d b73e 0c68 4d3d
000000a0: d40c 813e 41a8 7e3e 4db1 5b3e 4a32 033e
000000b0: 50cd 163e 9a9e e83d 85b9 383d 76f8 b83e
000000c0: 3a5a 2f3e 68ca d93e c5d0 ac3e efa2 b23e
000000d0: a07b 9c3d 36f5 a53e d59d 2b3e 6141 bd3e
000000e0: a0f9 023e 0489 713e 016e b83e 536e 363e
000000f0: d733 373e de2b 943e 0632 503e 1e41 e53e
00000100: 1469 143e be0c 0c3d 3c18 21bd 08b8 1c3e
00000110: 2c9b 8c3d 7d21 49bd 7d6a 99bd 3afb 9dbd
00000120: 6282 1f3e 4afd 4ebd 7160 173e a954 673e
00000130: f4d7 1ebe 8cf8 f9bd 767f 44be 73a5 59bc
00000140: 12ad 9d3d 99fe b83d 5614 3e3e ce3f 3e3d
00000150: a409 eabc 7a34 f1bd fee8 4abd fca8 71be
00000160: 2ef3 9bbc 6e38 4cbe ee37 ea3d 14ce 8bbd
00000170: e50c 773c d1fe 273e 2804 04be 4b01 10be
00000180: 9eab 193e 848b 12bc cbdb fa3d 8881 893d
00000190: 0089 cd3d 66ad 983d 10d6 8a3e 9a80 8e3e
000001a0: 655c a73e 7625 163e 0e9d 603e 4fe7 423e
000001b0: 72ab 463e 88b8 3d3b 75ba 023c 58cc 863e
000001c0: 0691 393b fb84 0f3e 17af a23d 4a29 5e3e
000001d0: 079f 833d b22b 983e 7cc6 b23e 1c9b 6d3e
000001e0: 0a8f 773e aeb7 7e3e accd 8d3e 6ecf ac3e
000001f0: 88ba 703e 947a 383e 06b8 803e 36ee 8c3d

lstm2.bias_hh_l0 f4 [128]
0.08989103 0.069619946 0.12335095 0.31592488 0.029953305 0.06966089 -0.051518068 0.23286189
-0.061960686 0.13132228 0.0022699982 0.26556888 0.0075087887 -0.034277957 0.28640804 0.13533437
0.11726412 -0.0841209 0.16661999 0.17259315 -0.19871952 0.13572028 -0.14155905 0.22396895
0.1997208 -0.0070428927 0.18105 -0.13738629 -0.035225704 0.2622919 0.083182424 0.071850374
0.22958156 0.30212 0.21069574 0.13011333 0.093901 0.058613643 0.38613153 0.21612757
0.2315636 0.30146807 0.25908867 0.45067686 0.3054633 0.28254154 0.329297 0.17009601
0.35448235 0.33927122 0.07738374 0.46756342 0.23622322 0.16407895 0.26452178 0.21670891
0.3567702 0.08054629 0.26858324 0.2226671 0.111618206 0.09797675 0.13556667 0.35094392
0.017650783 0.103636235 0.12313822 -0.05950497 0.10850954 -0.0026732632 -0.13191403 -0.004776899
0.18113048 0.15276879 -0.08960975 0.12154063 0.028727673 0.08297575 0.053922184 0.1042667
-0.015358249 -0.08709738 -0.06984469 -0.0458734 -0.13767466 -0.0011808802 -0.1147456 -0.057452135
-0.069172405 0.00029408582 -0.039169375 0.10718645 0.017604545 -0.02196382 0.010477053 -0.12490907
0.23550543 0.20795482 0.09420889 0.141157 0.22040115 0.26775703 0.27676988 0.059518203
0.061500035 0.014303567 0.22106801 0.022001334 0.25477603 0.33438462 0.16845974 0.30086526
0.14422303 0.278021 0.3409389 -0.0702256 0.020280868 0.03947736 0.37665626 0.14729057
0.15448959 0.18460277 0.24287593 0.056694567 0.07123052 0.10480397 0.12085498 0.09026405
00000000: ca18 b83d e794 8e3d 6c9f fc3d e8c0 a13e
00000010: a260 f53c 5eaa 8e3d 9c04 53bd 5973 6e3e
00000020: 7dca 7dbd 5979 063e 40c4 143b a5f8 873e
00000030: 490c f63b 0b67 0cbd 13a4 923e 1895 0a3e
00000040: 2c28 f03d 9447 acbd 6e9e 2a3e 42bc 303e
00000050: 217d 4bbe 42fa 0a3e dbf4 10be 1e58 653e
00000060: 9c83 4c3e 11c8 e6bb 2c65 393e feae 0cbe
00000070: d448 10bd 204b 863e 8c5b aa3d 4a26 933d
00000080: 6e17 6b3e 79af 9a3e a0c0 573e 6e3c 053e
00000090: 2b4f c03d dc14 703d 08b3 c53e 8c50 5d3e
000000a0: 021f 6d3e 065a 9a3e 45a7 843e 1ebf e63e
000000b0: b065 9c3e 49a9 903e 9e99 a83e a62d 2e3e
000000c0: b67e b53e f5b4 ad3e 5e7b 9e3d 7964 ef3e
000000d0: 80e4 713e 5004 283e 666f 873e f1e8 5d3e
000000e0: 95aa b63e 74f5 a43d be83 893e d802 643e
000000f0: 1698 e43d 09a8 c83d fdd1 0a3e ecae b33e
00000100: 6098 903c 3c3f d43d e42f fc3d 7cbb 73bd
00000110: 403a de3d ea31 2fbb 7914 07be 8887 9cbb
00000120: 457a 393e 6c6f 1c3e 5185 b7bd 4bea f83d
00000130: 4c56 eb3c 31ef a93d 82dd 5c3d c889 d53d
00000140: 2aa1 7bbc 1c60 b2bd bc0a 8fbd bfe5 3bbd
00000150: 96fa 0cbe c4c7 9aba beff eabd ee52 6bbd
00000160: 43aa 8dbd 882f 9a39 1170 20bd 9284 db3d
00000170: 6837 903c 78ed b3bc f2a7 2b3c 54d0 ffbd
00000180: 5628 713e 1cf2 543e 97f0 c03d 768b 103e
00000190: d7b0 613e 7317 893e c8b4 8d3e 5cc9 733d
000001a0: 76e7 7b3d 8259 6a3c a75f 623e 243c b43c
000001b0: 0172 823e 7634 ab3e b680 2c3e 030b 9a3e
000001c0: 34af 133e c558 8e3e 8b8f ae3e 70d2 8fbd
000001d0: 1024 a63c 03b3 213d 17d9 c03e 57d3 163e
000001e0: 8532 1e3e 8208 3d3e 78b4 783e 9038 683d
000001f0: 4fe1 913d 77a3 d63d d182 f73d 5cdc b83d

fc.weight f4 [6, 32]
-0.15837094 0.28540877 0.3016908 -0.28815857 0.21976548 -0.20128243 -0.20726055 0.29199916
-0.4136528 -0.9200699 -0.12584603 0.17005189 -0.24680845 0.18817645 -0.52468026 0.21237849
-0.28298664 -0.0034345686 0.32648557 -0.18725537 0.11976226 0.016455384 -1.0110192 -0.054121338
-0.2543836 -0.17448859 -0.54271114 -0.6142306 0.3470817 -0.3245299 0.22388722 0.59738517
0.011373781 0.006213926 -0.7533665 0.054815535 0.123640016 -0.12020739 0.25145206 0.0811265
0.17050141 -0.33668151 -0.012597147 -0.46875462 0.17888473 -0.46725798 0.057473786 0.094373
0.62930775 -0.052628413 -0.25152507 0.2495634 0.043583743 0.16196817 0.008744579 -0.087301165
-0.19498123 -0.07563028 0.094181165 0.046617 -0.10236412 -0.30788186 0.4468632 0.02308577
0.3184321 0.16590485 -0.007618623 0.20912397 0.006562628 -0.08579234 -0.15949634 0.05396134
0.2677478 0.3008439 -0.22299232 -0.19269523 0.15349753 -0.31760195 0.039987676 0.19468419
0.42018056 0.1973221 -0.41229686 0.26089323 0.2333107 0.0035581104 0.34707123 -0.24411766
-0.23039576 0.30909142 0.13149323 0.2767222 -0.379596 0.14761016 -0.19344357 -0.14149892
-0.24713057 -0.39447752 0.066332564 0.09839212 -0.17632763 0.42207837 0.39642313 -0.47512278
-0.055277806 0.007291857 -0.10241391 -0.018752636 -0.02423459 -0.027296085 -0.10050734 -0.3618263
-0.08940545 -0.47161716 0.2664902 -0.12896907 -0.23923755 -0.19839935 -0.30397964 1.0075176
0.43411276 0.10419708 -0.19940147 -0.39480868 -0.21215318 0.09485215 0.10500702 0.16517222
-0.26319522 -0.059681214 -0.29265085 0.23954776 -0.23472226 -0.5559356 0.453134 0.106797054
-0.5587211 -0.37792394 0.009495503 0.10948274 0.3803541 0.1703653 0.17984419 0.13499722
-0.14230321 0.25876418 0.12975545 -0.31213662 0.15774812 -0.21675149 0.26249152 0.35613346
0.45909023 0.4463341 0.03147554 0.4595339 -0.42765212 0.12467368 -0.18663982 0.3333349
-0.292978 -0.2713061 0.16551672 -0.09269594 -0.3209941 0.48129493 -0.15626141 -0.4067834
0.15721351 0.17984638 0.108415596 0.09471817 -0.2216124 0.16600093 -0.23255514 -0.28356808
-0.23763788 0.100661315 0.2514756 -0.33566606 -0.1606907 -0.07884847 0.01025556 -0.032372463
0.49262762 -0.3512951 0.014318413 -0.28481084 0.442676 0.29384992 -0.1853432 -0.11571404
00000000: fe2b 22be 1921 923e 3777 9a3e 8589 93be
00000010: 340a 613e fb1c 4ebe 1c3c 54be ea80 953e
00000020: 4dca d3be b389 6bbf c8dd 00be 1522 2e3e
00000030: 5bbb 7cbe 54b1 403e 7251 06bf bf79 593e
00000040: a0e3 90be 8016 61bb 1e29 a73e dfbf 3fbe
00000050: ea45 f53d 71cd 863c 1469 81bf 56ae 5dbd
00000060: 913e 82be 23ad 32be 1eef 0abf 373e 1dbf
00000070: b1b4 b13e c828 a6be b142 653e 3cee 183f
00000080: 1859 3a3c 309e cb3b a0dc 40bf 4186 603d
00000090: fa36 fd3d 4b2f f6bd 53be 803e a725 a63d
000000a0: ec97 2e3e 8561 acbe 4464 4ebc 9b00 f0be
000000b0: 8f2d 373e 703c efbe a269 6b3d a246 c13d
000000c0: 501a 213f e490 57bd e5c7 80be 8c8d 7f3e
000000d0: de84 323d fcda 253e 6c45 0f3c f4ca b2bd
000000e0: 29a9 47be 0ce4 9abd 0ee2 c03d 78f1 3e3d
000000f0: 48a4 d1bd b1a2 9dbe 41cb e43e 5e1e bd3c
00000100: 8809 a33e f6e2 293e a4a5 f9bb 9824 563e
00000110: 500b d73b e5b3 afbd 0253 23be 9106 5d3d
00000120: 3d16 893e 3608 9a3e 1958 64be e651 45be
00000130: 752e 1d3e b99c a2be 1eca 233d 4b5b 473e
00000140: e821 d73e ce0e 4a3e 9318 d3be cc93 853e
00000150: 00e9 6e3e 302f 693b 52b3 b13e fbf9 79be
00000160: deec 6bbe 3b41 9e3e 29a6 063e 88ae 8d3e
00000170: 685a c2be 1e27 173e 1216 46be 18e5 10be
00000180: cc0f 7dbe f5f8 c9be 5ed9 873d cf81 c93d
00000190: 3b8f 34be a81a d83e f9f7 ca3e 4b43 f3be
000001a0: fb6a 62bd 88f0 ee3b 62be d1bd 219f 99bc
000001b0: 9e87 c6bc 0a9c dfbc cbd6 cdbd 4c41 b9be
000001c0: 341a b7bd ce77 f1be 6771 883e 7810 04be
000001d0: b0fa 74be 3329 4bbe 38a3 9bbe 56f6 803f
000001e0: 0744 de3e 4765 d53d e62f 4cbe 5d24 cabe
000001f0: af3e 59be d841 c23d ec0d d73d e822 293e
00000200: 86c1 86be 4a74 74bd 55d6 95be 024c 753e
00000210: 085b 70be cc51 0ebf 2e01 e83e 6ab8 da3d
00000220: 5908 0fbf 3f7f c1be 0793 1b3c 7d38 e03d
00000230: c6bd c23e 3e74 2e3e 1329 383e b63c 0a3e
00000240: efb7 11be bd7c 843e 9dde 043e 5fd0 9fbe
00000250: b988 213e 1af4 5dbe 4a65 863e 2057 b63e
00000260: e00d eb3e e785 e43e 7fec 003d 0748 eb3e
00000270: 38f5 dabe ea54 ff3d 821e 3fbe dfaa aa3e
00000280: 3601 96be a2e8 8abe 377d 293e 5ed7 bdbd
00000290: 5759 a4be 4a6c f63e fe02 20be ea45 d0be
000002a0: 94fc 203e a629 383e ff08 de3d 9afb c13d
000002b0: 5cee 62be 26fc 293e ef22 6ebe d62f 91be
000002c0: 5857 73be 8527 ce3d 69c1 803e 6cdc abbe
000002d0: 1a8c 24be 4e7b a1bd f006 283c fd98 04bd
000002e0: b039 fc3e f4dc b3be c797 6a3c bad2 91be
000002f0: 6ea6 e23e 7f73 963e 9cca 3dbe 7cfb ecbd

fc.bias f4 [6]
0.0947966 -0.438708 0.29534575 -1.0635308 -0.37727135 -0.011607198
00000000: b824 c23d 569e e0be 8f37 973e c721 88bf
00000010: b629 c1be 1e2c 3ebc
