lstm/federated/centralized_finetuned_member3.pt (torch, 124451 bytes, 10 tensors)

lstm1.weight_ih_l0 f4 [256, 3]
000000 48 40 04 bf cc f4 ad be 95 51 c6 be c7 f6 d3 3e
       -0.51660585 -0.33975828 -0.38734117 0.41399214
000010 21 e1 31 3e c7 e9 07 3f 9d 33 dc 3e 81 10 f9 3e
       0.17371036 0.5309109 0.43008128 0.48645404
000020 97 49 b0 3e 3c 4a 95 3e 1f df d3 bc 8f b1 8a bc
       0.34431145 0.291582 -0.025863228 -0.01693037
000030 a2 4a a4 be cb a4 bd 3e 35 7f 2e 3f 3a 62 8f bd
       -0.3208819 0.3703979 0.6816285 -0.07001157
000040 c7 4a d3 3e ad 4a e7 3e 46 6b 87 3e 1a 1e 06 3f
       0.41267988 0.4517416 0.2644903 0.5238968
000050 c1 ac 0a 3f 66 61 64 3f 41 c8 b3 3f b3 77 aa 3f
       0.5416985 0.8921112 1.4045488 1.3317779
000060 c5 45 0d 3f a3 64 aa 3e 91 13 86 bf 58 c8 31 3e
       0.55184585 0.33279905 -1.0474721 0.17361581
000070 20 af fa 3c ce c8 06 be 02 89 bf be 9e 24 cb be
       0.030601084 -0.13162538 -0.37409216 -0.39676374
000080 65 ce 46 3c 78 79 b2 3e ca db 5b 3e 63 91 bc 3e
       0.012134169 0.34858298 0.21470562 0.3682967
000090 3e 88 9b bb 08 58 85 3d a6 73 19 bd 83 15 5b bf
       -0.004746466 0.06510931 -0.037463807 -0.855797
0000a0 1d 0f 2d bf e9 63 4d bf fb 47 e4 3e 8f 08 b8 3e
       -0.67601186 -0.80230576 0.44586167 0.3594403
0000b0 8d 3e b8 3e 46 87 c9 3d 7a e7 dc bd 14 c2 af be
       0.35985222 0.098402545 -0.10786338 -0.34327757
0000c0 73 34 9b be 30 df 43 be a6 b5 85 3b 5b 64 e9 be
       -0.30313453 -0.19128108 0.004080492 -0.45584378
0000d0 2b dc 23 3d 19 53 86 be 7d c7 72 bd ae 18 04 3d
       0.04000489 -0.26235273 -0.059272278 0.0322501
0000e0 00 56 53 be 36 9d 56 bd 41 c6 88 bf 5d b6 fc be
       -0.20638275 -0.05239602 -1.0685502 -0.49357882
0000f0 33 a9 03 bf 71 6e 9f be 6a f0 b9 bd 0a c9 cc 3e
       -0.5143005 -0.31138948 -0.090790585 0.3999713
000100 a4 70 ce 3e 3d 1e 13 3f 46 b8 9f 3d 3a 6f b0 be
       0.40320313 0.57468015 0.07798819 -0.3445986
000110 96 82 5c be 15 1d 12 bd a4 17 59 be ff 00 f6 bd
       -0.2153419 -0.035672266 -0.21200424 -0.12011909
000120 51 b2 29 bb 38 ba eb be 43 d1 19 bf fd c4 73 be
       -0.0025893638 -0.4604051 -0.60084933 -0.23805614
000130 44 38 91 be ba 32 9f be e9 77 fc 3e 7b 67 a2 bd
       -0.2836324 -0.3109339 0.49310234 -0.079298936
000140 17 bb 15 3f 95 9e ae be 25 d3 33 be 3e b4 d4 be
       0.584886 -0.34105363 -0.17561014 -0.41543764
000150 95 8b e6 bc 7d b3 3e bd 94 97 ea bd 79 97 f0 3e
       -0.02814273 -0.046557892 -0.114546925 0.46990564
000160 7e ab 79 3e c5 8d 95 bd 7e 08 09 be 8e 02 b1 bd
       0.24381825 -0.07302431 -0.13382146 -0.086430654
000170 3a b9 2d bb 01 e5 4d 3d a4 6a 70 3d 20 1b b5 3d
       -0.0026508109 0.050267223 0.05869545 0.08843064
000180 76 93 fb 3e bf ed c3 3e 01 20 10 3f bb 86 9e be
       0.4913594 0.38267323 0.56298834 -0.30962166
000190 4e e4 c3 be ce 52 7c be ea 59 c0 3e 34 b8 d7 3e
       -0.3826012 -0.24640962 0.375686 0.42132723
0001a0 61 d4 10 3f e9 ee b8 be 33 2d c4 bd 94 2f c1 bd
       0.56574064 -0.36119774 -0.095789336 -0.09432903
0001b0 25 e8 81 3d d1 2f 83 3e 99 4c de 3d f8 03 16 3e
       0.06343106 0.2562242 0.108544536 0.14649951
0001c0 dd d7 b4 3e e3 3f a5 3e 39 7e 79 3e 85 c8 79 bf
       0.3532094 0.32275304 0.24364556 -0.97571594
0001d0 a4 3b 10 bd 52 cb ea 3e b8 cb f6 3e d8 94 4e 3e
       -0.035213128 0.45858246 0.482023 0.20173967
0001e0 80 2e 06 3e e7 47 2a 3e 94 92 4c 3e 0c 75 de 3e
       0.13103676 0.16628991 0.1997779 0.43448675
0001f0 a3 df 0c 3f b0 05 c4 3e 7f 00 38 bf 1d 9d 1e 3f
       0.5502874 0.3828559 -0.71875757 0.61958486
000200 e6 2c 5a 3e 73 22 02 be 68 eb 39 be 76 56 1d be
       0.2130619 -0.12708454 -0.18156207 -0.15365013
000210 4c 4a 4f be cf 6d 48 be 4a 68 41 bb d3 fd b4 3e
       -0.20243186 -0.19573139 -0.0029511624 0.35349903
000220 4b bc 0a 3f 5d c9 05 3e 81 97 fc 3e 7d 4a 9b 3e
       0.5419356 0.13065095 0.49334338 0.30330268
000230 72 7e 51 bc 9c 28 98 be d6 4e a6 be f9 ed b6 bd
       -0.012786495 -0.29718482 -0.32482022 -0.089321084
000240 dd 61 7f be a6 46 df be 5a 38 3c be 3b ca e0 be
       -0.24939676 -0.43608588 -0.18380871 -0.4390429
000250 14 1a 3b be 64 5c da 3c a8 40 00 be 9b 4e 43 be
       -0.18271667 0.026655383 -0.12524664 -0.19072954
000260 bb 8d 65 be 00 16 90 bc 5d 22 a6 be d3 79 ec be
       -0.22417347 -0.017588615 -0.32448092 -0.46186695
000270 e7 79 dd 3b 5a 7e 64 be d1 68 83 bc 2d 4a 1a bd
       0.0067589167 -0.22313824 -0.016041191 -0.037668396
000280 ca fc cb bd 0f 92 81 be 1e 41 af 3e 3f eb 38 3e
       -0.09960325 -0.25306746 0.34229368 0.1805849
000290 9b 38 fc bd 07 d2 da be ae 9a 5e be 64 2c db bc
       -0.12315484 -0.42738363 -0.21738693 -0.026754566
0002a0 40 22 d5 be d8 8b 13 be 63 a6 00 bd 85 37 4c be
       -0.41627693 -0.14408815 -0.03140868 -0.19943054
0002b0 b6 28 9c be 32 ac 39 be ea c0 17 3e 6f 12 84 3e
       -0.3049981 -0.18132094 0.14819685 0.25795314
0002c0 90 e9 b8 3e dc a2 61 3e 7e 35 e2 be d1 08 1a bf
       0.36115694 0.22034782 -0.44181436 -0.601697
0002d0 dd 8a 94 3c 62 3d e8 be 35 3d ee be e2 5d 9d 3e
       0.018132621 -0.4535933 -0.46531072 0.3073569
0002e0 b1 af 82 bd e9 a9 01 3d 3d 2d 12 bf a2 34 d1 be
       -0.06381167 0.03165618 -0.5710028 -0.40860468
0002f0 d3 9e 51 3f 4c 33 97 be cd c8 87 bc 9a fd 02 bf
       0.8188297 -0.29531324 -0.016575241 -0.51168215
000300 05 6d be be d4 b3 82 be ff af 00 bf be 10 43 be
       -0.3719255 -0.25527823 -0.5026855 -0.19049355
000310 6d 33 95 be 86 09 62 be 96 a4 4e be 53 4d 44 bd
       -0.29140797 -0.22073945 -0.20179972 -0.047925305
000320 8d 63 ac bd df 6c c9 3d 7c c9 57 3d 65 d9 0f bd
       -0.08417425 0.09835219 0.052682385 -0.035119433
000330 5a d5 88 be 04 d3 bf be ff 03 ab be de 95 ea 3e
       -0.26725274 -0.3746568 -0.33401486 0.45817465
000340 fd b0 bc 3e 90 19 51 3e 65 44 98 3e 69 77 99 3e
       0.3685378 0.20419908 0.2973968 0.29973915
000350 d9 1f 4d 3e af 86 e5 bc 68 c5 0c be e4 d5 15 be
       0.2003168 -0.028018324 -0.1374718 -0.14632374
000360 69 e4 23 bf 69 32 0b bf d4 78 22 be e3 fa 6d bd
       -0.640204 -0.54373795 -0.15866405 -0.058100592
000370 fc a7 db bb 9d 5b cc 3d b3 18 87 bd 2b 8c 13 be
       -0.006703375 0.09978411 -0.06596508 -0.14408939
000380 d4 b0 50 be 43 c7 bf be e4 34 c3 be f6 de b7 bc
       -0.20379955 -0.37456712 -0.3812629 -0.022445183
000390 36 ee 25 3e 7f 55 95 3e 64 1b 81 3e 82 f3 ad be
       0.16204152 0.2916679 0.2521621 -0.33974844
0003a0 9e c0 93 be 36 b1 8e be 57 27 6e 3d 8d b8 18 3e
       -0.28857893 -0.27869576 0.058142986 0.1491415
0003b0 fd 80 72 3c bc 13 6c 3b 06 3e bf 3d c9 91 95 bd
       0.014801261 0.0036022505 0.09338002 -0.07303197
0003c0 06 f1 8d 3e c4 bd 3e 3e d1 03 ec bd 76 ee 81 be
       0.2772295 0.18627077 -0.115241654 -0.25377244
0003d0 4f 45 06 be 63 99 77 be a5 79 42 be 86 3d 70 be
       -0.13112377 -0.24179606 -0.18991716 -0.2346097
0003e0 5f 4d 86 be b7 5b 78 bc f4 bb 49 3d 4f e2 ca bc
       -0.26230904 -0.015158585 0.04925151 -0.024766115
0003f0 35 dd 44 bc 9c 09 9c bd 94 41 c8 bd 1c 97 dc 3e
       -0.0120156305 -0.0761902 -0.09778133 0.43084037

lstm1.weight_hh_l0 f4 [256, 64]
000000 60 2c 0e be d3 a0 d2 3d b1 4d ef bd 7a c2 bb 3d
       -0.13884115 0.10284581 -0.1168474 0.09167953
000010 c6 20 81 bd 1f 5f a6 3d 0f d8 20 3d f4 10 16 3e
       -0.06305079 0.08123612 0.03926855 0.14654905
000020 d2 06 53 be 56 94 38 3e 52 4e 97 3d 19 1a b4 bd
       -0.2060807 0.18025336 0.07387985 -0.0879404
000030 c7 c5 fb bd db 60 81 be 39 9e d0 3d 09 35 89 bd
       -0.122935824 -0.25269207 0.101864286 -0.06699569
000040 1d a1 3c 3e 7a 73 57 3e d9 35 1a be 29 f7 17 be
       0.18420835 0.21040145 -0.15059604 -0.14840378
000050 fc 25 3a bd c3 5e bb 3d a0 90 84 bc f3 25 22 3e
       -0.04544638 0.09148934 -0.016182244 0.15834789
000060 05 61 8d be 16 10 6a be f2 ba ea bb 0d c0 1c 3e
       -0.27613083 -0.22857699 -0.007163399 0.15307637
000070 a8 de f9 3d 6b f3 2d bd c3 af f6 bc 7e af ea bc
       0.122006714 -0.04246847 -0.030113107 -0.028648134
000080 5b 5d 37 be 63 c2 92 3d 0c 21 56 3d b3 62 dd 3d
       -0.17906706 0.071659826 0.05227761 0.10809841
000090 9b 92 26 be 3f 7b 44 3d 53 63 21 3e 6e 38 8b bd
       -0.16266863 0.0479691 0.15760545 -0.067978725
0000a0 40 de 4c bd a9 92 a4 bc 6e 4d dd bc 15 2d a3 bd
       -0.05001664 -0.020089464 -0.02701446 -0.07967583
0000b0 9f f4 e7 3d c8 f2 52 bd 24 99 62 be 8a 99 c4 3d
       0.11325955 -0.051501065 -0.22128731 0.09599598
0000c0 0f 9a 8a 3e bf 43 4f be 57 c5 37 3e 24 7e 15 be
       0.27070662 -0.20240687 0.17946373 -0.145989
0000d0 0f 1a 26 be 2a 70 a1 3c 91 56 20 be d5 cb 27 ba
       -0.16220878 0.019706804 -0.15658022 -0.0006400918
0000e0 a2 16 69 3e 95 04 d0 bd cd 83 17 be c0 d2 ac bc
       0.2276254 -0.10157124 -0.14796372 -0.021096587
0000f0 16 e7 ae bd 85 95 1e 3e 0b 97 ef 3d da f1 99 3c
       -0.0854017 0.15486725 0.11698731 0.018792082
000100 5b b7 74 3d f2 06 26 bd 78 77 89 3d 30 24 9a be
       0.059745174 -0.040533967 0.0671224 -0.30105734
000110 00 b3 75 3e 5d 2c 10 3d 9a b0 70 be 5c 82 35 3e
       0.23994064 0.035198558 -0.23504868 0.1772551
000120 fc be 02 3d be 5e 22 3e b3 58 50 be 03 b9 ad 3d
       0.03192042 0.15856454 -0.20346336 0.08482554
000130 03 3e 89 3d eb a6 16 be b5 39 b6 3c ce 97 75 3e
       0.06701281 -0.14712112 0.022244314 0.2398369
000140 bd 32 41 be 1a d0 88 3d a5 83 46 be 73 f8 b3 bc
       -0.18867011 0.06680317 -0.19386156 -0.021969056
000150 6f ba 4d 3c 04 60 cb 3d 02 e7 b2 3d 19 b5 26 bd
       0.012556656 0.09930423 0.087354675 -0.040700052
000160 43 7d eb bd a9 82 b6 bd 0d ff 41 be f9 a1 fd 3c
       -0.11498501 -0.0891164 -0.1894495 0.030961024
000170 ee 62 b9 3b 30 83 44 be 63 68 06 3d fb 2a 4a bd
       0.0056575453 -0.19190669 0.032814395 -0.049357396
000180 1b dd f0 3d 0c d3 2b 3d 03 0c ce 3d 01 f7 9b 3d
       0.117609225 0.041949317 0.10060885 0.07615472
000190 65 85 2e 3c 0e b9 73 bd 64 73 07 3e 0f af d8 3d
       0.010651921 -0.059502654 0.13227612 0.10580265
0001a0 a7 57 88 3d aa 11 99 3d 9a 4a 87 bd 00 f9 d9 3d
       0.06657343 0.07474072 -0.06606026 0.10643196
0001b0 1f 51 c7 3d 1f 01 f9 bd 36 56 d7 bc 14 5e cf 3e
       0.097322695 -0.12158417 -0.026286226 0.40501463
0001c0 dd f2 bc 3d aa 1b 5e bc 4e 03 29 bc 28 9f 56 3e
       0.0922601 -0.0135564 -0.010315729 0.20959151
0001d0 9d a1 58 bb 19 eb 01 be f9 d9 20 3e 73 ca 52 bc
       -0.0033055313 -0.12687339 0.1570815 -0.0128656505
0001e0 e8 33 44 be 26 ee df bc 62 79 12 3e 58 d2 a8 3d
       -0.19160426 -0.027335238 0.14304116 0.08243245
0001f0 ad bf b8 bd e2 56 da bc b5 6e 85 be 02 cd 4c be
       -0.09020934 -0.026652757 -0.26061025 -0.2000008
000200 f5 b4 a6 bd d3 d8 c9 bd ee ce 2c be 37 0b 66 bd
       -0.081399836 -0.09855809 -0.16875812 -0.05616304
000210 5d f4 11 be ce e5 07 be ef bc b6 3b 21 4a 70 3e
       -0.14253373 -0.13271257 0.005576722 0.23465778
000220 56 30 84 bd 21 ed 4d 3e 7f ea 13 be 2e a4 be 3d
       -0.06454532 0.20109989 -0.14444922 0.093086585
000230 a3 4a 92 3c af 50 35 3d 97 b6 51 3e e8 47 4c 3e
       0.017857855 0.0442664 0.20479809 0.19949305
000240 f5 51 3b be f8 d9 7e be 80 65 c7 3e cd 68 a1 3c
       -0.18292983 -0.24887836 0.38944626 0.019703293
000250 5b 7f d4 bd 2e a8 57 bb 4c a4 81 3e fa d3 14 be
       -0.10375854 -0.003290664 0.2532066 -0.14533988
000260 e3 bc 9d be 11 a2 82 3e 36 b3 e5 bd 4a 2a 9d be
       -0.30808172 0.25514272 -0.112158224 -0.30696326
000270 ef 91 bb bd 3f 49 2f be a2 3f a1 3d 87 49 8c bc
       -0.09158694 -0.17117785 0.07873465 -0.017124904
000280 a5 e8 80 3e 25 7b 6b be b9 7b f5 3d 9e 85 a7 bd
       0.25177494 -0.22996195 0.11986489 -0.08179782
000290 03 56 38 be d3 83 0b be ee e9 8b 3d 0e ba 60 3d
       -0.18001561 -0.13624506 0.06831728 0.054864936
0002a0 a1 d6 a6 bd 2d fd ca 3d ab 9e 67 3d f8 0a 8a bd
       -0.08146406 0.09911571 0.056547802 -0.067403734
0002b0 c9 a2 89 3d 2d 5b a4 3c 24 1e 2d 3e 59 e4 aa bd
       0.06720502 0.020063007 0.16906029 -0.08344335
0002c0 33 2e 54 be c1 0b 61 be f1 b6 27 bd b2 f6 ca 3d
       -0.20720749 -0.2197714 -0.04094595 0.09910335
0002d0 97 5b 8a 3c 0e e4 ca 3d 6b 46 dd 3d bf b7 14 be
       0.016889377 0.09906779 0.10804447 -0.14523219
0002e0 af 59 68 3c 98 70 26 3e f9 1f 9f 3d 0f 97 48 3e
       0.0141815385 0.16253889 0.0776977 0.19588874
0002f0 fe cf cc bb 74 20 5b be 9e 92 e8 be 6e 4c 93 be
       -0.0062503805 -0.21399099 -0.4542436 -0.2876925
000300 12 1f 62 bd 31 a1 18 bd ae 2a 37 3e 8c 0c a3 bd
       -0.055205412 -0.0372631 0.17887375 -0.079613775
000310 09 5d 5b be 6f a9 7b be 97 bb 83 be 0e dd 5c 3e
       -0.21422209 -0.24576353 -0.25729057 0.215687
000320 be 74 30 bd d4 7a d8 3d ef 93 2e be a9 07 8a bc
       -0.043080084 0.105703026 -0.1704862 -0.016849356
000330 08 18 ae bc e3 ac 59 be 43 6a d5 bb 8a 5b 67 3e
       -0.021251693 -0.21257357 -0.0065129115 0.22593513
000340 b0 24 29 be f4 2f 57 3e 65 70 37 3e 88 39 0e be
       -0.16517901 0.21014386 0.17913969 -0.13889134
000350 6b 42 69 bc 68 e2 0d 3e 6d 88 36 be cb 1b ba bd
       -0.014237027 0.13855898 -0.1782548 -0.09087332
000360 1b 07 78 3e e5 9f 0e 3b 93 51 68 be 6d 2f 9a bc
       0.2422146 0.0021762785 -0.22687368 -0.018821442
000370 a7 09 fa bd a2 28 4d bd 8e 4f a4 3d d2 d3 a0 3d
       -0.12208872 -0.05008758 0.08022986 0.078529015
000380 3a f4 55 3e 06 fd 13 be 3d 87 18 3e 99 30 08 be
       0.20893946 -0.1445199 0.1489534 -0.13299789
000390 32 5d 2c 3d c7 27 9e bd 9a d6 98 be ae e0 c0 bd
       0.042081065 -0.07722431 -0.29851228 -0.09417854
0003a0 34 d7 d2 3b ff 3f 4c 3e e7 5d df 3d 66 d8 39 3d
       0.0064343456 0.19946288 0.10906582 0.04537239
0003b0 f0 ea ce 3c 27 0a ed 3d 84 88 d8 3a b4 af 0d 3e
       0.025258511 0.11574202 0.0016520177 0.13836557
0003c0 46 1b 9f 3b 65 58 b9 3e 35 f3 20 be d3 c5 2e 3e
       0.004855546 0.36200252 -0.15717776 0.17067651
0003d0 4d 03 b1 3d 11 90 82 3c b4 de 18 3e 36 c3 f9 3d
       0.08643208 0.015937837 0.14928705 0.12195437
0003e0 4a 66 00 bd 59 fe a2 3d 6d 49 4e 3e 64 6a 28 be
       -0.03134755 0.07958669 0.20145197 -0.16446835
0003f0 88 40 dd bd 95 d8 51 3e 9a c6 9e 3e 38 86 31 3e
       -0.10803324 0.20492776 0.31010896 0.17336357

lstm1.bias_ih_l0 f4 [256]
000000 23 9c 76 3a a9 b8 25 3c e4 70 68 bd af 74 3e bd
       0.00094074215 0.010114827 -0.056748286 -0.046497997
000010 e7 fa 17 be ae 92 1a 3e 3f e9 28 be 62 3d 30 bd
       -0.14841805 0.15095016 -0.16495226 -0.04302729
000020 44 16 15 bd f1 6d 11 be 41 f1 e7 bd 56 d4 7b 3c
       -0.036398187 -0.14202096 -0.113253124 0.015370449
000030 97 63 6f bd 00 5e 6a be f3 e6 6c 3e de a9 86 be
       -0.058444586 -0.2288742 0.23134975 -0.26301473
000040 e3 82 49 3d 60 5a 65 bc c2 17 6d 3d e5 89 29 be
       0.04919709 -0.013998598 0.057883985 -0.16556509
000050 6e 62 35 3c 5a 08 98 bc 84 cd e9 3d 7d 23 a7 bd
       0.011070831 -0.01855867 0.11416152 -0.08161066
000060 c9 d1 da bd d8 87 a3 3d ae 8f 30 3d 86 4a 0b be
       -0.106845446 0.079848945 0.043105774 -0.13602647
000070 9c e6 2b be ad bc c2 bd 30 7a ea bd 28 9f e3 bd
       -0.16787189 -0.09508643 -0.11449087 -0.11114341
000080 42 74 98 bd 49 82 6d bc 53 0d 8e 3d 7a 1e cc bd
       -0.074440494 -0.014496394 0.06936135 -0.099667504
000090 71 25 61 be 43 7a 22 be 36 7c c0 bd d7 36 75 3d
       -0.21986939 -0.15866952 -0.09398691 0.059866752
0000a0 b5 76 5e be 5a eb d9 bd 00 59 aa bd 9a 4e f5 ba
       -0.2172497 -0.10640593 -0.08317757 -0.0018715442
0000b0 2d a9 1f be 93 1b 76 3e d4 fa c6 3a 0c 64 c1 bd
       -0.15591879 0.24033956 0.0015180954 -0.094429106
0000c0 1f 29 55 be ca 4b 5b be 72 53 3d 3d d1 d4 b1 bd
       -0.20816468 -0.2141563 0.046222158 -0.0868317
0000d0 5c 26 a7 3d 60 bd ac 3c e8 bc a8 3d ab 6b a3 3d
       0.08161613 0.021086395 0.08239156 0.079795204
0000e0 e5 1a b4 bd 30 43 28 be 2a 12 1d 3d d5 f5 46 be
       -0.08794192 -0.1643188 0.0383474 -0.19429715
0000f0 ce 64 b6 3d 6a d2 4b 3e 2b 79 08 be 2c c4 18 3d
       0.08905946 0.19904485 -0.13327472 0.03729646
000100 e8 0a 65 3d b2 cd 31 be cb 6f 8e 3d 21 51 b9 3d
       0.055918604 -0.17363623 0.069549166 0.09048677
000110 45 7a 5d 3d 31 b5 ff 3d 1f 44 e2 3c 42 3f 91 3e
       0.054071683 0.124857314 0.027620373 0.28368574
000120 c6 76 02 3d 29 44 09 3e 16 63 a4 bd 25 e4 fe bd
       0.031851552 0.13404907 -0.08026712 -0.12445859
000130 c1 4c 3c 3e 84 fb e5 3c 77 76 4b 3e 0c cd 08 be
       0.18388654 0.028074034 0.1986941 -0.13359469
000140 08 b7 99 3e 58 da a4 bd d7 58 91 3d f3 b2 07 3e
       0.30022454 -0.08049458 0.07097023 0.13251857
000150 a9 db b0 bd cd b7 f9 bd 43 e1 ff 3c 4e f3 b5 3d
       -0.08635647 -0.1219326 0.031235343 0.08884297
000160 e0 7a bf 3e b1 12 88 3d 5a b9 b8 3c a2 66 03 be
       0.37398434 0.0664419 0.02254932 -0.1283212
000170 bc 47 2c 3e 04 d6 8d 3e d7 3c 6b be fe c6 52 3d
       0.1682424 0.27702343 -0.22972427 0.051459305
000180 3d be 98 bd a5 f5 c5 3c e7 94 1e bc 12 5c d3 3d
       -0.0745816 0.024164984 -0.009679056 0.103202954
000190 b8 7e c6 3c 80 7e 15 3e 85 6f 65 bd 82 8f 1c 3e
       0.024230346 0.14599037 -0.056014556 0.15289119
0001a0 a7 08 5a bd dd 34 82 3d 93 3a 13 be 0b 83 3c 3e
       -0.053230908 0.06357739 -0.14377813 0.18409364
0001b0 26 07 5a 3d e5 01 2f 3e 9a ff fd 3e 24 d0 15 3e
       0.053229474 0.17090566 0.4960907 0.1463018
0001c0 e1 5b 02 be cd 8a 28 be 66 60 16 3d 32 b3 72 3d
       -0.12730362 -0.16459198 0.036713026 0.059252925
0001d0 5f 31 18 3e db e8 dd 3b 32 21 0b 3e a0 c7 13 bd
       0.14862584 0.0067721433 0.13586882 -0.03607905
0001e0 87 16 f6 3d 8a a5 b5 37 79 d0 6b bd b6 d2 61 bd
       0.120160155 2.1653967e-05 -0.057571862 -0.05513259
0001f0 1f e4 98 bb 38 03 d3 3d 25 e0 cd 3d b5 1f 6d 3d
       -0.004665866 0.10303348 0.10052518 0.057891566
000200 2a 7f a4 3d 45 57 10 be fb 06 8c 3c cd 71 a2 3d
       0.08032067 -0.1409579 0.017093172 0.07931862
000210 ea 92 48 bd 83 c7 5e 3d f8 5d 3c 3c e3 00 80 bd
       -0.048968233 0.054389488 0.011497013 -0.06250169
000220 db 25 0d be 35 51 2a 3e 41 a3 d8 3d e2 b5 97 bc
       -0.13783972 0.1663254 0.10578013 -0.018519346
000230 cd 7f ef bd ee 3d c8 bd 18 a1 0e be 53 dc 10 be
       -0.11694298 -0.09777437 -0.1392864 -0.14146547
000240 dc a0 fd 3d 1a e9 0b be d2 6f 53 bc 27 96 be bd
       0.12384197 -0.1366314 -0.012905078 -0.09305983
000250 49 56 09 be fe 55 1b bd a9 58 1b 3e 4f 7b 02 3e
       -0.13411821 -0.037923805 0.1517054 0.12742351
000260 76 6b 00 bd e2 6a a2 bd e7 fb 17 bd 79 c5 d0 bd
       -0.031352483 -0.079305425 -0.037105467 -0.10193915
000270 5d bf 81 3c b6 97 bc 3d 74 66 82 3c 08 fd 41 bc
       0.01583832 0.09208624 0.015917994 -0.0118401125
000280 b7 cb f2 bc 47 5b 23 3e 9c bf 10 be 26 37 09 3e
       -0.029638154 0.15952788 -0.14135593 0.13399944
000290 35 52 dc 3d 6b 20 1d 3e c2 25 23 be da 87 e2 bd
       0.10757867 0.15344398 -0.15932372 -0.11061068
0002a0 20 18 43 bd b2 40 cc bd 04 85 ba 3d 62 00 fd bd
       -0.04763043 -0.09973277 0.09107402 -0.12353589
0002b0 17 b0 34 3c 64 f7 a7 bd f0 39 be bd b8 70 ff bb
       0.011028311 -0.08201483 -0.092883945 -0.0077954195
0002c0 0d 84 30 bd 9e 90 f0 bc 90 6c 18 bd dc b0 5a be
       -0.043094683 -0.029365834 -0.03721291 -0.21356529
0002d0 10 af 05 bd ac 1a 71 3d 3c 47 e5 bd 1f 93 df bd
       -0.032637656 0.058863327 -0.111952275 -0.10916733
0002e0 7b f3 b7 3d 8a c7 c7 bd b4 5a df bd 0c 4d 76 bd
       0.08981987 -0.09754856 -0.10905972 -0.06013207
0002f0 a7 70 0b 3e 30 05 13 be d7 f1 c5 3d 62 9b 90 bd
       0.13617192 -0.14357448 0.09665268 -0.07060887
000300 1d 66 af bd 88 58 12 3b cb 7f 7c bd 6b d3 f0 bc
       -0.085643984 0.00223306 -0.06164531 -0.029397687
000310 d4 c0 de 3d 2d 61 ac 3d 86 d6 ab 3d e0 aa 26 3e
       0.10876623 0.08416972 0.083905265 0.16276121
000320 c8 b7 97 3d f3 b2 ad 3d 38 40 82 bc 1a d2 52 3d
       0.074081 0.084813975 -0.015899763 0.0514699
000330 81 02 40 be 2c 09 35 3e 39 7a 4f bc 6e c2 80 be
       -0.18750955 0.1767928 -0.0126634175 -0.25148338
000340 7f 64 f3 bd d4 f4 ed bd 1c d2 b1 bd 72 8d 70 3e
       -0.118844025 -0.11618963 -0.08682653 0.23491457
000350 61 66 2a 3d bc 85 94 bd ad de 8a 3e e7 81 d6 bc
       0.041601542 -0.0725207 0.27123013 -0.02618499
000360 2e 42 40 3e be b5 ff 3c fb 0a 14 3e 3c 57 df bd
       0.18775246 0.031214591 0.14457314 -0.109053105
000370 96 af ea bb 00 b6 be 3c 23 6f 0c bd e0 34 c0 bd
       -0.0071620448 0.023280144 -0.034285676 -0.09385085
000380 0e 12 d1 bc d8 f8 2d be df c0 ac bd 09 6f a1 bd
       -0.025521304 -0.16989458 -0.08435225 -0.078825064
000390 2d fc 6d be 48 d3 9d 3d 29 a2 9a 3c e3 c2 07 bb
       -0.23240729 0.07706314 0.018876152 -0.0020715527
0003a0 ef 1c 2b be 8a 95 1b 3e c6 98 19 3d ee a3 69 bd
       -0.16710256 0.15193763 0.03749921 -0.0570411
0003b0 c2 1a 1a 3d 39 f4 b1 bc c4 74 55 3e dd ba 32 3e
       0.037623174 -0.0217229 0.20845324 0.17454095
0003c0 3e e8 17 bd d8 a3 4c be b1 f8 a1 3d 1c 4e 4a be
       -0.037086718 -0.19984376 0.07908762 -0.19756359
0003d0 02 35 0e 3e e6 5c 94 bc aa c1 d0 bd 5f 75 46 3c
       0.13887408 -0.018110704 -0.101931885 0.012112944
0003e0 5d b6 53 bd 52 e6 d0 bd 13 e9 11 be e2 25 e5 3b
       -0.051687587 -0.1020018 -0.14249067 0.0069930414
0003f0 4f b9 45 3e 89 ce 72 3e 31 52 97 3d 53 d8 0d 3e
       0.19308971 0.237116 0.07388724 0.13852052

lstm1.bias_hh_l0 f4 [256]
000000 e7 64 c2 bb c0 96 ff bc c0 c8 03 3c 0f 97 74 3d
       -0.0059324387 -0.031199813 0.008043468 0.059714373
000010 01 57 db 3c 97 af ef 3d 29 bb 2c 3c 67 02 32 be
       0.026774885 0.11703413 0.010542669 -0.17383729
000020 17 b9 d4 bd 96 85 b0 bd 4d 21 89 bd 38 01 aa 3d
       -0.103868656 -0.086192295 -0.06695805 0.08301014
000030 4a de 76 bd 87 b3 b2 bd 17 4f 81 3d b9 79 16 be
       -0.060270585 -0.087256484 0.06313913 -0.14694871
000040 6e b1 bf ba b0 10 cd bb f5 ef 01 3d 9e 15 fc bc
       -0.0014625022 -0.006258093 0.03172298 -0.030772027
000050 aa 6e d9 3d 99 61 c4 bd fc 0f 58 3e bb 03 2d 3c
       0.106168106 -0.09588928 0.21099848 0.010559971
000060 cd 9f 53 be 67 94 4a bd 13 a8 86 3d 14 33 35 bd
       -0.20666428 -0.049457934 0.06575026 -0.044238165
000070 b6 05 07 3c 56 68 b8 bd 56 96 a3 bd 22 c3 6d bd
       0.008241108 -0.090042755 -0.07987659 -0.05804742
000080 10 56 45 bd 54 05 42 be 86 40 6c 3d 88 9f 09 be
       -0.04817778 -0.18947345 0.05767872 -0.13439763
000090 cb 8c 7d be 67 67 3d be 10 12 b3 bc 1b 1c 53 3d
       -0.2476074 -0.18496476 -0.021859199 0.051540475
0000a0 17 30 35 be 70 95 be bc cd 28 9e bd f0 f7 16 3d
       -0.17694126 -0.023264617 -0.07722626 0.036857545
0000b0 8f f3 b2 3c 71 53 0d 3e 96 c8 0c be 8c 0a e9 bc
       0.021844653 0.13801362 -0.13748392 -0.028447412
0000c0 ba 61 6f be e8 63 5e be 09 ab 8a 3c 10 87 e2 bd
       -0.23377123 -0.21717799 0.016927259 -0.110609174
0000d0 f5 27 85 3d af bd 0e 3d 50 06 4a 3d a9 a9 49 3d
       0.06501762 0.034848865 0.049322426 0.049234066
0000e0 45 9f ca bd e7 b3 60 3c ce c9 8d 3d 75 25 4a be
       -0.098936595 0.013714767 0.06923257 -0.19740851
0000f0 be 9f b5 bd 85 a3 4c 3e c4 14 38 3c c7 e7 d3 bc
       -0.08868359 0.19984253 0.01123542 -0.025867356
000100 ab 48 74 3e e5 07 33 be e2 a8 ad 3d ef 82 ce bc
       0.23855846 -0.1748348 0.084794775 -0.025208918
000110 54 20 f4 3c 55 e9 14 3e 2f a5 85 bd ad 25 ec 3e
       0.029800572 0.14542134 -0.06525647 0.46122494
000120 27 ab 0e bd 30 e4 01 3e 4b 65 0e bd 58 53 2a 3d
       -0.034831192 0.12684703 -0.03476457 0.04158339
000130 db 86 16 3c c5 7b 1b 3e 9d 97 11 3e 6a 7b 17 be
       0.0091874255 0.15183933 0.14217992 -0.14793172
000140 0d 7e 4a 3e b9 c1 38 be 37 ff be bd a5 31 53 3d
       0.19774647 -0.1804265 -0.09326022 0.051561017
000150 7a c2 1d 3d 0d ef 87 bd f1 34 5a bd 60 23 60 3e
       0.038515545 -0.06637392 -0.053273145 0.21888494
000160 90 de a6 3e ab 0f 61 bd ef 28 e8 b9 b1 28 94 bd
       0.32591677 -0.054946583 -0.00044280986 -0.07234324
000170 a4 bf 97 3e 60 49 25 3e b5 bf 0f be 63 4a 97 bd
       0.29638398 0.16141272 -0.14037974 -0.07387235
000180 85 68 29 bd 63 f0 83 bd 63 6d 8a 3d 49 fb a0 3d
       -0.041359443 -0.064423345 0.06759145 0.07860429
000190 c0 8a d3 bd 70 e3 30 bd b7 c5 ba bd db aa 87 3e
       -0.10329199 -0.04318565 -0.09119742 0.2649754
0001a0 77 dd cd bd 9f b8 df 3b a0 6d 82 3b 11 b1 9d 3e
       -0.10052007 0.0068274285 0.0039803535 0.30799153
0001b0 80 0d 7a bd 7a a7 b6 3d c2 1d 05 3f 7d 78 91 3e
       -0.06104803 0.08918662 0.5199853 0.28412238
0001c0 2d f6 d1 3c 62 d2 3f be d0 6f f0 3d 31 19 ee bc
       0.025630081 -0.18732598 0.117400765 -0.029064747
0001d0 88 da 25 3e 6b 91 34 3e c6 04 b2 3d 4a 68 ed 3d
       0.16196644 0.17633598 0.08692317 0.11592157
0001e0 bd 37 0e 3e e8 92 3f bd e4 44 3f 3c a7 f2 9a 3d
       0.1388845 -0.04677096 0.01167414 0.075658135
0001f0 89 11 a4 bd f8 de 2c 3d 9a b2 e3 3d 37 97 50 3c
       -0.08011157 0.042204827 0.1111805 0.012731365
000200 62 15 5a 3d c3 1e ed bd b6 90 8c bd 7e ac ab 3c
       0.05324305 -0.11578133 -0.06863539 0.020956274
000210 07 14 8b bd 2c 8e 3a 3e 4b 8c 46 bb f7 7d 85 bd
       -0.06790929 0.18218297 -0.0030296023 -0.065181665
000220 46 cb 9d bc 1b 82 02 3e f0 5a 1f bd f7 57 08 3d
       -0.019261967 0.12744944 -0.038905084 0.033287015
000230 6f dd 4d bd 63 e1 87 bc 84 84 c9 bd 5d 3f 4f bd
       -0.050260004 -0.016586965 -0.098397285 -0.050597537
000240 d9 6e 38 3d d9 01 0a be 42 44 10 bd 2d 90 01 3d
       0.045027588 -0.13477267 -0.035221346 0.031631637
000250 af 02 79 bd fc ed e0 bd b4 d4 ea 3d 27 41 e3 3d
       -0.060793575 -0.10982892 0.11466351 0.11096411
000260 5e 30 ee bd 3a 01 d0 3d 42 ad f5 bd 17 18 72 bd
       -0.11630319 0.10156484 -0.11995937 -0.059105005
000270 18 eb a1 bd 85 44 ba 3d d9 a4 4a be 26 7b ce 3d
       -0.07906169 0.090951 -0.19789447 0.100820825
000280 d3 fe 84 bd f4 08 16 3e 77 af 45 be 1c ee ef 3d
       -0.06493916 0.14651853 -0.19305216 0.11715338
000290 cd 6e 22 bd 17 85 9f 3c f0 f6 54 bd 5b e0 ee bc
       -0.03965645 0.019472642 -0.05199331 -0.029159715
0002a0 8d d7 31 bd 9e f7 a1 bd da 3a ab bd 5c 70 fb bd
       -0.043418456 -0.07908557 -0.083608344 -0.1227729
0002b0 98 69 d0 bd 22 4b 33 be b0 88 25 be 3f 65 5f 3d
       -0.101763904 -0.1750913 -0.16165423 0.054539915
0002c0 5e 9b 99 3c ad 33 16 be f6 6f 1c bd 6b 63 e8 bd
       0.018750843 -0.1466815 -0.03819271 -0.113470875
0002d0 35 72 8f bd f4 99 de bd 8f 28 11 be 0f 09 f2 bd
       -0.07004205 -0.10869208 -0.14175628 -0.11818134
0002e0 b3 c8 09 3e 32 86 be bd b2 ff 1d be f1 09 c8 3b
       0.13455467 -0.093029395 -0.15429571 0.0061047007
0002f0 a6 16 93 3c 1c 69 c2 bd 21 3b a5 3c c2 7b cb bd
       0.017955136 -0.09492704 0.020169796 -0.09935714
000300 79 c9 72 3d f4 ae 5a bc ce ad 4a bd 43 96 39 3d
       0.05927417 -0.013347376 -0.04948216 0.045309316
000310 75 80 bb 3d 66 68 68 3c b6 59 95 3d 72 84 6e 3e
       0.091553606 0.014185047 0.07292502 0.23292711
000320 92 35 81 3e 2c bc a3 bd 93 83 e8 bc 5b 7c 83 ba
       0.25236183 -0.07994875 -0.028383052 -0.0010031568
000330 1b 92 a3 3b fc 13 9e 3e f5 64 ad 3d e6 67 82 be
       0.0049917824 0.30874622 0.08466522 -0.25469893
000340 5b d1 ad 3d c9 7f 17 be 9e 5c 09 be a0 e0 86 3e
       0.08487197 -0.1479484 -0.13414237 0.2634325
000350 11 4c 32 3a ca b8 16 bc 61 02 1f 3e 84 b7 00 be
       0.0006801496 -0.009199331 0.15528251 -0.12570006
000360 c0 e6 a7 3d 9a 33 fa bc c7 e2 b3 3e 03 86 f3 bd
       0.08198309 -0.030542184 0.35133955 -0.11890795
000370 b9 2e d0 3c 90 37 f0 bd 15 a6 1a be f7 06 10 3c
       0.025412904 -0.11729348 -0.15102418 0.008790723
000380 81 ee 98 bd 1d df 30 be 86 8d 7d bd 2a 95 d8 bd
       -0.07467366 -0.17272611 -0.061902545 -0.10575326
000390 34 cf 84 bd c2 56 9b 3c d1 94 38 bd 3d ed 00 3b
       -0.06484833 0.018962268 -0.045063797 0.0019672655
0003a0 23 95 27 bc f9 22 ca 3d c0 bd 58 3d 80 de 13 3e
       -0.010228428 0.09869952 0.052915335 0.14440346
0003b0 85 8b 18 3c 92 1e 5b 3d fd 8c 42 3d 18 dc a4 3d
       0.009310608 0.05349595 0.04749774 0.08049792
0003c0 45 ee 72 bd 81 05 db 3c 99 08 61 3d 48 54 53 be
       -0.059309263 0.026736023 0.05493984 -0.2063762
0003d0 13 74 c4 bb 33 a0 4f bc 83 c5 ae bc 0b 0c a3 3d
       -0.0059952824 -0.012672472 -0.021334415 0.079612814
0003e0 5c a8 2c be e9 75 ba bd 99 10 41 3d 50 db 22 3e
       -0.16861099 -0.09104521 0.04713497 0.15903974
0003f0 56 e7 e4 3d ab ff 8f 3e 1b ee d7 3d cf 72 9d bd
       0.11176936 0.28124747 0.10543462 -0.076879136

lstm2.weight_ih_l0 f4 [128, 64]
000000 15 eb 0f bd 51 46 9a 3c 86 2f 59 be 60 0f 6c 3e
       -0.0351363 0.018832358 -0.21209535 0.2305274
000010 42 ae 41 bd 57 09 e3 3d 12 8e 85 3e b6 17 d6 3d
       -0.047285326 0.11085766 0.26084954 0.10453741
000020 69 89 7a 3d 98 8f 07 3e d8 9c 28 bd ca 1c e6 bd
       0.0611662 0.1323837 -0.041165203 -0.1123596
000030 7a b7 0c bd 97 05 c9 bd 34 53 bb bb 7d 88 6f be
       -0.034354664 -0.09815519 -0.0057167057 -0.2339191
000040 f5 64 f1 bc 83 33 06 3d ba 05 f0 bd 08 7c 0c be
       -0.029467085 0.03276397 -0.11719842 -0.13719189
000050 8c ac cc 3d e9 7b 53 be ea e0 31 be 38 cd 00 3e
       0.09993848 -0.20652737 -0.17370954 0.12578285
000060 2f 85 12 3e 2e 94 32 be a5 1c 45 3d e6 c5 83 3c
       0.14308618 -0.17439339 0.04812302 0.016085576
000070 da 45 86 3e 23 c3 77 3c 36 7f 32 ba 55 d3 11 be
       0.26225168 0.015122208 -0.0006809117 -0.14240773
000080 8c 6c 79 be d0 68 ba 3d 65 4b c0 bd 09 7a 0f 3e
       -0.24357814 0.09102023 -0.0938938 0.14011396
000090 1f f6 c3 bc c6 ee da bd 07 7f 13 3e 00 47 e9 3d
       -0.02392107 -0.10690074 0.14403926 0.11390495
0000a0 2d f3 28 be 2d de 78 be 37 73 3f 3d 6b ab b8 bd
       -0.16499014 -0.24303503 0.046740737 -0.090170704
0000b0 b5 26 2e bb 65 dd 95 be bd 85 93 be 20 19 f7 3e
       -0.0026573364 -0.29270473 -0.28812972 0.48261356
0000c0 7e 38 c4 3d ed fd d1 3d 99 ad d9 3c ec 6d 1d 3e
       0.095810875 0.102535106 0.026572036 0.15373963
0000d0 a1 fd f6 bc a6 38 62 bd 5b 95 e6 bc 81 f0 b7 bd
       -0.030150237 -0.055229805 -0.02814739 -0.08981419
0000e0 fa 9e 6c 3c 32 98 86 be 3f 18 d4 3d 3c 31 a6 bd
       0.0144422 -0.2628799 0.10356187 -0.081148595
0000f0 31 63 26 be c6 f7 19 3e 84 1a 0c 3e 77 2d 6a bd
       -0.16248776 0.15035924 0.1368199 -0.057172265
000100 0e 45 8f bd cb bf d2 be cb cc 98 bd c7 11 2c be
       -0.06995593 -0.4116195 -0.07460936 -0.16803657
000110 1a 0b ac be 14 d1 23 3e a8 ab 85 bd ea 07 25 3e
       -0.3360222 0.15997726 -0.065268815 0.161163
000120 fd 20 a4 bd a3 f3 a8 3e e3 6a 1e 3e ba 8e de 3c
       -0.080141045 0.3299838 0.15470462 0.027167667
000130 d1 66 48 3e 31 90 24 bd 25 4f c9 bc 12 51 92 3d
       0.19570471 -0.040176574 -0.024573872 0.07144369
000140 81 12 fe bd a9 1e 4e be 1e cd b0 bc 6b e2 d4 bb
       -0.12405873 -0.20128883 -0.021582182 -0.0064967177
000150 4e 64 43 bd 37 d0 4a be 39 c9 db 3e 37 e1 4d 3e
       -0.04770308 -0.1980599 0.42926958 0.20105444
000160 65 70 0a be 76 2b 1f be a8 77 5d 3d 9b b8 85 bd
       -0.13519438 -0.15543923 0.05406919 -0.06529351
000170 d5 67 8c 3d 3b 81 27 bd 77 76 a7 bd 66 10 e5 3c
       0.06855742 -0.04089473 -0.08176892 0.027961921
000180 27 d5 09 3d c4 6d 03 be f2 09 62 be 4e 29 95 3c
       0.033650544 -0.12834841 -0.22074106 0.018208172
000190 94 0b 0d 3e e8 07 a2 bd f9 b7 80 be 08 31 9b bb
       0.13773948 -0.07911664 -0.2514036 -0.0047360696
0001a0 72 83 e0 be a5 c3 76 3d c2 35 60 3e f3 f5 54 3c
       -0.43850285 0.060245175 0.21895507 0.012998092
0001b0 60 f7 ed 3b cd 79 ca be 7a 76 22 bd cb 5f c6 3e
       0.0072621554 -0.39546052 -0.03966377 0.3874496
0001c0 e4 a8 74 be 8f 0a a6 be 36 fb fa 3d 00 7a 2d be
       -0.23892552 -0.3242993 0.12254946 -0.1694107
0001d0 de 99 fb 3c ef a1 58 3d 56 60 15 3e 92 1d 71 bd
       0.030713018 0.052888807 0.1458753 -0.05886609
0001e0 44 06 35 3e a3 31 4b be 19 95 d2 3d 4e 48 5c be
       0.17678171 -0.19843154 0.10282344 -0.21511957
0001f0 9e 2c 16 3e 74 6a ab be 98 db e2 be f2 f4 a9 3e
       0.14665458 -0.33479655 -0.44308162 0.3319469
000200 e1 20 cd 3d 56 10 12 bd 20 4b eb 3d ce 2a c5 3e
       0.10016037 -0.03566011 0.11488938 0.3850922
000210 be 9a 11 3d 70 42 08 be cd 52 49 3d bb f3 f2 bd
       0.035547964 -0.13306594 0.04915123 -0.11862894
000220 54 8c 4e 3e 62 b2 06 be e1 c3 dc bd 3a 5f 5a be
       0.20170718 -0.13153985 -0.107795484 -0.21325389
000230 19 bc 01 be ff 24 89 be 08 da 95 bd c6 26 cc 3d
       -0.1266941 -0.26786038 -0.07316977 0.09968333
000240 48 a3 2c b8 0e e1 c0 3e 69 f1 b3 be af f3 15 be
       -4.1160063e-05 0.37671703 -0.3514512 -0.14643739
000250 0e 03 c2 3d c1 39 b6 bd 9e c6 50 be a9 84 33 3d
       0.09473239 -0.088977344 -0.20388266 0.043827686
000260 26 2d 90 3d 2e c9 a6 be 0f 50 65 3e 51 34 53 3e
       0.070398614 -0.32575363 0.22393821 0.20625426
000270 66 e7 28 3e b0 4f 3f 3d ad 5b a7 3d 0c 68 2c be
       0.16494521 0.046706855 0.08171783 -0.16836566
000280 bb 4b 9c be 5f 3c 55 3e 6f 2d f5 bc 2c b6 ec 3d
       -0.30526528 0.20823811 -0.029928891 0.11558184
000290 f2 de e7 3d 6e 3e 9d bd da eb 47 3e 00 d1 13 3e
       0.1132182 -0.07677923 0.19523564 0.14435196
0002a0 c0 f4 46 be 70 1f 34 3e 9f ba 03 3c 1a 59 57 bd
       -0.19429302 0.17590117 0.008040099 -0.05257521
0002b0 c9 85 51 bd 26 2a c8 bd 6d 1e 48 3e 02 e4 99 be
       -0.051152978 -0.09773664 0.19542857 -0.3005677
0002c0 46 ca 7d 3e f3 d3 b7 3c ba f9 aa 3b 76 0d 19 3e
       0.24784192 0.022439932 0.005217758 0.14946541
0002d0 fd a1 e5 3d 6d 6d d7 bd 25 95 1a 3e bd b0 90 bd
       0.112125374 -0.10518918 0.15095957 -0.0706496
0002e0 5e c8 ea 3d 81 73 04 bf d3 49 47 be 27 22 cc bd
       0.11463998 -0.51738745 -0.19461755 -0.099674515
0002f0 95 8f b2 be 6b ca 2b 3e 61 cd 8a 3e dd b3 f1 39
       -0.3487517 0.16776435 0.27109817 0.0004610111
000300 fa 83 34 3c 58 6c 2f 3d d1 06 58 bd de 5c 4e be
       0.011017794 0.042827934 -0.052740876 -0.20152614
000310 66 b9 84 3d 31 cd 3d bd 0b a2 d3 bd 7d 2b 1a be
       0.064806744 -0.046338264 -0.103336416 -0.15055652
000320 97 c9 21 3c 3e 18 03 bd 57 00 c1 bd 12 5f 1c be
       0.009874723 -0.03200554 -0.09423893 -0.15270641
000330 67 af ff bd e3 35 a9 bb fe 16 ca bd 7a e0 79 3e
       -0.12484627 -0.0051638945 -0.09867667 0.24402037
000340 23 ba fa bd 99 e8 03 3e b2 e3 fd bc 2e 54 8a bd
       -0.12242534 0.12881698 -0.030992363 -0.06754337
000350 2c 0e 6a bd 1a ef a2 3e ec 82 bf bc 24 81 00 3e
       -0.05714242 0.31823045 -0.023377858 0.12549263
000360 81 5a 2d 3e 0c 89 38 be 12 49 ae 3d 8c f5 74 3e
       0.16929056 -0.18021029 0.08510031 0.23921794
000370 23 fb 8f bd 1d 00 5f bd 98 17 cc 3d 17 74 53 3d
       -0.070303224 -0.054443467 0.09965438 0.051624384
000380 90 49 93 3e 94 4c ce 3c a0 52 9c bc 35 7a b8 3c
       0.2876706 0.025183 -0.019082367 0.02251921
000390 78 fe d4 3e c7 28 7c be 52 d9 49 3c 34 cc b9 bd
       0.41600394 -0.2462493 0.01231988 -0.09072152
0003a0 e5 af 30 bc f4 bb 89 3e 3d 98 5b be 5f f6 8c bd
       -0.010784124 0.2690121 -0.21444793 -0.06882929
0003b0 55 79 43 bd a0 60 18 3e 6d 76 24 3d b3 19 cf bd
       -0.047723133 0.1488061 0.040152002 -0.101123236
0003c0 75 f6 98 3d a3 3d a3 bd 48 2a 4a 3e f0 09 93 3b
       0.07468883 -0.07970741 0.19742692 0.0044872686
0003d0 a7 9d 99 bd 0a 57 60 3e ec a6 14 be 84 93 9c 3b
       -0.07500773 0.21908203 -0.145168 0.0047783274
0003e0 64 d5 18 3d 8d 7a 4b be 13 7d 1d 3e 0c a6 49 3e
       0.03731288 -0.19870968 0.15379743 0.19692248
0003f0 f4 e2 12 be 8b 49 49 be 3c 83 48 3d 2f 35 4f be
       -0.14344388 -0.1965696 0.04895328 -0.20235132

lstm2.weight_hh_l0 f4 [128, 32]
000000 ff 3b 3c be 70 cd ae be d8 f7 04 bd 96 7a b6 3e
       -0.18382262 -0.3414111 -0.032462925 0.356404
000010 57 96 08 3e be 64 70 bd 62 ba 0f bf 83 7d 30 be
       0.133386 -0.058689825 -0.5614377 -0.17235379
000020 f8 96 cb bd a7 9b 7b 3d 47 3d a1 be 85 96 a9 bd
       -0.099409044 0.06142774 -0.31492063 -0.082806624
000030 a6 b4 03 be 14 b9 23 3e 4f 13 5b 3d a2 9d fd be
       -0.1286188 0.1598857 0.05348521 -0.49534327
000040 00 bb 84 bc 29 52 66 3d 63 1e 6c bc 80 85 e2 3c
       -0.01620245 0.056230698 -0.014411542 0.027651548
000050 05 3e d0 3d dc 92 26 be 75 be 46 be ed a9 6a 3e
       0.10168079 -0.1626696 -0.19408591 0.22916384
000060 6f c5 ff 3d f2 55 e2 bd 7e 60 f7 bd 2f 3f 1f be
       0.12488829 -0.11051549 -0.12078951 -0.15551446
000070 fc 10 d2 be 07 41 ad 3d c7 b2 4e be 3c 4b 86 3c
       -0.41028583 0.084596686 -0.20185386 0.016393296
000080 ca 96 fe be 9a 4d 72 bd c0 6b 9d 3d 7f 0c f6 bd
       -0.49724418 -0.059156038 0.07686567 -0.12014102
000090 eb 55 bc 3d 25 ca ec bc fe 34 c2 bd b9 16 f0 bd
       0.09196075 -0.028904984 -0.09482764 -0.11723084
0000a0 c0 a3 e8 bd 26 25 62 be 15 d1 dc 3c 0e 69 78 3d
       -0.11359358 -0.22084484 0.026955167 0.060647063
0000b0 78 a5 14 3e 9a 14 71 3e 07 20 01 3d a6 ed 27 be
       0.14516246 0.23543015 0.031524684 -0.1639925
0000c0 da 49 9e 3e 49 0c b9 3e 3b 8f 55 be 53 83 57 3d
       0.3091572 0.36142185 -0.2085542 0.052615475
0000d0 a7 3b da 3c 69 27 1d be e4 c4 95 be 1a 6b 96 3e
       0.026639773 -0.15347065 -0.29251778 0.29378587
0000e0 96 d5 08 3e e9 98 a5 bd 55 7f 32 be 5e 1e 35 bd
       0.13362727 -0.08085806 -0.17431386 -0.044218414
0000f0 c2 e8 85 be 39 93 93 be ce df e2 bd 0a 16 c7 bd
       -0.26154143 -0.2882326 -0.110778436 -0.097210005
000100 b6 e3 95 3d 51 b9 60 3e b6 11 8c be 01 36 8c be
       0.07318823 0.21945693 -0.27357262 -0.27384952
000110 94 5d a3 3b 3b b1 7f be 80 85 8f 3e 1c 3c 7b 3d
       0.0049855206 -0.24969952 0.2803154 0.06133662
000120 30 ba 72 be ed 89 a9 3c dc 37 85 be 79 32 29 3c
       -0.23703837 0.020695651 -0.2601918 0.010326975
000130 cf 21 47 3e f0 18 76 be 5a 8d cc 3d ef 99 98 3e
       0.1944649 -0.2403295 0.09987898 0.29804942
000140 5d 55 d3 3d 8d 6c 50 be ec 40 c2 3d d7 30 d0 3c
       0.10319016 -0.20353909 0.09485039 0.025413914
000150 40 d9 19 bc 43 f2 ae 3c 48 cb 46 3e 70 8b f9 3d
       -0.009390175 0.021355754 0.19413483 0.12184799
000160 d0 8c ae be 63 3b b8 3d 88 a9 e2 bd b1 95 17 3e
       -0.34091806 0.08995702 -0.11067492 0.14803196
000170 70 08 f7 3d 15 17 13 bd 81 51 43 bd 71 8a 4d 3e
       0.12062156 -0.035910685 -0.04768515 0.20072342
000180 63 62 da 3d f7 d4 15 be fc 4c 39 3a ad 55 21 3e
       0.10663297 -0.14632021 0.00070686615 0.15755339
000190 30 9d 00 be eb df c7 3e 09 3e 34 be 00 62 f2 bd
       -0.12559962 0.39038023 -0.1760179 -0.11835098
0001a0 d4 e3 aa 3e 22 cc 42 3e 16 a4 f3 3d ee 6b 30 3c
       0.33376944 0.19023183 0.11896531 0.01076792
0001b0 55 4b 61 be f7 ec 25 bd d4 f4 6e bc 65 4c c2 bd
       -0.22001393 -0.04050919 -0.014584739 -0.09487227
0001c0 60 f8 12 3c 15 20 0f 3e e6 6b 96 3d 75 12 82 3c
       0.00897035 0.13977082 0.07344799 0.015877942
0001d0 61 8d ed bd 0f be 14 be 15 88 81 be 58 88 57 bd
       -0.115992315 -0.14525627 -0.25299135 -0.052620262
0001e0 a5 4f 7e 3d ea e0 a7 bd 80 69 65 bb cf 21 a9 bd
       0.062087674 -0.08197196 -0.003500551 -0.082584016
0001f0 3f 7e d6 bd 3c 5b bc bd 5d 79 f5 bd 1b 62 52 be
       -0.10473298 -0.09197089 -0.11986039 -0.20545237
000200 e9 a4 1f 3e 32 88 05 be 49 4e ef bd 27 55 55 3e
       0.15590252 -0.13040236 -0.116848536 0.20833264
000210 a8 92 97 3d e6 5e 8e be f4 94 e7 3c 35 05 c4 bd
       0.07401019 -0.27806777 0.028269269 -0.09571306
000220 c5 e6 e2 be 66 d3 22 bd c3 76 8b 3e 12 7f 6b 3e
       -0.44316688 -0.039752387 0.27239046 0.22997692
000230 c7 f5 5f be 55 ac f3 be fa 43 d4 3d e9 1d 74 3e
       -0.218711 -0.47592416 0.10364528 0.23839535
000240 32 8d 67 3e ab c5 00 be 5d 21 a8 3d 6a 7f 0f be
       0.22612455 -0.12575404 0.082094885 -0.14013448
000250 4c 67 55 be 28 cb e6 bc 5d dc ac 3b 3c 9d 2e bf
       -0.20840186 -0.028173044 0.005275293 -0.6820867
000260 4a 84 81 be 4f 6b 58 3e 67 51 73 3d 5d 6c 86 3d
       -0.2529624 0.21134685 0.059403803 0.065636374
000270 ea e8 34 3d d3 8c 8a bd 29 d2 75 bd e7 31 94 3e
       0.044167437 -0.06765141 -0.060014877 0.28944322
000280 88 1b 13 3e 6c 57 2f 3d d1 5f 09 be 92 c1 af bb
       0.14365971 0.04280798 -0.13415457 -0.0053636516
000290 dc a5 56 be ea 02 c7 3c 81 ce a4 bc af a1 29 bd
       -0.20961708 0.024293382 -0.020118 -0.04141396
0002a0 46 d5 6c be 56 b6 31 3d ff 7f 55 be ed c9 a1 be
       -0.23128232 0.04338678 -0.20849608 -0.3159937
0002b0 90 f9 08 bf 2a 71 15 3e 23 06 63 3e 89 a6 63 bd
       -0.535058 0.1459395 0.2217031 -0.055578742
0002c0 d1 19 04 3e aa b5 e9 bd 82 e0 81 be 4d 93 10 bf
       0.12900473 -0.11411603 -0.25366598 -0.56474763
0002d0 20 84 1b be b6 5c ee bd 65 c2 27 be b5 6f a4 bd
       -0.1518712 -0.11638777 -0.1638275 -0.08029119
0002e0 ce 8b 61 3e ca d9 96 3e 52 d3 cb be 8e 0d 50 be
       0.22025988 0.29463035 -0.39809662 -0.2031767
0002f0 52 b6 ac bd e8 92 b3 3d f2 fa d8 be cd 6f 12 bd
       -0.08433212 0.087682545 -0.42378956 -0.035751153
000300 12 8a 2e be 8e 36 c5 bd f4 ad 4c 3d 4f c7 4d bc
       -0.17044857 -0.09629546 0.049970582 -0.012559726
000310 23 7f 42 be 3a 0f 73 be ff 7a a8 be 91 e3 83 3e
       -0.18993811 -0.23736277 -0.3290634 0.25759557
000320 97 a4 49 be 65 06 a4 bd b5 95 f0 3c bd 5c 94 bd
       -0.19691692 -0.08009032 0.02936826 -0.07244251
000330 04 98 8f bd 42 a2 32 be 22 58 c4 3d c6 ec 8f 3e
       -0.070114166 -0.17444709 0.095871225 0.2811033
000340 31 1c 6a be 8d 6a dc bd c9 44 af bd c4 a5 6f 3e
       -0.22862317 -0.107625104 -0.085580416 0.23403078
000350 41 e7 d3 3d 50 0d 89 be de 43 e4 bd 35 f7 93 3d
       0.103468426 -0.2676797 -0.11145757 0.072248854
000360 dc f8 bf 3e 42 de ea bd 7d 93 98 3e 4e e0 bf be
       0.37494552 -0.114681736 0.29800025 -0.37475818
000370 23 14 6b 3e 27 27 be 3d 52 22 78 3e 5f ba d7 3c
       0.229569 0.092848115 0.24231842 0.026333986
000380 1e ab 6c 3e ec 30 0b 3e 94 8b d4 bd de 62 95 bd
       0.23112151 0.13592881 -0.10378185 -0.07294248
000390 4f 73 7e bd 8e 18 87 3c b3 66 1f 3e 84 16 78 3e
       -0.062121686 0.0164912 0.1556652 0.24227339
0003a0 d2 b7 06 bf 0f 0b 10 3d 58 51 09 3e bd f9 64 3e
       -0.5262424 0.035166796 0.13409936 0.22360893
0003b0 e0 1e b4 bd fd df cf bc 25 51 b2 3d 88 ca ec 3d
       -0.087949514 -0.02537536 0.08706883 0.11562067
0003c0 80 40 b8 bd 3c 93 2a be 2f 7c 21 bc dc de 5d bc
       -0.089966774 -0.16657728 -0.009856268 -0.013541903
0003d0 15 a0 c2 be 44 a9 e0 38 da 6e d3 bd 7a 0e 0d bf
       -0.38012758 0.000107126805 -0.10323878 -0.55100214
0003e0 a3 d7 14 be 9e 5b ed 3e f3 df 7e 3c 86 d9 93 3e
       -0.14535384 0.4635896 0.015556323 0.28876895
0003f0 e3 05 cd 3e 1d 2b 2d be c4 9d 58 bd 05 a2 27 bc
       0.40043554 -0.16910978 -0.052884832 -0.0102315

lstm2.bias_ih_l0 f4 [128]
000000 48 0c b5 3d 66 a2 35 3e 80 3c 18 be af e1 3b 3e
       0.08840233 0.17737731 -0.14866829 0.1834781
000010 dd 9f cd 3d c1 77 62 3e cc f9 8d 3d 9d 9b 9e bd
       0.10040257 0.22115995 0.069324106 -0.07744525
000020 bf b9 a1 bc 95 c1 e1 3d 7a 1c d3 bc fe a7 35 be
       -0.019741891 0.11023251 -0.025770415 -0.17739865
000030 49 1e 2f bd 5e 45 11 be a3 13 25 be 53 58 c4 bd
       -0.04275349 -0.14186618 -0.16120772 -0.09587159
000040 7f 21 20 be 2a 8c 36 3d 91 2a 74 bc 65 7a 8b 3c
       -0.15637778 0.044567265 -0.014902727 0.017026136
000050 e8 08 6c 3e 82 10 6c 3e af b6 59 be d0 34 1f 3d
       0.23050272 0.23053172 -0.21261095 0.038868725
000060 df b7 61 3e 7b 3d c3 3d c7 7e 19 be aa f2 8e 3e
       0.22042798 0.09533211 -0.14989768 0.27919513
000070 17 4f 1d be 30 6a 71 3e 20 5f 15 be 09 60 6f bc
       -0.15362202 0.23575664 -0.14587069 -0.014610299
000080 6b 27 cc 3e d4 b2 f4 3d c9 aa 1a 3e 90 ed 7d 3e
       0.39873824 0.11948171 0.15104212 0.24797654
000090 27 a3 67 3d 58 c3 89 3e 05 24 6e 3e df 3a ff 3d
       0.05655208 0.26906848 0.23255928 0.12462401
0000a0 2c f8 53 3e ed 62 7a 3e 2d c8 fd 3d fc ca f1 3e
       0.20700139 0.244518 0.12391696 0.47225177
0000b0 a6 99 88 3e ce e5 c0 3e 90 c4 b2 3e 26 39 98 3d
       0.26679724 0.37675327 0.3491559 0.07432775
0000c0 fe 0b c3 3e e7 b0 da 3c 72 55 d7 ba 0c c3 29 3e
       0.38095087 0.026695682 -0.0016428663 0.1657831
0000d0 69 4d 57 3e 26 b6 50 3e 10 24 4b bd ba 48 cc 3d
       0.21025623 0.20381984 -0.04959494 0.09974809
0000e0 cd d9 d3 3e 32 2e 41 3e 60 24 42 bd 1f 36 67 3e
       0.41377106 0.18865278 -0.04739797 0.2257924
0000f0 59 12 14 3e ca 4f 80 3e e7 b6 a6 3c a8 8f 74 3d
       0.14460124 0.25060874 0.020350887 0.059707314
000100 f5 d7 e4 3d 50 9a 9a 3d f0 f0 e2 3c 33 cf 9a bd
       0.11174003 0.07548964 0.027702779 -0.07559051
000110 0c ae 0e 3e 79 97 24 3e 93 f7 41 be 26 90 0c 3e
       0.13933581 0.16073407 -0.18942098 0.13726863
000120 4b e8 73 bd 19 12 5e 3e de 5f 79 3d 0f e9 ce 3d
       -0.059547704 0.21686591 0.06088244 0.10103046
000130 c3 e3 46 bd c4 31 06 be a9 78 37 be 61 d0 af bd
       -0.048557054 -0.13104922 -0.17917122 -0.08584667
000140 2e 8f 2b 3d d3 79 13 3e a3 98 8f bd 41 aa eb 3a
       0.041884594 0.14401941 -0.07011535 0.0017979817
000150 18 9d ca 3d ad d9 af bd 1e 47 05 bd 36 62 ab bd
       0.098932445 -0.0858644 -0.032538526 -0.083683416
000160 48 01 31 3e bb a1 4e bb c4 88 53 bd 94 2a 39 be
       0.17285645 -0.0031529504 -0.0516441 -0.18082649
000170 a8 df 6e bd 89 ef ba bc 3a ce 38 be 96 93 e5 bd
       -0.058318764 -0.022819297 -0.18047419 -0.112097904
000180 3d d8 46 be 59 84 30 3e c6 75 38 be 92 8a 9c 3e
       -0.19418426 0.17237987 -0.18013677 0.3057447
000190 2d eb 22 3e 04 d4 33 3d 6b 45 17 3d 77 19 73 bd
       0.15910025 0.043903366 0.036931437 -0.059350457
0001a0 52 a1 ee 3d 95 c1 89 3e 4b 08 ae 3d dc 60 29 3e
       0.11651863 0.26905504 0.084976755 0.16540855
0001b0 ea fc 52 3e 9f a5 d8 bd 07 19 02 be 50 16 8e 3e
       0.20604292 -0.10578465 -0.1270486 0.27751398
0001c0 d3 b1 8a be 43 00 ba 3d 9b a3 bf 3e 1e ee 3f 3e
       -0.27088794 0.09082081 0.3742951 0.18743178
0001d0 70 26 bb 3e b9 8c 3e 3e c7 5b d9 bd b6 c2 a6 3e
       0.36552763 0.18608369 -0.10613208 0.32570428
0001e0 81 44 a5 3d 43 21 1e 3e 6b 17 ed 3d bd d7 1d 3e
       0.08069707 0.15442376 0.11576732 0.15414329
0001f0 71 3e 67 be b7 7d 09 3e 68 95 a6 3e e2 b2 49 3e
       -0.22582413 0.13426863 0.32535863 0.19697145

lstm2.bias_hh_l0 f4 [128]
000000 40 80 20 be d0 33 2f 3e 1f 3e 50 bd 6e df 8b bd
       -0.15673923 0.17109609 -0.050840493 -0.06829725
000010 e3 10 8c bc c2 7a 1e 3e 1c f2 2d 3e d6 7e 12 bc
       -0.017097896 0.15476516 0.16986889 -0.008941373
000020 42 6d 4a be 7f ab 15 be 34 10 74 3d 81 8c 33 3c
       -0.19768241 -0.14616202 0.059585765 0.010958792
000030 49 fa 3c bd 86 7e 99 3d 3a 02 90 be 54 0b d5 3d
       -0.046137128 0.074948356 -0.281267 0.10402551
000040 d8 b6 8c be 44 be 48 be f0 fb 2a 3c c1 7e 1b 3e
       -0.2748325 -0.1960383 0.010436043 0.15185072
000050 4c a1 d9 3c 16 03 29 3e 95 31 55 bd 39 c3 e5 bd
       0.02656617 0.16505083 -0.05204924 -0.112188764
000060 9c 64 32 3d e8 d4 f0 3d a0 4d 30 be d1 95 cb 3d
       0.04355298 0.11759359 -0.17217112 0.099406846
000070 05 52 5c bd 52 ab 22 3d dd 25 7c be 06 07 59 3d
       -0.053789157 0.039714165 -0.24623819 0.052985214
000080 ba 10 d5 3e 93 9d eb 3d d4 db a3 3e d6 23 62 3e
       0.41614324 0.11504664 0.32003653 0.22083983
000090 d7 93 87 3e 67 b7 53 3e b5 13 85 3e 47 4b 33 bd
       0.2647998 0.20675431 0.25991598 -0.043772962
0000a0 db 09 89 3e 3a 5e d5 3d de 18 97 3e c0 57 80 3e
       0.26765332 0.10418363 0.2951116 0.25066948
0000b0 35 ee a7 3e a0 24 10 3e 05 e7 cc 3e 40 cd 38 3e
       0.32798925 0.14076471 0.40020004 0.18047047
0000c0 2d 7a ff 3d 8c 44 87 3d 8e 0a 72 3e 36 19 88 3d
       0.12474475 0.06604871 0.23636839 0.066454336
0000d0 50 af 58 3e 15 a5 86 3e 41 db 88 3b 38 32 52 3e
       0.21160626 0.26297823 0.0041765277 0.2052697
0000e0 69 f4 51 3e d1 50 b3 3e e7 ef 83 3e 9d ed 8f 3e
       0.20503391 0.35022596 0.25768968 0.28110972
0000f0 2e 62 ce 3e fa 6f bc bc de d1 c5 3c bd 8e 31 3c
       0.4030928 -0.023002613 0.024147924 0.010837254
000100 65 f7 7c bd d5 29 b8 bd 27 50 9c 3d 21 a9 d8 3d
       -0.06175937 -0.08992354 0.07632475 0.10579134
000110 39 ee dc 3c 79 8d 17 3e 02 98 4c 3c e9 bd 08 3e
       0.026969062 0.14800061 0.012487413 0.13353695
000120 84 d7 b6 bd eb ee be bd f8 ce 35 be e1 04 12 3e
       -0.08927825 -0.09322914 -0.17754734 0.14259674
000130 fc 94 a6 3d 93 e3 ec bc d7 5a 08 be 3e a1 20 3d
       0.08133885 -0.02891711 -0.13315903 0.039216273
000140 49 29 0b be 33 53 b8 3d 9b da 26 bd 5f b6 e9 3d
       -0.13589968 0.09000244 -0.040735822 0.11411738
000150 85 6d 48 be 81 34 70 3d d8 9a a0 bc 4b 61 06 bd
       -0.19573028 0.05864382 -0.019605085 -0.03280763
000160 ca 6d 59 3e ad 2e fd bd ae 2b 85 3d 9e 69 98 bc
       0.21233287 -0.12362418 0.06502472 -0.01860505
000170 fb cf 8e bd dd 00 7a 3e f8 76 ea bc dd 0a fe bc
       -0.06973263 0.24414392 -0.028621182 -0.03101104
000180 39 f2 4a bd a7 1b ea 3d 71 32 a2 be e2 1e aa 3c
       -0.049547408 0.114310555 -0.3167911 0.02076668
000190 fb 38 86 bd e2 5d 03 3d 6b 61 ad 3c b3 56 0f 3e
       -0.06553837 0.032071956 0.021164617 0.13997917
0001a0 f2 77 74 3e 6f a7 14 bc 5d ff 95 3d 07 53 12 3e
       0.2387388 -0.009073122 0.07324097 0.14289485
0001b0 53 e2 4d 3e 34 6f bc bc a5 7e ac be 31 4e 27 3e
       0.20105867 -0.023002245 -0.33690372 0.16338421
0001c0 67 6e 18 be 56 6f 80 be 29 11 0d 3f 67 18 94 bb
       -0.14885865 -0.25084943 0.5510431 -0.0045195105
0001d0 71 26 bf 3d a8 32 5d 3e 6b 7a 9f bc ae bd 29 3e
       0.09333504 0.21601355 -0.019467553 0.16576263
0001e0 b2 d0 cd 3d 90 57 eb 3d 80 70 1f bd c6 f8 3c be
       0.10049571 0.114913106 -0.038925648 -0.18454275
0001f0 12 ce ce 3c 99 5a aa 3e a9 65 4c 3e eb ce 55 bd
       0.025244746 0.33272246 0.19960655 -0.052199285
