lstm/federated/centralized_finetuned_member3.pt (torch, 124451 bytes, 10 tensors)

lstm1.weight_ih_l0 f4 [256, 3]
-0.5279226 -0.3482468 -0.395054 0.41748923 0.17266469 0.5256509 0.42683974 0.48307073
0.3410197 0.29516464 -0.02014779 -0.012779731 -0.3172678 0.37430412 0.68234724 -0.0717808
0.4094233 0.4465982 0.2676707 0.5256613 0.54250634 0.89228964 1.4087255 1.333183
0.5540836 0.33335075 -1.0479102 0.172123 0.031006014 -0.1307811 -0.3622568 -0.38796514
0.015697312 0.35066143 0.21639648 0.3698195 -0.038972355 0.030895878 -0.07061819 -0.861821
-0.68445545 -0.8089899 0.44530627 0.35926083 0.36208427 0.09229785 -0.11241367 -0.3485329
-0.3075044 -0.19427283 0.00056638307 -0.45679063 0.038056526 -0.26210314 -0.059124466 0.033650286
-0.20576753 -0.055755585 -1.0717425 -0.49804902 -0.50947154 -0.30500925 -0.08743975 0.4037807
0.40513825 0.5697131 0.082011126 -0.3355425 -0.2097257 -0.040964555 -0.21663569 -0.12611672
-0.0029004267 -0.46143162 -0.60142314 -0.24584654 -0.29152587 -0.320227 0.49353117 -0.0810079
0.5831562 -0.34449616 -0.18016675 -0.4198874 -0.035872497 -0.055657733 -0.1237061 0.4679824
0.24212967 -0.0757728 -0.14093094 -0.09187103 -0.008843179 0.042517327 0.052170556 0.08202778
0.49480107 0.3891607 0.5670478 -0.31513426 -0.38493517 -0.25249875 0.37466225 0.42071384
0.56131315 -0.36342028 -0.09681739 -0.09777517 0.06871207 0.2620454 0.116616026 0.15279716
0.35877135 0.32704955 0.25037578 -0.96888816 -0.029055985 0.46421644 0.4866147 0.20673853
0.12882604 0.16442299 0.19581565 0.43792614 0.5502321 0.38223588 -0.72130674 0.616654
0.21065369 -0.12981242 -0.18242933 -0.15645353 -0.20375977 -0.19339399 -0.004223216 0.35593912
0.5409453 0.13066813 0.47962105 0.29087016 -0.024117546 -0.28957078 -0.3214631 -0.086168066
-0.250214 -0.4360528 -0.1829456 -0.4427927 -0.18443587 0.024288338 -0.13221219 -0.19867742
-0.23263778 -0.022980435 -0.32556343 -0.46463034 0.012836308 -0.21787103 -0.010817125 -0.04632634
-0.10684883 -0.26293072 0.328598 0.16664185 -0.1377524 -0.42749038 -0.21568124 -0.028772915
-0.42014465 -0.1446917 -0.034304943 -0.20093146 -0.3065307 -0.18207453 0.15017156 0.26299495
0.3634107 0.21590735 -0.44553953 -0.60721105 0.019884905 -0.45203525 -0.4652407 0.31293905
-0.0648569 0.0325326 -0.5738409 -0.4124242 0.8134812 -0.28533313 -0.011274319 -0.505083
-0.37587008 -0.25569367 -0.505991 -0.2013253 -0.30166718 -0.23548305 -0.20148817 -0.04445588
-0.08386301 0.09350351 0.049301967 -0.040265024 -0.26806095 -0.37501335 -0.33420312 0.4623826
0.37235466 0.20662402 0.30699474 0.31031007 0.21016 -0.03268091 -0.13912572 -0.14977792
-0.64471924 -0.5483604 -0.1640764 -0.0765783 -0.024393171 0.081842035 -0.056849655 -0.13243362
-0.1940313 -0.37531865 -0.38180098 -0.023122266 0.18513119 0.3166446 0.27585635 -0.342407
-0.29154935 -0.27927488 0.051927622 0.14542162 0.015213806 0.0009250887 0.0918544 -0.07756495
0.28501308 0.18974684 -0.109892555 -0.25612986 -0.13313602 -0.24312605 -0.19054167 -0.23483646
-0.26108116 -0.022608265 0.042726807 -0.03266457 -0.0130104935 -0.07358697 -0.09640147 0.44495526
00000000: ef25 07bf 684d b2be 8544 cabe 26c1 d53e
00000010: 03cf 303e 0f91 063f bd8a da3e 0c55 f73e
00000020: 229a ae3e d21f 973e fa0c a5bc 1462 51bc
00000030: ed70 a2be caa4 bf3e 4fae 2e3f d001 93bd
00000040: ee9f d13e 85a8 e43e 220c 893e bd91 063f
00000050: b2e1 0a3f 186d 643f 1e51 b43f bea5 aa3f
00000060: 6cd8 0d3f f3ac aa3e ec21 86bf 0341 303e
00000070: 5300 fe3c 7beb 05be b979 b9be 5ea3 c6be
00000080: a697 803c e589 b33e 0a97 5d3e fb58 bd3e
00000090: 7aa1 1fbd 5a19 fd3c 45a0 90bd 4da0 5cbf
000000a0: 7938 2fbf f619 4fbf 2fff e33e 09f1 b73e
000000b0: 1c63 b93e a806 bd3d 2339 e6bd e772 b2be
000000c0: 3771 9dbe 75ef 46be 5379 143a 76e0 e9be
000000d0: 29e1 1b3d 6232 86be 7f2c 72bd e2d4 093d
000000e0: b9b4 52be f85f 64bd dc2e 89bf 4800 ffbe
000000f0: ba6c 02bf 2c2a 9cbe 9d13 b3bd 58bc ce3e
00000100: 486e cf3e b8d8 113f 73f5 a73d 3acc abbe
00000110: 55c2 56be 73ca 27bd bfd5 5dbe be24 01be
00000120: 1615 3ebb c440 ecbe def6 19bf 32bf 7bbe
00000130: e142 95be cbf4 a3be 1eb0 fc3e 78e7 a5bd
00000140: ba49 153f cd61 b0be a27d 38be 7bfb d6be
00000150: 0aef 12bd 5df9 63bd a059 fdbd 649b ef3e
00000160: d7f0 773e c52e 9bbd 3350 10be e126 bcbd
00000170: fbe2 10bc a626 2e3d cbb0 553d 2efe a73d
00000180: 9156 fd3e 1240 c73e 0b2a 113f 4759 a1be
00000190: 3916 c5be 8447 81be bbd3 bf3e ce67 d73e
000001a0: 38b2 0f3f 3912 babe 3248 c6bd 593e c8bd
000001b0: eab8 8c3d d12a 863e 62d4 ee3d dc76 1c3e
000001c0: e1b0 b73e 0a73 a73e 4131 803e 0e09 78bf
000001d0: d106 eebc c7ad ed3e 9025 f93e 44b3 533e
000001e0: f9ea 033e 805e 283e e683 483e db37 e03e
000001f0: 03dc 0c3f 6cb4 c33e 8fa7 38bf 09dd 1d3f
00000200: 9ab5 573e 8ced 04be c1ce 3abe 5b35 20be
00000210: 67a6 50be 1309 46be e762 8abb a73d b63e
00000220: 647b 0a3f decd 053e e490 f53e efec 943e
00000230: 2992 c5bc 9f42 94be d096 a4be e278 b0bd
00000240: 0d1c 80be 5042 dfbe 1756 3bbe bab5 e2be
00000250: c2dc 3cbe 56f8 c63c a262 07be 1872 4bbe
00000260: 9938 6ebe 7741 bcbc 40b0 a6be 07e4 edbe
00000270: 614f 523c 9519 5fbe 503a 31bc b0c0 3dbd
00000280: 8fd3 dabd db9e 86be ff3d a83e 29a4 2a3e
00000290: f70e 0dbe 05e0 dabe 8bdb 5cbe 2db5 ebbc
000002a0: 331d d7be 102a 14be 5783 0cbd fac0 4dbe
000002b0: 98f1 9cbe bf71 3abe 93c6 193e 46a7 863e
000002c0: f810 ba3e d116 5d3e c21d e4be 2f72 1bbf
000002d0: abe5 a23c 2a71 e7be 0734 eebe 8c39 a03e
000002e0: b2d3 84bd e740 053d 3de7 12bf 4429 d3be
000002f0: 4e40 503f 2f17 92be ecb7 38bc 1f4d 01bf
00000300: 0b72 c0be 48ea 82be a088 01bf 3828 4ebe
00000310: 1f74 9abe 7822 71be ea52 4ebe 5e17 36bd
00000320: 5fc0 abbd c57e bf3d dcf0 493d f0ec 24bd
00000330: 493f 89be c001 c0be ac1c abbe 6abd ec3e
00000340: 45a5 be3e 3f95 533e 6a2e 9d3e f6e0 9e3e
00000350: 2f34 573e 6bdc 05bd f976 0ebe 625f 19be
00000360: 520c 25bf 5961 0cbf a503 28be 15d5 9cbd
00000370: 30d4 c7bc cc9c a73d 2fdb 68bd ae9c 07be
00000380: 24b0 46be c429 c0be 6b7b c3be e86a bdbc
00000390: 0893 3d3e 3e1f a23e 0b3d 8d3e f84f afbe
000003a0: f545 95be 1efd 8ebe 0fb2 543d 68e9 143e
000003b0: 5443 793c a781 723a 291e bc3d 5fda 9ebd
000003c0: 3ced 913e ff4c 423e 590f e1bd 7423 83be
000003d0: cf54 08be 09f6 78be 5b1d 43be f878 70be
000003e0: 6eac 85be f834 b9bc 4e02 2f3d 49cb 05bd
000003f0: f729 55bc c4b4 96bd 226e c5bd 2dd1 e33e

lstm1.weight_hh_l0 f4 [256, 64]
-0.13961722 0.09145812 -0.11215502 0.09645621 -0.06709141 0.08351547 0.040275037 0.1429778
-0.21181177 0.15597509 0.08172865 -0.08020784 -0.12667641 -0.25755328 0.10381851 -0.07248353
0.19855139 0.2126702 -0.1517084 -0.15855032 -0.043049484 0.08777009 -0.015557081 0.17135897
-0.26992118 -0.22607362 -0.026027717 0.15663217 0.15264677 -0.04201775 -0.044144616 -0.02419648
-0.18184438 0.07645314 0.050576854 0.11733703 -0.1648005 0.04754304 0.16040796 -0.079977416
-0.04181677 -0.019498209 -0.025712019 -0.089072 0.11055235 -0.05047061 -0.21478483 0.08833221
0.29907024 -0.21487911 0.18176909 -0.15649025 -0.16271019 0.02327484 -0.15923415 0.0022061039
0.23148061 -0.10335364 -0.15151185 -0.019868756 -0.079082936 0.14739683 0.11602426 -0.0093902415
0.07135991 -0.028324405 0.051729564 -0.29804257 0.23350279 0.03052971 -0.22603852 0.18769395
0.034178227 0.14763348 -0.20665014 0.08598645 0.07629942 -0.15274906 0.025565881 0.24698746
-0.1918829 0.06698098 -0.1837727 -0.026250692 0.017221551 0.09801971 0.09127793 -0.05048426
-0.11815213 -0.081691794 -0.18841743 0.03470478 -0.009793825 -0.19020416 0.039598987 -0.06359251
0.11648384 0.05552998 0.0978762 0.07365951 0.007958396 -0.06533779 0.1433869 0.12335174
0.057173498 0.072131515 -0.06495682 0.11925353 0.10974562 -0.12660843 -0.041607205 0.3995645
0.08372396 -0.012155825 -0.007679869 0.21201995 -0.0089983 -0.1488309 0.1541724 -0.007493095
-0.20278688 -0.011384552 0.14434963 0.071004495 -0.086031996 -0.03713723 -0.25656983 -0.2052028
-0.09657053 -0.11459501 -0.1691175 -0.060984634 -0.14046004 -0.13830487 -0.010166837 0.2351602
-0.056844145 0.19889651 -0.13810451 0.099383794 0.019959226 0.04556543 0.21622731 0.20880584
-0.18382643 -0.24296278 0.38362738 0.018711194 -0.10897479 0.010784702 0.2436452 -0.14495248
-0.30358398 0.25105146 -0.12425822 -0.30879664 -0.093756504 -0.18085274 0.08199319 -0.018851638
0.25771013 -0.24329154 0.13274373 -0.08896129 -0.16291939 -0.15000814 0.06555853 0.057113443
-0.070604175 0.11471332 0.05969124 -0.06036094 0.061780125 0.03309665 0.1797607 -0.0895509
-0.20097047 -0.2150839 -0.041027665 0.10600999 0.019945724 0.11015466 0.1166677 -0.13821918
0.011116548 0.14931 0.0856576 0.19542676 -0.0012922585 -0.21220662 -0.4493998 -0.2844936
-0.053987082 -0.03196738 0.18013832 -0.08177404 -0.21112004 -0.24406171 -0.26073825 0.21811962
-0.037579004 0.10110744 -0.17361012 -0.019509193 -0.016073663 -0.21552522 -0.008408852 0.22899348
-0.17100619 0.21243113 0.17485687 -0.14079262 -0.003425443 0.14039157 -0.18132083 -0.09164358
0.23740813 -0.0014324485 -0.22481611 -0.014803418 -0.11225163 -0.048747443 0.08237903 0.077336185
0.2132917 -0.14076051 0.14753096 -0.14060585 0.041657075 -0.076785736 -0.29289508 -0.09460339
0.0028896579 0.20462416 0.11634704 0.05356626 0.028302569 0.110030755 -0.0022817694 0.14173989
0.007180492 0.35812014 -0.1539076 0.1814888 0.09156431 0.011719968 0.15102704 0.13138223
-0.036000066 0.08652483 0.20467626 -0.17033781 -0.10832877 0.20151596 0.30706903 0.16489972
00000000: d1f7 0ebe 654e bb3d 88b1 e5bd d58a c53d
00000010: 3967 89bd 290a ab3d 70f7 243d c668 123e
00000020: 2fe5 58be efb7 1f3e 5a61 a73d 0244 a4bd
00000030: 76b7 01be 06de 83be cd9e d43d 3f72 94bd
00000040: 0e51 4b3e 38c6 593e 7259 1bbe 045b 22be
00000050: a854 30bd cec0 b33d 21e3 7ebc ba78 2f3e
00000060: 1c33 8abe d87f 67be 1438 d5bc 2f64 203e
00000070: 6f4f 1c3e ce1a 2cbd fcd0 34bd b237 c6bc
00000080: 6a35 3abe 7793 9c3d ad29 4f3d 664e f03d
00000090: 76c1 28be 7ebc 423d fc41 243e 33cb a3bd
000000a0: 1048 2bbd b5ba 9fbc 03a2 d2bc 616b b6bd
000000b0: 4569 e23d 45ba 4ebd 8ef0 5bbe 85e7 b43d
000000c0: bc1f 993e 4509 5cbe ad21 3a3e fb3e 20be
000000d0: 809d 26be e1aa be3c 470e 23be 4894 103b
000000e0: 4109 6d3e 13ab d3bd ec25 1bbe cdc3 a2bc
000000f0: 3cf6 a1bd 32ef 163e 219e ed3d 87d9 19bc
00000100: 2525 923d 9508 e8bc 61e2 533d 0999 98be
00000110: 5b1b 6f3e 7119 fa3c a476 67be d832 403e
00000120: 78fe 0b3d 3b2d 173e 189c 53be aa19 b03d
00000130: df42 9c3d 406a 1cbe 8a6f d13c 48ea 7c3e
00000140: f37c 44be 532d 893d e92e 3cbe b10b d7bc
00000150: 3614 8d3c 8fbe c83d ecef ba3d 95c8 4ebd
00000160: bef9 f1bd 074e a7bd 80f0 40be 9926 0e3d
00000170: 4876 20bc e1c4 42be 8c32 223d ca3c 82bd
00000180: 148f ee3d 6873 633d 5173 c83d ccda 963d
00000190: ef63 023c d2cf 85bd 04d4 123e d69f fc3d
000001a0: c22e 6a3d b0b9 933d 1508 85bd 323b f43d
000001b0: 50c2 e03d a4a5 01be 516c 2abd b893 cc3e
000001c0: 7877 ab3d 3a29 47bc 69a7 fbbb c21b 593e
000001d0: 9b6d 13bc 2167 18be 5fdf 1d3e a388 f5bb
000001e0: 5da7 4fbe 4686 3abc 64d0 133e ce6a 913d
000001f0: 8b31 b0bd 351d 18bd 1f5d 83be af20 52be
00000200: c5c6 c5bd cab0 eabd 232d 2dbe 06cb 79bd
00000210: c2d4 0fbe cb9f 0dbe ce92 26bc d6cd 703e
00000220: 68d5 68bd 87ab 4b3e 456b 0dbe bb89 cb3d
00000230: 8881 a33c d1a2 3a3d b16a 5d3e 33d1 553e
00000240: ff3c 3cbe 3ccb 78be cf6a c43e 3848 993c
00000250: 2d2e dfbd 52b2 303c 217e 793e 6c6e 14be
00000260: 5c6f 9bbe d189 803e 187b febd 981a 9ebe
00000270: 6903 c0bd 7631 39be 0cec a73d c06e 9abc
00000280: 95f2 833e 6b21 79be f9ed 073e 5631 b6bd
00000290: 57d4 26be bc9b 19be 8d43 863d c9ef 693d
000002a0: ec98 90bd d1ee ea3d cd7e 743d 083d 77bd
000002b0: 280d 7d3d 5a90 073d 3013 383e 7666 b7bd
000002c0: 34cb 4dbe f43e 5cbe a00c 28bd c41b d93d
000002d0: 3765 a33c c498 e13d 7aef ee3d 5489 0dbe
000002e0: 2f22 363c b8e4 183e 406d af3d f41d 483e
000002f0: 0061 a9ba b14c 59be bb17 e6be 25a9 91be
00000300: 8f21 5dbd 3af0 02bd 2e76 383e 2679 a7bd
00000310: da2f 58be 50eb 79be 7c7f 85be c05a 5f3e
00000320: 71ec 19bd 6b11 cf3d dac6 31be bed1 9fbc
00000330: eaac 83bc a5b2 5cbe 48c5 09bc 447d 6a3e
00000340: 3f1c 2fbe 8c87 593e ae0d 333e f12b 10be
00000350: 667d 60bb cfc2 0f3e 2bac 39be a1af bbbd
00000360: 1e1b 733e ffc0 bbba 3236 66be 098a 72bc
00000370: 2fe4 e5bd 66ab 47bd 56b6 a83d 6f62 9e3d
00000380: 2469 5a3e 8623 10be 5b12 173e fbfa 0fbe
00000390: 9ca0 2a3d d741 9dbd 58f6 95be 6cbf c1bd
000003a0: 6a60 3d3b ff88 513e 5b47 ee3d 4b68 5b3d
000003b0: cada e73c ce57 e13d bd89 15bb 4324 113e
000003c0: 554a eb3b 865b b73e f499 1dbe 33d8 393e
000003d0: 1286 bb3d 1c05 403c d5a6 1a3e 1089 063e
000003e0: ce74 13bd ee33 b13d a796 513e 096d 2ebe
000003f0: 79db ddbd 335a 4e3e 2738 9d3e 79db 283e

lstm1.bias_ih_l0 f4 [256]
-0.00015800721 0.006162971 -0.06362357 -0.05132675 -0.14388198 0.15196253 -0.1569257 -0.04539055
-0.035355408 -0.14026074 -0.112602845 0.021676706 -0.07940825 -0.2207261 0.22314864 -0.26992995
0.050772563 -0.012592727 0.05577557 -0.16910818 0.016879927 -0.009991224 0.11241067 -0.08532389
-0.104996145 0.08186384 0.043090224 -0.13438426 -0.17766702 -0.102052964 -0.114096455 -0.111259595
-0.07995482 -0.017281773 0.07069514 -0.10077802 -0.2186061 -0.15799114 -0.094298534 0.054974046
-0.22439866 -0.09798246 -0.083128296 -0.0064375172 -0.15350668 0.24411973 0.005000849 -0.087353975
-0.21416262 -0.2172588 0.04553538 -0.090021774 0.08335858 0.023234066 0.069332555 0.082600325
-0.09610428 -0.15342271 0.034803048 -0.19845052 0.09460619 0.19770128 -0.13805443 0.039917573
0.0557032 -0.17870107 0.06328872 0.08482854 0.06238437 0.12773772 0.03604705 0.28413635
0.03548802 0.11399164 -0.084546275 -0.11884583 0.2013925 0.028917814 0.19317302 -0.13927251
0.3003023 -0.081076495 0.06843954 0.1296951 -0.07905105 -0.1180653 0.03165264 0.085751995
0.37955803 0.07122045 0.022399904 -0.12704906 0.16789354 0.2758887 -0.23047882 0.060717452
-0.07459202 0.022173664 -0.011631531 0.10440906 0.032001544 0.15529397 -0.052312862 0.14626619
-0.05822296 0.06692161 -0.14104436 0.18053435 0.058576602 0.17232642 0.49500582 0.1471443
-0.13054317 -0.16643864 0.03004217 0.059978943 0.1507975 0.015031067 0.1329159 -0.034211695
0.11697158 0.011068311 -0.062388193 -0.05402968 -0.0012868545 0.09886384 0.09397963 0.07453569
0.08025284 -0.12704329 0.019197496 0.079984486 -0.044745494 0.050492663 0.014748863 -0.05914554
-0.13479187 0.16363853 0.09224753 -0.023365509 -0.12016944 -0.099283524 -0.14077614 -0.1355995
0.122606486 -0.13380025 -0.010442568 -0.094486244 -0.12685661 -0.039957672 0.1510735 0.11419545
-0.029029652 -0.07702546 -0.028425897 -0.10204977 0.018365212 0.08948807 0.023112724 -0.012643028
-0.030085072 0.15973642 -0.14093137 0.12941937 0.106912516 0.14478067 -0.14797814 -0.10840651
-0.050438013 -0.09822534 0.088933244 -0.121677876 0.021964125 -0.07139067 -0.09268657 -0.008473574
-0.044458307 -0.0243743 -0.037193578 -0.21065608 -0.033782635 0.06151575 -0.1083157 -0.11541809
0.08508054 -0.093743436 -0.108417295 -0.06374975 0.13553655 -0.13893695 0.095085196 -0.07001595
-0.08074335 -0.0022176902 -0.06141081 -0.03399737 0.11561614 0.08686572 0.09071912 0.16320664
0.076670155 0.08343068 -0.021063644 0.055018067 -0.18973799 0.17948405 -0.0152705815 -0.2592253
-0.11930591 -0.11562732 -0.092956506 0.23286574 0.042523246 -0.05863969 0.26441228 -0.02588758
0.18637125 0.038458794 0.1442478 -0.10626504 -0.007827216 0.021745274 -0.033871666 -0.09335516
-0.023491211 -0.17310914 -0.083596155 -0.07839261 -0.23087406 0.08024206 0.023079311 -0.0016579124
-0.17262638 0.1604518 0.03685186 -0.06038876 0.04008326 -0.017562857 0.20453122 0.17365807
-0.036286063 -0.20614314 0.07798368 -0.1991611 0.13847412 -0.019533627 -0.10433896 0.012623865
-0.0519632 -0.09468394 -0.14847305 0.003055037 0.19616377 0.23602603 0.06337934 0.1467266
00000000: bdae 25b9 bff2 c93b 134d 82bd 003c 52bd
00000010: cc55 13be 119c 1b3e 21b1 20be 71eb 39bd
00000020: d5d0 10bd 83a0 0fbe 529c e6bd 5993 b13c
00000030: cba0 a2bd 0606 62be 1481 643e 4234 8abe
00000040: e4f6 4f3d ba51 4ebc ed74 643d b22a 2dbe
00000050: c647 8a3c 3bb2 23bc 9137 e63d 4bbe aebd
00000060: 3808 d7bd 3ba8 a73d 607f 303d 079c 09be
00000070: 58ee 35be 2501 d1bd 67ab e9bd 12dc e3bd
00000080: 5abf a3bd 8192 8dbc 9dc8 903d b564 cebd
00000090: 47da 5fbe 6ec8 21be 971f c1bd 772c 613d
000000a0: c3c8 65be 07ab c8bd 2b3f aabd cff1 d2bb
000000b0: db30 1dbe 86fa 793e 29de a33b a4e6 b2bd
000000c0: 724d 5bbe 1779 5ebe 4e83 3a3d 565d b8bd
000000d0: e7b7 aa3d 5e55 be3c 3afe 8d3d 5c2a a93d
000000e0: 52d2 c4bd d81a 1dbe a48d 0e3d 9d36 4bbe
000000f0: e4c0 c13d 3472 4a3e 245e 0dbe 9c80 233d
00000100: 0a29 643d 6afd 36be 849d 813d 96ba ad3d
00000110: c186 7f3d adcd 023e 12a6 133d 527a 913e
00000120: e35b 113d 7374 e93d 9926 adbd 7165 f3bd
00000130: d639 4e3e 0de5 ec3c 26cf 453e 749d 0ebe
00000140: 39c1 993e 6f0b a6bd 082a 8c3d cbce 043e
00000150: 84e5 a1bd 38cc f1bd 33a6 013d be9e af3d
00000160: 6e55 c23e 07dc 913d 0180 b73c 2619 02be
00000170: 49ec 2b3e 4941 8d3e a402 6cbe ddb2 783d
00000180: b3c3 98bd 8ba5 b53c 2d92 3ebc 6bd4 d53d
00000190: 0d14 033d 6205 1f3e 0346 56bd cec6 153e
000001a0: 337b 6ebd 320e 893d ef6d 10be ffdd 383e
000001b0: 05ee 6f3d 5676 303e 6771 fd3e ffac 163e
000001c0: 1cad 05be e46e 2abe ff1a f63c 7bac 753d
000001d0: a96a 1a3e dd44 763c 1b1b 083e 9021 0cbd
000001e0: cc8e ef3d dc57 353c c38a 7fbd 3a4e 5dbd
000001f0: acab a8ba 2079 ca3d 6478 c03d 2ba6 983d
00000200: 9a5b a43d a317 02be 1144 9d3c e8ce a33d
00000210: 0d47 37bd 65d1 4e3d 37a5 713c 9842 72bd
00000220: e106 0abe dc90 273e 46ec bc3d 0669 bfbc
00000230: 651b f6bd 2955 cbbd 9f27 10be 98da 0abe
00000240: 1c19 fb3d ef02 09be 4e17 2bbc 0182 c1bd
00000250: b3e6 01be a8aa 23bd 03b3 1a3e 4edf e93d
00000260: 98cf edbc 86bf 9dbd 6ddd e8bc 78ff d0bd
00000270: a472 963c 8545 b73d e556 bd3c b424 4fbc
00000280: f874 f6bc f291 233e 5050 10be 8386 043e
00000290: f3f4 da3d 6241 143e 9587 17be 3b04 debd
000002a0: 1798 4ebd 5e2a c9bd a222 b63d 4032 f9bd
000002b0: 1cee b33c 4635 92bd 75d2 bdbd bfd4 0abc
000002c0: ea19 36bd 9dac c7bc 4b58 18bd 3ab6 57be
000002d0: a95f 0abd f0f7 7b3d 9fd4 ddbd 5260 ecbd
000002e0: b53e ae3d 8ffc bfbd e309 debd 3b8f 82bd
000002f0: 18ca 0a3e 7d45 0ebe 07bc c23d 8664 8fbd
00000300: c55c a5bd ab56 11bb e789 7bbd d440 0bbd
00000310: 28c8 ec3d a8e6 b13d f2ca b93d a41f 273e
00000320: 3e05 9d3d b4dd aa3d aa8d acbc a05a 613d
00000330: ad4a 42be abca 373e 7631 7abc 2eb9 84be
00000340: a856 f4bd 04ce ecbd fb5f bebd 5b74 6e3e
00000350: db2c 2e3d 2c30 70bd 0c61 873e 3112 d4bc
00000360: 1bd8 3e3e f886 1d3d b2b5 133e 7ca1 d9bd
00000370: b93d 00bc 2523 b23c 04bd 0abd fd30 bfbd
00000380: a470 c0bc 8643 31be 7634 abbd 4e8c a0bd
00000390: 406a 6cbe f355 a43d d310 bd3c 4f4e d9ba
000003a0: f8c4 30be 7a4d 243e faf1 163d 345a 77bd
000003b0: 582e 243d fbdf 8fbc a270 513e 6cd3 313e
000003c0: b2a0 14bd 3017 53be e8b5 9f3d e3f0 4bbe
000003d0: 29cc 0d3e fc04 a0bc aaaf d5bd 54d4 4e3c
000003e0: 5dd7 54bd a7e9 c1bd 5209 18be 0437 483b
000003f0: 28df 483e cfb0 713e 07cd 813d 7f3f 163e

lstm1.bias_hh_l0 f4 [256]
-0.0070312233 -0.035151776 0.0011683487 0.05488562 0.03131123 0.11804647 0.018569557 -0.17620108
-0.10282613 -0.084432445 -0.066307604 0.089316525 -0.08123428 -0.079108536 0.054938097 -0.1538647
0.00011302591 -0.0048522116 0.02961446 -0.03431515 0.111976996 -0.08732178 0.20924726 0.006846673
-0.20481455 -0.04744313 0.06573487 -0.04259627 -0.0015545244 -0.09700929 -0.079482175 -0.058163803
-0.053692155 -0.19225891 0.05901236 -0.13550878 -0.2463443 -0.18428639 -0.022171013 0.04664777
-0.18409021 -0.014841182 -0.07717699 0.032291614 0.024256388 0.14179398 -0.13400204 -0.021372467
-0.23977013 -0.22028048 0.016240548 -0.11379926 0.06676007 0.036996726 0.036263324 0.052038867
-0.10709895 0.024610985 0.06568843 -0.20156188 -0.08313686 0.19849895 0.006456238 -0.023246257
0.23834334 -0.17989965 0.078534424 -0.030867048 0.038113337 0.14830172 -0.05682985 0.46167555
-0.031194761 0.10678972 -0.039043635 0.04719638 0.02669219 0.1526833 0.13665885 -0.15360954
0.19782323 -0.18100818 -0.09579091 0.048737343 0.04582068 -0.06250634 -0.05285584 0.21579419
0.33149046 -0.05016843 -0.00059223524 -0.0710715 0.29603544 0.16027835 -0.14113429 -0.06461425
-0.041369766 -0.06641456 0.06563884 0.079810396 -0.095520735 -0.03388233 -0.087495476 0.25835025
-0.10551174 0.01017157 0.006713462 0.30443278 -0.055700816 0.09060724 0.51889956 0.28496376
0.02239129 -0.18917264 0.11072954 -0.028338596 0.16413811 0.18459527 0.083971 0.11778888
0.13569579 -0.03572443 0.006857626 0.07676053 -0.0767323 0.03803495 0.10463495 0.02937553
0.05317549 -0.10186614 -0.06653152 0.021621978 -0.06368658 0.17828636 0.00022223461 -0.06182582
-0.01621447 0.124763235 -0.05243771 0.02844087 -0.053486854 -0.018096246 -0.09988631 -0.044732172
0.043792132 -0.13194153 -0.032758795 0.0302053 -0.053532023 -0.11186294 0.11403087 0.0977354
-0.113980286 0.10384481 -0.11127966 -0.05921544 -0.07653476 0.08835283 -0.19069928 0.10001792
-0.065385915 0.14672707 -0.1926276 0.11257357 -0.04032232 0.010809584 -0.040647905 -0.026955537
-0.04622604 -0.07757814 -0.08574912 -0.12091489 -0.09082819 -0.16446665 -0.16145702 0.05386179
0.017387062 -0.14168999 -0.03817338 -0.11056191 -0.07118734 -0.1060399 -0.13811898 -0.1244321
0.12981574 -0.08922427 -0.15365349 0.0024869086 0.01732028 -0.09028902 0.018601963 -0.098764226
0.06417448 -0.017798107 -0.0492476 0.04070962 0.09840352 0.016880972 0.07973887 0.23337254
0.25495085 -0.08133205 -0.033546925 0.0025450876 0.0027635463 0.31143796 0.082057744 -0.26244038
0.084410086 -0.14738542 -0.14027241 0.261384 0.0016018682 0.0046820194 0.14846492 -0.12540278
0.08060094 -0.02329802 0.3510147 -0.116119884 0.024747718 -0.11882827 -0.15061018 0.009286413
-0.07264351 -0.17594068 -0.06114669 -0.105320804 -0.06331581 0.022141187 -0.040860623 0.0023809029
-0.01575192 0.10721342 0.052267943 0.14105605 0.011770798 0.057655998 0.043575056 0.07961528
-0.058508698 0.020436589 0.05383606 -0.2079737 -0.0063940976 -0.014095343 -0.023741424 0.08012379
-0.1688864 -0.083727345 0.041153017 0.1551014 0.114843726 0.28015777 0.094927095 -0.068672895
00000000: 2d66 e6bb 4ffb 0fbd 4723 993a becf 603d
00000010: 3440 003d 59c2 f13d 2f1f 983c 0e6e 34be
00000020: 8296 d2bd ebea acbd 48cc 87bd 95eb b63d
00000030: 285e a6bd a803 a2bd c506 613d b58e 1dbe
00000040: 5308 ed38 4dff 9ebb 069a f23c 0b8e 0cbd
00000050: 3254 e53d c3d5 b2bd ea44 563e 0e5a e03b
00000060: e8ba 51be ba53 42bd 01a0 863d 6d79 2ebd
00000070: 2fc1 cbba ceac c6bd 8dc7 a2bd 2b3d 6ebd
00000080: 4eec 5bbd 85df 44be f2b6 713d d0c2 0abe
00000090: ae41 7cbe 92b5 3cbe fc9f b5bc bb11 3f3d
000000a0: 2582 3cbe 6e28 73bc f80e 9ebd 3644 043d
000000b0: 55b5 c63c 7132 113e d537 09be 5015 afbc
000000c0: 4d86 75be 3591 61be e60a 853c 960f e9bd
000000d0: 81b9 883d e189 173d da88 143d b526 553d
000000e0: b256 dbbd fa9c c93c a887 863d 3d66 4ebe
000000f0: a843 aabd 4f43 4b3e da8e d33b ef6e bebc
00000100: 4710 743e 9d37 38be a8d6 a03d e4dc fcbc
00000110: bb1c 1c3d 68dc 173e 6bc6 68bd bd60 ec3e
00000120: 288c ffbc 92b4 da3d 38ec 1fbd fe50 413d
00000130: 94a9 da3c 0359 1c3e 4cf0 0b3e d24b 1dbe
00000140: 2c92 4a3e 355a 39be 062e c4bd cfa0 473d
00000150: 77ae 3b3d 5303 80bd 5e7f 58bd 27f9 5c3e
00000160: 1eb9 a93e 697d 4dbd 3c40 1bba ef8d 91bd
00000170: f591 973e 0220 243e 8285 10be 7a54 84bd
00000180: 5873 29bd 5b04 88bd a86d 863d a273 a33d
00000190: 60a0 c3bd 33c8 0abd d430 b3bd 7c46 843e
000001a0: 8a16 d8bd a8a6 263c 9afc db3b 9dde 9b3e
000001b0: 8a26 64bd 4a90 b93d 9ad6 043f c5e6 913e
000001c0: f06d b73c 79b6 41be 2bc6 e23d 5826 e8bc
000001d0: d213 283e 8b06 3d3e fdf8 ab3d 4c3b f13d
000001e0: d6f3 0a3e c853 12bd f0b5 e03b a034 9d3d
000001f0: d325 9dbd 89ca 1b3d d94a d63d f4a4 f03c
00000200: 8bce 593d 329f d0bd ad41 88bd 9320 b13c
00000210: 1c6e 82bd b390 363e a607 6939 123d 7dbd
00000220: 35d4 84bc de83 ff3d edc8 56bd d4fc e83c
00000230: 0815 5bbd 943e 94bc 3291 ccbd 1539 37bd
00000240: 615f 333d ae1b 07be 162e 06bd 1b71 f73c
00000250: 6544 5bbd 6618 e5bd 0489 e93d 7f29 c83d
00000260: 7f6e e9bd 96ac d43d 97e6 e3bd e48b 72bd
00000270: 42be 9cbd 54f2 b43d ac46 43be 32d6 cc3d
00000280: 0de9 85bd 9f3f 163e 2b40 45be f98c e63d
00000290: 0429 25bd ae1a 313c 6b7e 26bd dcd1 dcbc
000002a0: 8457 3dbd 4ae1 9ebd 3c9d afbd 3aa2 f7bd
000002b0: 2104 babd f269 28be fd54 25be 2e9e 5c3d
000002c0: 506f 8e3c 2e17 11be b15b 1cbd 486e e2bd
000002d0: abca 91bd 722b d9bd 106f 0dbe 42d6 febd
000002e0: 6bee 043e 37bb b6bd 5757 1dbe 67fb 223b
000002f0: 43e3 8d3c 73e9 b8bd 2563 983c e644 cabd
00000300: e96d 833d 56cd 91bc dab7 49bd 21bf 263d
00000310: c987 c93d f749 8a3c 224e a33d 36f9 6e3e
00000320: eb88 823e 6b91 a6bd 8068 09bd 7ccb 263b
00000330: 9d1c 353b cc74 9f3e e40d a83d 965e 86be
00000340: 32df ac3d 34ec 16be 92a3 0fbe 20d4 853e
00000350: c7f5 d13a a06b 993b 3007 183e 9669 00be
00000360: 1b12 a53d 7ddb bebc 33b8 b33e 43d0 edbd
00000370: babb ca3c 3c5c f3bd 8e39 1abe 0a26 183c
00000380: 1fc6 94bd cb29 34be f474 7abd 6fb2 d7bd
00000390: b8ab 81bd 6f61 b53c 785d 27bd ec08 1c3b
000003a0: 2c0a 81bc b692 db3d e916 563d ff70 103e
000003b0: 4eda 403c b228 6c3d c27b 323d 560d a33d
000003c0: d1a6 6fbd a26a a73c 3383 5c3d 0ff7 54be
000003d0: 9485 d1bb 27f0 66bc 607d c2bc f117 a43d
000003e0: 8ef0 2cbe 3e79 abbd 1190 283d e7d2 1e3e
000003f0: 3033 eb3d d770 8f3e 2369 c23d 60a4 8cbd

lstm2.weight_ih_l0 f4 [128, 64]
-0.037171032 0.0048799226 -0.20683017 0.23308508 -0.047719814 0.10746598 0.2641545 0.10097255
0.05990719 0.141994 -0.037439056 -0.1144521 -0.025219882 -0.09826798 -0.0017088663 -0.22790976
-0.029954413 0.033232816 -0.116037264 -0.1398083 0.09594344 -0.21354605 -0.17025483 0.12328647
0.14260258 -0.17297073 0.05206365 0.01585915 0.25582644 0.0013262014 -0.0010723178 -0.1435242
-0.24713476 0.08981937 -0.09005441 0.13786454 -0.025417507 -0.10608835 0.13953377 0.11292728
-0.17986803 -0.24612401 0.046660118 -0.10935108 -0.0034342273 -0.29102698 -0.2976444 0.4958238
0.09604469 0.10729111 0.024228184 0.1403798 -0.03334856 -0.054902337 -0.023920145 -0.09810236
0.019859191 -0.2640182 0.10081632 -0.07990116 -0.16338964 0.15164058 0.12612341 -0.055263374
-0.074407704 -0.39631426 -0.07731863 -0.15714486 -0.33773002 0.15257849 -0.06933039 0.1710871
-0.074577235 0.32767272 0.15125325 0.02905382 0.18556644 -0.05565893 -0.019967576 0.06907632
-0.12821874 -0.18875772 -0.00904081 -0.0162474 -0.05750708 -0.18742013 0.4250797 0.18512951
-0.13558243 -0.16122833 0.06427832 -0.059184346 0.06439253 -0.03577682 -0.07696895 0.02540408
0.03545252 -0.13391078 -0.21328646 0.0029980177 0.1334947 -0.075926065 -0.25086358 0.0015481501
-0.45645106 0.072902344 0.2370524 0.026438417 0.009734391 -0.38978133 -0.020193871 0.38369226
-0.22685617 -0.3173649 0.12138479 -0.16231516 0.024046548 0.045005422 0.15205398 -0.07516785
0.16523395 -0.19888638 0.09610938 -0.21755381 0.1519314 -0.33511418 -0.44440553 0.32823253
0.105548255 -0.04805266 0.11480295 0.37899104 0.0446581 -0.13694803 0.046868823 -0.1142443
0.20334722 -0.1229667 -0.11061048 -0.22117399 -0.104104966 -0.26725802 -0.08052636 0.10852379
-0.0030195026 0.3773465 -0.3442009 -0.14602676 0.10504903 -0.08850457 -0.21512522 0.04051472
0.070866965 -0.31984288 0.22975841 0.1986367 0.16314676 0.034797765 0.08668008 -0.16061524
-0.303451 0.210448 -0.026318112 0.11678014 0.117066294 -0.07879664 0.1966285 0.14407197
-0.18722917 0.17538896 0.005462167 -0.049659785 -0.0468515 -0.08841035 0.17883644 -0.30266404
0.23668881 0.038482867 -0.0072512114 0.14805666 0.119497344 -0.10527175 0.14828266 -0.07505729
0.11310662 -0.5247834 -0.18974307 -0.09582752 -0.36489096 0.17313138 0.2689205 -0.006639128
0.026579676 0.06714954 -0.034995977 -0.2029765 0.07472679 -0.039282806 -0.09845887 -0.15345071
0.020064749 -0.03147301 -0.10884916 -0.16947328 -0.13050456 -0.003939366 -0.12916821 0.24862263
-0.122552976 0.11995864 -0.023800615 -0.06392533 -0.043148346 0.31193605 -0.028563702 0.12004147
0.15446451 -0.17536727 0.081388265 0.23480064 -0.07346331 -0.05338798 0.110248 0.06403229
0.29813135 0.031097326 -0.009752431 0.017795384 0.40567067 -0.23649791 0.018090842 -0.09125476
0.0017747567 0.2611443 -0.21578884 -0.07067412 -0.045004085 0.14551948 0.036805905 -0.116170466
0.068653844 -0.078126065 0.19674993 0.009890495 -0.044108238 0.20039962 -0.15750715 0.0065255566
0.03061011 -0.20174873 0.14650191 0.19977406 -0.14861798 -0.187878 0.048858516 -0.21788497
00000000: a740 18bd c2e7 9f3b 4acb 53be dbad 6e3e
00000010: da75 43bd 2017 dc3d 423f 873e b2ca ce3d
00000020: 3e61 753d e066 113e b259 19bd dd65 eabd
00000030: ed99 cebc b940 c9bd 0afc dfba 2d61 69be
00000040: f562 f5bc 221f 083d f2a4 edbd e829 0fbe
00000050: ff7d c43d d1ab 5abe 4857 2ebe 9e7d fc3d
00000060: 6906 123e 3d1f 31be b240 553d 0ceb 813c
00000070: affb 823e efd3 ad3a 048d 8cba 02f8 12be
00000080: e510 7dbe 38f3 b73d 726e b8bd 5d2c 0d3e
00000090: 6038 d0bc d944 d9bd f1e1 0e3e 6b46 e73d
000000a0: 532f 38be ef07 7cbe ae1e 3f3d 76f3 dfbd
000000b0: c610 61bb 7d01 95be d964 98be 9edc fd3e
000000c0: 14b3 c43d 71bb db3d 2f7a c63c b9bf 0f3e
000000d0: 8098 08bd 46e1 60bd 2ef4 c3bc e4e9 c8bd
000000e0: beaf a23c 652d 87be c978 ce3d 38a3 a3bd
000000f0: 9d4f 27be ab47 1b3e 7f26 013e d95b 62bd
00000100: 1163 98bd b4e9 cabe 3b59 9ebd 95ea 20be
00000110: f3ea acbe 893d 1c3e 17fd 8dbd 7531 2f3e
00000120: f3bb 98bd b8c4 a73e 22e2 1a3e 4702 ee3c
00000130: 2105 3e3e 9efa 63bd 0b93 a3bc e377 8d3d
00000140: c64b 03be b449 41be e81f 14bc 4419 85bc
00000150: 8b8c 6bbd 10eb 3fbe 0ca4 d93e 9792 3d3e
00000160: 1fd6 0abe 0a19 25be 5aa4 833d 496b 72bd
00000170: 3be0 833d b78a 12bd e6a1 9dbd 381c d03c
00000180: a936 113d e81f 09be c467 5abe 647a 443b
00000190: d6b2 083e 207f 9bbd 3171 80be 4ceb ca3a
000001a0: f4b3 e9be d34d 953d ddbd 723e 6195 d83c
000001b0: ff7c 1f3c 6b91 c7be 9e6d a5bc 5073 c43e
000001c0: fc4c 68be a77d a2be 9798 f83d f235 26be
000001d0: 44fd c43c 9b57 383d 0ab4 1b3e 9af1 99bd
000001e0: 1733 293e dfa8 4bbe ffd4 c43d 6dc6 5ebe
000001f0: e893 1b3e 1694 abbe 1f89 e3be 180e a83e
00000200: af29 d83d ded2 44bd cf1d eb3d 1d0b c23e
00000210: 69eb 363d 1b3c 0cbe 86f9 3f3d eaf8 e9bd
00000220: 413a 503e f7d5 fbbd bf87 e2bd 6f7b 62be
00000230: fc34 d5bd 0bd6 88be 01eb a4bd b941 de3d
00000240: d9e2 45bb 8f33 c13e 1a3b b0be 0a88 15be
00000250: f223 d73d e241 b5bd c949 5cbe c3f2 253d
00000260: b322 913d 72c2 a3be ca45 6b3e 6b67 4b3e
00000270: f20f 273e 1a88 0e3d 5385 b13d 5278 24be
00000280: ee5d 9bbe ae7f 573e 1599 d7bc 6d2a ef3d
00000290: 74c0 ef3d 2260 a1bd fb58 493e 9a87 133e
000002a0: 01b9 3fbe 2a99 333e fafb b23b 0f68 4bbd
000002b0: 5ce7 3fbd 7c10 b5bd e620 373e c8f6 9abe
000002c0: 8d5e 723e 36a0 1d3d 929b edbb 2a9c 173e
000002d0: 06bb f43d b798 d7bd 69d7 173e a3b7 99bd
000002e0: 72a4 e73d 3458 06bf 024c 42be 3841 c4bd
000002f0: fdd2 babe 5a49 313e f3af 893e 0b8d d9bb
00000300: 9fbd d93c b385 893d f157 0fbd 12d9 4fbe
00000310: 5c0a 993d 02e7 20bd cea4 c9bd 2f22 1dbe
00000320: d45e a43c d8e9 00bd 4fec debd 678a 2dbe
00000330: fda2 05be cc15 81bb ac44 04be ee96 7e3e
00000340: 0efd fabd e0ac f53d 82f9 c2bc 49eb 82bd
00000350: 52bc 30bd 15b6 9f3e 6dfe e9bc 4dd8 f53d
00000360: f22b 1e3e 7a93 33be e4ae a63d 946f 703e
00000370: ef73 96bd 5bad 5abd b4c9 e13d 5c23 833d
00000380: aca4 983e d2bf fe3c a9c8 1fbc a0c7 913c
00000390: 11b4 cf3e 822c 72be 3f33 943c c7e3 babd
000003a0: f49e e83a b5b4 853e c0f7 5cbe 98bd 90bd
000003b0: 3456 38bd 0f03 153e cac1 163d c8ea edbd
000003c0: 639a 8c3d 8f00 a0bd d078 493e be0b 223c
000003d0: d7aa 34bd 8f35 4d3e 8e49 21be 56d4 d53b
000003e0: 0ec2 fa3c 3897 4ebe 9904 163e 9291 4c3e
000003f0: 502f 18be 1763 40be de1f 483d 3d1d 5fbe

lstm2.weight_hh_l0 f4 [128, 32]
-0.19671912 -0.34337592 -0.03281775 0.35118902 0.13713181 -0.07373485 -0.5677164 -0.16818893
-0.08648009 0.059005756 -0.30044636 -0.08736368 -0.12463666 0.16004416 0.05282178 -0.4877348
-0.0096675875 0.061825577 -0.016299969 0.029938787 0.111460544 -0.1626876 -0.18683524 0.22337814
0.12595446 -0.09997556 -0.12314817 -0.15000083 -0.40797153 0.08553097 -0.20020631 0.0068089454
-0.48914725 -0.053610507 0.07385653 -0.1251357 0.08363175 -0.032988545 -0.08231348 -0.11070733
-0.12190234 -0.21601665 0.037264694 0.057947356 0.14358668 0.23943794 0.040342513 -0.16212623
0.31575692 0.36399665 -0.21012355 0.045831725 0.029962474 -0.17071295 -0.27703398 0.2749638
0.13479549 -0.07668927 -0.17948854 -0.046352424 -0.2796399 -0.30063924 -0.122374676 -0.09615124
0.07713353 0.22691646 -0.2763025 -0.28293034 -0.00013338332 -0.25010067 0.27884668 0.063590705
-0.22717264 0.019645225 -0.2746942 -0.009238631 0.19992734 -0.26045796 0.10048919 0.294153
0.10361861 -0.21475247 0.08947732 0.023033487 -0.0059556896 0.02392637 0.19711465 0.14241503
-0.35175934 0.09320358 -0.1102737 0.15674512 0.11904691 -0.029881708 -0.04923361 0.1990793
0.10294446 -0.112613186 -0.008939515 0.15708262 -0.1381059 0.4092371 -0.17654695 -0.117303826
0.3596445 0.20439588 0.13040973 -0.03359255 -0.21664254 -0.050320283 0.0025876798 -0.07857522
0.03345485 0.119942985 0.06219631 0.02829846 -0.0882534 -0.13479613 -0.25226936 -0.05287079
0.049258176 -0.104569264 0.0245104 -0.07928718 -0.06318902 -0.067299 -0.11460832 -0.2223897
0.15493806 -0.124088675 -0.12303308 0.20296924 0.07063499 -0.290143 0.029232213 -0.08612342
-0.42400548 -0.040158466 0.2738673 0.22199951 -0.21448588 -0.47644067 0.10625557 0.23940583
0.22993761 -0.12862007 0.082148865 -0.1391246 -0.18985845 -0.01415694 0.003455531 -0.68118674
-0.25875115 0.21018505 0.056550927 0.065863945 0.045429543 -0.056323897 -0.05632959 0.2928339
0.13342313 0.04347617 -0.15480617 -0.004236952 -0.21076919 0.020353831 -0.023317076 -0.04778541
-0.21886419 0.04611714 -0.20998217 -0.31609705 -0.54127413 0.15465005 0.22091536 -0.060429968
0.13256289 -0.101057716 -0.2555437 -0.5678787 -0.14567734 -0.13459554 -0.17200336 -0.08856006
0.21900088 0.30265152 -0.39901865 -0.19789347 -0.10072109 0.09944874 -0.41916826 -0.049073543
-0.16621782 -0.10300191 0.051335316 -0.024271298 -0.19454479 -0.24178976 -0.3261999 0.25964424
-0.20008753 -0.0771224 0.03370687 -0.07069416 -0.063637994 -0.18449514 0.091667406 0.29020938
-0.2296472 -0.11227166 -0.09218324 0.21387263 0.09772128 -0.26843557 -0.109262064 0.06675043
0.36741385 -0.10672111 0.3042192 -0.37440977 0.2255829 0.10277173 0.24284522 0.033092145
0.23562004 0.1378541 -0.10466799 -0.08024432 -0.06442856 0.0131905805 0.1616196 0.23991165
-0.5159676 0.045055676 0.12956767 0.20581578 -0.08958613 -0.017907403 0.072355255 0.10833952
-0.084775634 -0.16112258 -0.009940241 -0.019936185 -0.3707508 0.002744292 -0.10210135 -0.5708518
-0.15370852 0.475615 0.0063249203 0.29359055 0.39728564 -0.16350132 -0.049819883 -0.010202781
00000000: bd70 49be f8ce afbe e86b 06bd 0ccf b33e
00000010: 486c 0c3e 4c02 97bd dd55 11bf b839 2cbe
00000020: 791c b1bd 05b0 713d 1bd4 99be bbeb b2bd
00000030: 8141 ffbd 9ee2 233e a75b 583d 60b8 f9be
00000040: cd64 1ebc d13c 7d3d 8387 85bc 3042 f53c
00000050: 6d45 e43d 9497 26be bd51 3fbe 3dbd 643e
00000060: 35fa 003e fdbf ccbd 1c35 fcbd d199 19be
00000070: a5e1 d0be dc2a af3d e202 4dbe 931d df3b
00000080: 8271 fabe b196 5bbd 1842 973d 9323 00be
00000090: 1f47 ab3d ff1e 07bd f893 a8bd 86ba e2bd
000000a0: efa7 f9bd 7833 5dbe dda2 183d 355a 6d3d
000000b0: 6308 133e 382f 753e 313e 253d 6b04 26be
000000c0: e4aa a13e c55d ba3e a12a 57be 0cba 3b3d
000000d0: dd73 f53c 60cf 2ebe 66d7 8dbe 0ec8 8c3e
000000e0: d407 0a3e 440f 9dbd d8cb 37be 0adc 3dbd
000000f0: f62c 8fbe 63ed 99be 939f fabd f1ea c4bd
00000100: 2ff8 9d3d ca5c 683e 8577 8dbe 3fdc 90be
00000110: d0dc 0bb9 320d 80be fec4 8e3e d83b 823d
00000120: f29f 68be 06ef a03c b8a4 8cbe a15d 17bc
00000130: c1b9 4c3e bf5a 85be 47cd cd3d 399b 963e
00000140: fe35 d43d 12e8 5bbe e33f b73d b9b0 bc3c
00000150: f227 c3bb 3c01 c43c 6cd8 493e 3fd5 113e
00000160: cd19 b4be 85e1 be3d 2dd7 e1bd cb81 203e
00000170: dece f33d 7cca f4bc 2fa9 49bd 72db 4b3e
00000180: 8cd4 d23d bea1 e6bd 0b77 12bc 44da 203e
00000190: a26b 0dbe 8687 d13e b9c8 34be fd3c f0bd
000001a0: 5323 b83e 274d 513e 218a 053e 5798 09bd
000001b0: 8bd7 5dbe a41c 4ebd 1096 293b 0cec a0bd
000001c0: f407 093d aba4 f53d 8fc1 7e3d 2cd2 e73c
000001d0: 33be b4bd ff07 0abe 7329 81be 0b8f 58bd
000001e0: f1c2 493d 6928 d6bd 09ca c83c 5161 a2bd
000001f0: 3f69 81bd 0fd4 89bd c4b7 eabd 20ba 63be
00000200: 15a8 1e3e 3422 febd c4f8 fbbd 2bd7 4f3e
00000210: 14a9 903d a08d 94be 6578 ef3c 7a61 b0bd
00000220: 3f17 d9be 347d 24bd 5638 8c3e d753 633e
00000230: 30a2 5bbe 08f0 f3be 859c d93d cd26 753e
00000240: c474 6b3e fbb4 03be aa3d a83d ae76 0ebe
00000250: 416a 42be 83f2 67bc 3176 623b 4162 2ebf
00000260: 087b 84be c03a 573e f2a1 673d ade3 863d
00000270: 5414 3a3d e3b3 66bd dbb9 66bd 53ee 953e
00000280: 13a0 083e 1214 323d 8285 1ebe 21d6 8abb
00000290: e1d3 57be 14bd a63c 7403 bfbc a2ba 43bd
000002a0: ef1d 60be 54e5 3c3d 9105 57be 79d7 a1be
000002b0: f190 0abf 955c 1e3e a337 623e 6a85 77bd
000002c0: 91be 073e 59f7 cebd a0d6 82be 8060 11bf
000002d0: 712c 15be 6ad3 09be a621 30be fa5e b5bd
000002e0: c441 603e 24f5 9a3e 2c4c ccbe 96a4 4abe
000002f0: dc46 cebd c8ab cb3d 399d d6be 5701 49bd
00000300: 0135 2abe aaf2 d2bd fb44 523d 9ad4 c6bc
00000310: c036 47be bc97 77be ac03 a7be 17f0 843e
00000320: bfe3 4cbe 59f2 9dbd 3710 0a3d 1ac8 90bd
00000330: a354 82bd 4bec 3cbe 1fbc bb3d 5396 943e
00000340: a328 6bbe afee e5bd 91ca bcbd 6d01 5b3e
00000350: 1822 c83d 6370 89be cac4 dfbd 73b4 883d
00000360: ab1d bc3e 9990 dabd 9ec2 9b3e a3b2 bfbe
00000370: 34ff 663e fc79 d23d 6bac 783e a18b 073d
00000380: 6146 713e a029 0d3e 2c5c d6bd 2257 a4bd
00000390: 1ff3 83bd 4e1d 583c 9c7f 253e 66ab 753e
000003a0: 7416 04bf 4d8c 383d 63ad 043e 5fc1 523e
000003b0: ef78 b7bd 8cb2 92bc fe2e 943d 1ce1 dd3d
000003c0: d99e adbd 51fd 24be 65dc 22bc 3651 a3bc
000003d0: 0dd3 bdbe 94d9 333b 831a d1bd 5823 12bf
000003e0: c465 1dbe cf83 f33e 4741 cf3b 8051 963e
000003f0: 0669 cb3e e46c 27be ef0f 4cbd 9129 27bc

lstm2.bias_ih_l0 f4 [128]
0.09156449 0.16531475 -0.14362079 0.18210799 0.09952351 0.21930559 0.06752989 -0.08295703
-0.019906433 0.10943136 -0.043005224 -0.19608109 -0.056904014 -0.13709664 -0.14745387 -0.088262565
-0.15242472 0.049715437 -0.027101148 -0.016041063 0.23095953 0.1997799 -0.20258754 0.035389446
0.21930021 0.013886776 -0.14831717 0.2845172 -0.1489935 0.23747417 -0.14510788 -0.014861846
0.4032781 0.110575184 0.16005366 0.23560771 0.055783745 0.26188436 0.23110521 0.12675044
0.20659408 0.25168896 0.117327034 0.44910908 0.2674098 0.37747458 0.3578379 0.08173503
0.3899859 0.037895408 -0.0068817833 0.16226032 0.20831315 0.19534288 -0.04468385 0.09922612
0.41652957 0.14856416 -0.05848318 0.23260272 0.11598818 0.2515141 0.026990158 0.05698643
0.11207408 0.0760355 0.028822856 -0.08196933 0.13795562 0.16235514 -0.1847642 0.12509757
-0.0598231 0.20505929 0.06110305 0.09408715 -0.06015542 -0.12819019 -0.17220458 -0.08952516
0.032191835 0.14515375 -0.07975044 -0.0069050454 0.09788938 -0.08997482 -0.038831793 -0.08850334
0.1748258 0.018895851 -0.040833075 -0.18767314 -0.06302537 -0.01803907 -0.18668887 -0.11409052
-0.19458422 0.16833776 -0.17504632 0.3057353 0.15735763 0.040859893 0.033980306 -0.057272002
0.127734 0.26414782 0.068117075 0.15773937 0.20144497 -0.106802985 -0.122340955 0.3007925
-0.27526382 0.09906782 0.36086357 0.16776377 0.34406993 0.17166053 -0.11904045 0.3181364
0.08997131 0.13984463 0.10858705 0.14985631 -0.21809939 0.12930025 0.35117093 0.19111222
00000000: 2a86 bb3d 4548 293e 5411 13be 847a 3a3e
00000010: fbd2 cb3d a591 603e 1c4d 8a3d 60e5 a9bd
00000020: d112 a3bc 8d1d e03d 3f26 30bd 7bc9 48be
00000030: 2f14 69bd 1063 0cbe 26fe 16be 01c3 b4bd
00000040: 3a15 1cbe 6aa2 4b3d 3a03 debc 8c68 83bc
00000050: a880 6c3e 1a93 4c3e 1c73 4fbe 86f4 103d
00000060: 3c90 603e 5c85 633c 75e0 17be 3dac 913e
00000070: c191 18be 6e2c 733e 2997 14be 1a7f 73bc
00000080: 787a ce3e 3e75 e23d 1be5 233e 2643 713e
00000090: 7f7d 643d b515 863e d8a6 6c3e deca 013e
000000a0: 668d 533e 60dd 803e 2849 f03d a0f1 e53e
000000b0: f0e9 883e 5944 c13e 8736 b73e b264 a73d
000000c0: 3bac c73e 3738 1b3d 9580 e1bb 9227 263e
000000d0: 0b50 553e f707 483e 6a06 37bd 1037 cb3d
000000e0: 5d43 d53e 3421 183e 0f8c 6fbd 682f 6e3e
000000f0: 368b ed3d 75c6 803e 771a dd3c 9a6a 693d
00000100: 1887 e53d 80b8 9b3d e91d ec3c 89df a7bd
00000110: 3d44 0d3e 6d40 263e d432 3dbe 9419 003e
00000120: 1109 75bd 10fb 513e 3147 7a3d c4b0 c03d
00000130: 8865 76bd 4a44 03be 6656 30be f858 b7bd
00000140: 96db 033d 2fa3 143e 3354 a3bd b843 e2bb
00000150: 3a7a c83d b844 b8bd 160e 1fbd 3d41 b5bd
00000160: 8905 333e 79cb 9a3c 9540 27bd 632d 40be
00000170: 7213 81bd acc6 93bc 5e2b 3fbe 4aa8 e9bd
00000180: 1641 47be bc60 2c3e 583f 33be 5689 9c3e
00000190: 5c22 213e b45c 273d ef2e 0b3d 0c96 6abd
000001a0: b4cc 023e 623e 873e f780 8b3d 6e86 213e
000001b0: 9747 4e3e 86bb dabd e58d fabd 7901 9a3e
000001c0: 61ef 8cbe 12e4 ca3d 1cc3 b83e 44ca 2b3e
000001d0: ef29 b03e c7c7 2f3e 7bcb f3bd c6e2 a23e
000001e0: e142 b83d 6e33 0f3e e362 de3d ef73 193e
000001f0: 7255 5fbe 4967 043e adcc b33e ecb2 433e

lstm2.bias_hh_l0 f4 [128]
-0.15357697 0.15903352 -0.045792565 -0.0696678 -0.01797709 0.15291093 0.16807403 -0.014452887
-0.19784692 -0.14696264 0.04235119 -0.007724351 -0.060287658 0.07971685 -0.26751038 0.11163454
-0.2708794 -0.19089045 -0.0017624453 0.118783005 0.027023125 0.13429931 -0.042025685 -0.115668185
0.042425197 0.036148403 -0.17059061 0.10472854 -0.049160343 0.04143183 -0.24547514 0.052733567
0.42068312 0.10614001 0.3290484 0.20847125 0.2640317 0.19957092 0.25846243 -0.041646585
0.26724577 0.11135633 0.28852102 0.22752625 0.3286018 0.14148396 0.40888202 0.18787886
0.13378015 0.07724876 0.23112914 0.0629313 0.20966318 0.25450155 0.009087609 0.20474751
0.20779328 0.31013733 0.24660459 0.28792092 0.37447938 -0.022097347 0.030787237 0.0081162825
-0.061425112 -0.08937768 0.07744478 0.09941252 0.025588375 0.14962168 0.017144242 0.1213658
-0.08955385 -0.105035126 -0.17732646 0.13565373 0.06974041 -0.026057951 -0.1261928 0.035537623
-0.14559257 0.09113618 -0.050371066 0.1054144 -0.1967728 0.05453348 -0.025898313 -0.037627764
0.21430223 -0.10157532 0.07583582 -0.025452755 -0.07443942 0.24892414 -0.03483614 -0.033003826
-0.049947068 0.11026963 -0.31170022 0.020757014 -0.06728144 0.029028509 0.018213538 0.14205782
0.24995357 -0.013981062 0.056381296 0.13522567 0.19646072 -0.02402068 -0.33219522 0.18666314
-0.15323584 -0.24260451 0.5376138 -0.02418768 0.07187597 0.20159039 -0.03237615 0.1581934
0.109769836 0.10033392 -0.046105966 -0.18882988 0.032968994 0.32775322 0.22541808 -0.05805842
00000000: 4843 1dbe afd9 223e fc90 3bbd fead 8ebd
00000010: b144 93bc af94 1c3e 991b 2c3e cdcb 6cbc
00000020: 6298 4abe 607d 16be 7178 2d3d 8d1c fdbb
00000030: 31f0 76bd 9642 a33d 1ff7 88be a6a0 e43d
00000040: b4b0 8abe c978 43be da01 e7ba 8144 f33d
00000050: 9a5f dd3c c285 093e 2023 2cbd 71e3 ecbd
00000060: 0bc6 2d3d 5910 143d 4eaf 2ebe eb7b d63d
00000070: 5b5c 49bd 6cb4 293d d65d 7bbe 27ff 573d
00000080: c763 d73e ef5f d93d 0879 a83e 7d79 553e
00000090: 2a2f 873e 525c 4c3e 3055 843e 9c95 2abd
000000a0: 70d4 883e ca0e e43d 07b9 933e a4fc 683e
000000b0: 7f3e a83e 2ce1 103e fc58 d13e 5163 403e
000000c0: aafd 083e 9934 9e3d 1ead 6c3e 20e2 803d
000000d0: f2b1 563e 074e 823e 32e4 143c 55a9 513e
000000e0: c3c7 543e 52ca 9e3e ea85 7c3e 5f6a 933e
000000f0: c3bb bf3e 7f05 b5bc 8435 fc3c 28fa 043c
00000100: e698 7bbd a50b b7bd 5e9b 9e3d cb98 cb3d
00000110: b69e d13c 6d36 193e 1572 8c3c a28e f83d
00000120: 0268 b7bd a81c d7bd 1195 35be d0e8 0a3e
00000130: 0fd4 8e3d 7c77 d5bc af38 01be e68f 113d
00000140: 3816 15be 9ba5 ba3d e451 4ebd 81e3 d73d
00000150: cf7e 49be 805e 5f3d b328 d4bc 921f 1abd
00000160: 0b72 5b3e b906 d0bd cf4f 9b3d 4c82 d0bc
00000170: b273 98bd f8e5 7e3e 57b0 0ebd 052f 07bd
00000180: 4c95 4cbd 0bd5 e13d 2c97 9fbe 9d0a aa3c
00000190: daca 89bd 32cd ed3c 8f34 953c 9b77 113e
000001a0: d4f3 7f3e d310 65bc 13f0 663d 9978 0a3e
000001b0: 002d 493e 04c7 c4bc 7e15 aabe 9f24 3f3e
000001c0: dbe9 1cbe 516d 78be 0fa1 093f 3e25 c6bc
000001d0: b533 933d b66d 4e3e db9c 04bd 73fd 213e
000001e0: 02cf e03d df7b cd3d 9cd9 3cbd 9f5c 41be
000001f0: 7f0a 073d 45cf a73e ffd3 663e aace 6dbd

fc.weight f4 [6, 32]
-0.066219136 -0.24796893 -0.053283405 -0.017188335 -0.15177448 0.3461373 -0.026749823 -0.9423312
-0.19635175 0.301886 0.2583388 -0.0633229 -0.24128242 0.41279283 0.27959955 -0.2586478
0.12255365 0.58378404 -0.5094118 -0.5224432 -0.47485548 -0.3375241 -0.8858095 -0.13904057
0.22733137 0.5034803 -0.20386086 -0.15357652 0.07160368 0.1725275 -0.8716818 -0.526825
0.49157313 0.25401753 -0.2052953 -0.22984003 0.017584287 -0.20068243 0.21617639 0.38328463
-0.16574834 0.1356587 0.13839114 0.13001937 0.12809922 -0.34673515 0.23988321 0.41363445
0.7983108 -0.3133906 0.14488488 0.30747846 -0.18834722 0.72341716 0.4194167 -0.3382708
-1.1621995 0.38783163 0.298177 -0.19664259 0.12930043 0.13712297 -0.3626517 0.033408362
0.324156 0.16483182 0.19836581 -0.20596978 0.052453436 0.18741062 0.16967954 0.33298224
-0.63310224 0.07558208 0.0627246 0.13705344 0.20326144 -0.21793322 0.28901717 0.2773659
-0.11270195 -0.28017604 0.116622336 0.37205285 -0.105473176 -0.2897264 0.27744982 -0.23458248
0.35340452 -0.1990802 0.13872209 -0.21646027 0.2712894 0.047810044 0.122223295 0.35773236
-0.062350783 0.5763009 -0.13067283 0.26350614 -0.59249264 -0.93525183 -0.27363092 -0.42942548
0.50863063 -0.12856871 -0.13430168 -0.59722877 -0.09747932 0.10479952 -0.4618519 -0.02120058
0.10124125 0.2267122 -0.51857376 0.046000767 0.44667098 1.0083791 -0.66605085 0.17355038
-0.3276752 -0.14196734 -0.080956325 0.21343778 -0.010830302 0.26833385 0.6283623 0.025399517
0.1036255 -0.38908085 0.37260056 0.16922952 0.23866984 -0.46254367 -0.1833946 0.15638828
-0.6238786 -0.28519666 -0.45116755 0.20490706 0.0013773126 0.115735404 -0.07251605 -0.045989823
-0.313086 -1.1973941 0.14892377 -0.25193295 -0.5581318 -0.17475131 0.1830297 0.095524065
0.14383052 0.089181036 -0.093740754 -0.017949725 -0.20330332 -0.8353568 0.022963293 0.83005375
-0.27923933 -0.36559823 0.30336368 0.15774465 -0.21902728 0.18864606 -0.25561512 0.01685908
0.47516552 0.16180009 0.116046354 0.009975194 -0.07533902 -0.03104207 -0.49002266 -0.22676806
-0.39737427 0.4673655 0.13293234 0.5436963 0.48467493 -0.32133892 -0.117464386 0.62153506
0.16990705 -0.2698899 -0.13257387 0.3000762 -0.4324804 0.28799903 0.5561579 -0.52913904
00000000: e69d 87bd 91eb 7dbe b33f 5abd 8dce 8cbc
00000010: c56a 1bbe e838 b13e 7222 dbbc 9e3c 71bf
00000020: 6f10 49be cd90 9a3e fc44 843e 70af 81bd
00000030: bd12 77be 9559 d33e ac27 8f3e 7c6d 84be
00000040: 68fd fa3d df72 153f d068 02bf d6be 05bf
00000050: 4220 f3be f5cf acbe 69c4 62bf a760 0ebe
00000060: 8ec9 683e 16e4 003f e7c0 50be 2a43 1dbe
00000070: f3a4 923d 0dab 303e 8a26 5fbf 01de 06bf
00000080: 79af fb3e 960e 823e ee38 52be 2f5b 6bbe
00000090: ec0c 903c b27f 4dbe 585d 5d3e e23d c43e
000000a0: efb9 29be 1dea 0a3e 68b6 0d3e cc23 053e
000000b0: 712c 033e 4587 b1be f2a3 753e e5c7 d33e
000000c0: 195e 4c3f bc74 a0be b45c 143e d16d 9d3e
000000d0: 18de 40be de31 393f c9bd d63e d531 adbe
000000e0: f4c2 94bf de91 c63e a8aa 983e ad5c 49be
000000f0: 5567 043e f769 0c3e 7cad b9be 35d7 083d
00000100: c6f7 a53e acc9 283e 6820 4b3e bee9 52be
00000110: 6ad9 563d 92e8 3f3e 79c0 2d3e a67c aa3e
00000120: fd12 22bf c7ca 9a3d c175 803d bd57 0c3e
00000130: c423 503e e329 5fbe 0ffa 933e e702 8e3e
00000140: 48d0 e6bd 3c73 8fbe b1d7 ee3d b67d be3e
00000150: 5202 d8bd 0557 94be e70d 8e3e 6436 70be
00000160: 70f1 b43e aedb 4bbe 2a0d 0e3e c3a7 5dbe
00000170: 72e6 8a3e 77d4 433d 3550 fa3d b228 b73e
00000180: 8963 7fbd 7588 133f 19cf 05be 47ea 863e
00000190: 99ad 17bf aa6c 6fbf 5a19 8cbe a8dd dbbe
000001a0: 9e35 023f 84a7 03be 6186 09be fce3 18bf
000001b0: 3da3 c7bd 21a1 d63d da77 ecbe d7ac adbc
000001c0: 9357 cf3d 3e27 683e 40c1 04bf 4d6b 3c3d
000001d0: 0fb2 e43e 9112 813f 4f82 2abf 31b7 313e
000001e0: 0bc5 a7be e35f 11be 6ecc a5bd 6f8f 5a3e
000001f0: 9471 31bc 0e63 893e 5adc 203f a612 d03c
00000200: 9b39 d43d 9b35 c7be 80c5 be3e 814a 2d3e
00000210: de65 743e 86d2 ecbe cbcb 3bbe 4024 203e
00000220: 82b6 1fbf 4c05 92be 6fff e6be 28d3 513e
00000230: f186 b43a af06 ed3d 4b83 94bd d35f 3cbd
00000240: cf4c a0be 3644 99bf 797f 183e 5bfd 80be
00000250: bae1 0ebf 02f2 32be 236c 3b3e 1fa2 c33d
00000260: 4f48 133e 8ca4 b63d 27fb bfbd 4d0b 93bc
00000270: bf2e 50be f1d9 55bf 841d bc3c 677e 543f
00000280: 75f8 8ebe b12f bbbe 7c52 9b3e d087 213e
00000290: b048 60be 6f2c 413e fcdf 82be 0e1c 8a3c
000002a0: e548 f33e ecae 253e b6a9 ed3d ff6e 233c
000002b0: 584b 9abd f04b febc 40e4 fabe e335 68be
000002c0: a474 cbbe 884a ef3e 6a1f 083e ae2f 0b3f
000002d0: 5027 f83e 8986 a4be 2b91 f0bd ec1c 1f3f
000002e0: 1dfc 2d3e 022f 8abe 72c1 07be 96a3 993e
000002f0: 126e ddbe 9c74 933e 5d60 0e3f a875 07bf

fc.bias f4 [6]
-0.30252466 -0.0014515676 0.5896405 -0.5867182 -0.087181315 -0.18588959
00000000: 83e4 9abe 8742 beba aef2 163f 2a33 16bf
00000010: 1e8c b2bd d759 3ebe
