lstm/federated/federated_finetuned_member3.pt (torch, 124439 bytes, 10 tensors)

lstm1.weight_ih_l0 f4 [256, 3]
00000000: f7fe 353d ec4b 7bbb 1a8d a4bd 7606 71be
00000010: c4cf 6fbd 1cb9 8ebe d063 c33e ffeb 393c
00000020: a5b3 a43e 7e8b 953e e66c aa3e fbb3 de3e
00000030: 4f8f 543e 37e7 2e3c 7dbf 2e3e 791e 453e
00000040: cd89 4abe 16b5 833c f1e7 713d 175d 72bd
00000050: 66e0 35be 33fa f5be cb64 e1be 7de2 51bf
00000060: a300 69be 2513 e7bd 3d19 96bd 4509 43be
00000070: da38 80be fa67 a9be dc38 cabc 6979 723d
00000080: 1992 b5be 4fa9 0e3e a6a7 213d abef 10be
00000090: bb85 033f 0f0f 413e 7c03 3ebd e085 bf3e
000000a0: ba53 e93e 1873 ae3e 9cbd 81be 13f3 233e
000000b0: 7f79 7f3e 1415 1dbd 43d7 39be bb20 a0be
000000c0: 31ab 173d ef93 883e 42eb 8f3e 35a3 43bc
000000d0: 85dd ec3c d644 60be 8c3f 233c e846 2fbd
000000e0: 95d7 d6bc 7a39 e6be 851c c8be d368 b6bd
000000f0: a343 2bbf 08fd 983d decc 4b3f f99e 03bf
00000100: acd0 58be 0422 ebbe ff7b 5a3f 88ba 03bf
00000110: cbb9 e3be eed4 77be ea99 dfbe 5ce6 b6bd
00000120: 48a2 0fbe a9b9 233d a32c 063f 4ade 62be
00000130: 197e 83bd 7a89 8dbe 5cc0 34bd 41df d43d
00000140: 1320 5fbd cd48 643b 7d2c ba3e 05d2 663e
00000150: 0415 063e 92f3 b83e 47c0 763e 1eb3 7c3e
00000160: c87d 14bf 66a6 8bbe 2d18 cd3d 691f 7c3e
00000170: b758 233e b342 b33c b940 743d 438b 793e
00000180: d0f8 81be 1a38 e8bd c3c7 0dbe f300 6e3e
00000190: d37e 113f 8ca8 92bd 1673 9cbc fe8e 49bd
000001a0: fc81 fa3d bfc0 acbd 9b9b 4a3e 8ef1 6c3e
000001b0: 6948 273e e32e 043c c584 7fbe 3af2 5bbe
000001c0: a5d4 30be 1910 dfbe 407a d2bd 14e2 4ebd
000001d0: 789c e0bd 67ae 773d 1c08 1b3e bcc3 313d
000001e0: e43c debe 01aa 11bf 0d09 cb3e f190 dcbc
000001f0: c4c0 d1bd 7682 15be a662 063e 0de4 9abe
00000200: 410f 9abd 2e02 17bf 2b73 623e 8d50 983e
00000210: 1c98 753e 252e 643e 8667 bebd 6872 c23e
00000220: cecd 5e3e 3463 d23e dded 65be db81 babd
00000230: ac30 cb3d a265 f0bc b8c3 99bd 53bd 35bd
00000240: 27ae 2ebe 2506 f83e 2ead 8f3e 75a8 fcbd
00000250: 4637 49bc 7919 48bd e72b 713e 5811 acbd
00000260: 903f 0a3d 60b8 e9bc 01b6 543e cfdd 6a3e
00000270: 15bb 8d3c a4f0 23be 21b9 66be 7ae0 833e
00000280: 8d03 d73e c551 953e b39e 963e c1a3 9ebc
00000290: 21a9 84bd 4dd6 583d 69a3 84bd 3842 de3c
000002a0: 5678 913e c108 723e cd1d 9b3e 469f 2dbf
000002b0: ed4e 993e 5157 fa3e e684 68be f658 f5bd
000002c0: dac2 113f 13d1 eabd 01b9 123d 5c71 863c
000002d0: fb12 94be f954 fbbd 0a5a 3abd 6fb0 52bd
000002e0: f9fb c33d f9ad c1bd ee02 213d 8d68 843d
000002f0: 0f52 0b3e 07c3 9c3e 57cf 963e 396e 83be
00000300: e0dc 9abc 2d8a a03d d64e a13c 32db 1bbd
00000310: 727d 9b3d 552e 313e d950 1a3d f843 bdbb
00000320: b26f 673d 4711 02be 0fb2 0bbe d7de c1bd
00000330: 3b3d 22be b30c 0cbe 4490 1cbe c1b8 46be
00000340: 8ac8 44be 2eec 85bd a28a 13be c722 89bc
00000350: 6732 1fbe 8073 cc3c d091 b3bc 67b7 553d
00000360: c298 11be 2285 433d ece8 b6bc e03a 983e
00000370: db52 1a3e 804c 8b3c 0ad4 27be 49d6 f5bd
00000380: 7cbb 07bd 4256 073d 2a1e a8bd b4cc bebc
00000390: 041c 9fbe 87d0 94be 16ad 6abe 5089 193e
000003a0: 1292 c23d 0d70 2cbd 00a5 413d a831 863d
000003b0: 0aa9 10bd 59d2 ecbd b4cb c4bd 6bef 363d
000003c0: 6bd0 813d 1b96 bbbc 2d64 233e a5d6 c0bd
000003d0: 3b0b 5cbd 7eb7 d6bd 3d7a 76be 21f3 62be
000003e0: 58a6 ba3d e0ba 983e 806c 263e 699a 9b3d
000003f0: 39d0 2dbc 4aa8 d4bd cc6a dabc 93c6 a1bd
0.044432607 -0.0038344814 -0.080347255 -0.23537621 -0.05854775 -0.27875602 0.38162088 0.01134777
0.32168308 0.29207987 0.33286208 0.4349669 0.20757793 0.010675243 0.17065234 0.19249906
-0.1977913 0.01607756 0.059059087 -0.05917081 -0.17761382 -0.4804245 -0.4402221 -0.8198622
-0.22754149 -0.112829484 -0.073290326 -0.19046505 -0.25043374 -0.3308714 -0.024685316 0.059197817
-0.35463026 0.13931774 0.039466523 -0.14153926 0.5137593 0.188534 -0.04639004 0.37406826
0.4557169 0.34072185 -0.25339973 0.16010694 0.24948691 -0.03835018 -0.18148522 -0.3127497
0.037028495 0.26675364 0.28109175 -0.011940767 0.028914222 -0.21901259 0.009963881 -0.04279223
-0.026225844 -0.44965726 -0.3908426 -0.089067124 -0.6690008 0.07470137 0.7960948 -0.5141445
-0.21173352 -0.4592439 0.85345453 -0.514565 -0.44477686 -0.2420232 -0.43672115 -0.08930656
-0.14026749 0.03997198 0.5241186 -0.22155109 -0.064205356 -0.2764395 -0.04412876 0.10394145
-0.054473948 0.0034833432 0.36362067 0.22541054 0.13093954 0.3612333 0.24096785 0.24677703
-0.58004427 -0.2727539 0.10014377 0.24621357 0.15951811 0.02188239 0.059632037 0.2436953
-0.2538514 -0.113388255 -0.13845734 0.2324255 0.56834143 -0.07161054 -0.019097846 -0.049208634
0.12231824 -0.08435201 0.19785921 0.23139021 0.16336216 0.008067819 -0.24952991 -0.21479121
-0.17268617 -0.4356697 -0.102772236 -0.050508574 -0.10967344 0.060469057 0.15139812 0.043399557
-0.4340583 -0.5690003 0.39655343 -0.026924582 -0.10241845 -0.14600548 0.13123569 -0.30252114
-0.07522441 -0.589877 0.22114246 0.29748955 0.23983806 0.22283228 -0.09297089 0.3797791
0.21758196 0.4109131 -0.22454019 -0.09106799 0.09921393 -0.029345337 -0.075080335 -0.044370007
-0.17058621 0.48442188 0.28061813 -0.12336818 -0.012281245 -0.048852418 0.23551904 -0.084017456
0.033752024 -0.0285303 0.20772554 0.22936176 0.017301122 -0.16009766 -0.22531559 0.257572
0.41994897 0.29163948 0.29417953 -0.019365193 -0.06477571 0.05293875 -0.064764805 0.027131185
0.28412122 0.23636152 0.30296174 -0.67821157 0.29943028 0.48894742 -0.22706947 -0.119798586
0.56937945 -0.11465659 0.035820965 0.016411476 -0.2892073 -0.122720666 -0.045496024 -0.05143779
0.09569544 -0.09457011 0.039309435 0.06465254 0.13605522 0.30617544 0.29455063 -0.2567003
-0.01890415 0.07838855 0.019690912 -0.038050838 0.07592286 0.1730283 0.03767476 -0.005775925
0.056503005 -0.12701903 -0.13642143 -0.094663315 -0.1584367 -0.1367672 -0.15289408 -0.19406416
-0.19217125 -0.06539188 -0.14408353 -0.016740216 -0.1554657 0.024957418 -0.021920115 0.05217686
-0.14218429 0.047734387 -0.022327863 0.29732418 0.1507067 0.017004251 -0.1638948 -0.12003762
-0.033137783 0.033041246 -0.08208878 -0.02329097 -0.31076062 -0.29065344 -0.2291759 0.14993787
0.09500517 -0.042099047 0.047276497 0.0655244 -0.03531746 -0.11563558 -0.09609166 0.04466192
0.06338581 -0.022898724 0.15956183 -0.0941594 -0.053721648 -0.10484217 -0.24070068 -0.22163059
0.09113759 0.29830074 0.16252327 0.07597811 -0.010608726 -0.10383661 -0.026662253 -0.07899203

lstm1.weight_hh_l0 f4 [256, 64]
00000000: 7638 123e 9bd6 2a3c 126b cb3d 09be 9f3d
00000010: 0297 213d a590 1e3d 06e5 e43d 2f2a 563d
00000020: f208 3e3b c26e 85be e51b d83d 5bfe 843d
00000030: 2227 b4bb aa78 0f3e 0a0b 353c 32e4 87bd
00000040: 8659 013c a235 15be 80cc 023c 8c59 84bd
00000050: ae50 82bc a629 35bc 1093 3dbd 9e18 f33d
00000060: 21df 0cbd e8b6 04be eb49 e5bd 3228 ae3c
00000070: 8cbb 12be f0ae ed3d 1d1b 963b a57d 94bd
00000080: 9af2 efbd abf4 d43d a05a 0cbe f495 173e
00000090: 23b2 3bbe b419 923d baf6 853c 3770 f1bd
000000a0: e6e4 883d 3bef 0c3b 10c6 19bc f393 973d
000000b0: d505 dabd 8384 e5bd 8a00 c3bd 88ab d53d
000000c0: 116f 713d 4c2a 1b3e 88e3 013d 424b 873b
000000d0: 95b3 7abb 9efe 10be 2767 ee3c 76db d3bc
000000e0: df48 a53c 6775 0d3d cf7b 0e3d 57c1 a8bd
000000f0: 2f2e 413d ab5f 8b3d f489 0e3d 7527 103e
00000100: 83ef e13d 4106 1fbe bfc5 99b9 38d4 25bc
00000110: 0222 0ebe a1e0 a7bd 3896 0d3d 62fa 5d3e
00000120: b170 c93d 0d44 79be c474 4e3d d893 883d
00000130: 65c9 523e c375 f3bd 2c29 8d3d da8a 1cbd
00000140: 14fb 6e3d 9eb2 c5bd d98b 193e 44c0 7e3e
00000150: 8c33 00bd 1d8c 6e3e 458a c03d 4b94 c33d
00000160: 2db4 073d 8ef2 ccb9 bdc7 843d 4172 04be
00000170: f0a2 3f3e b6f6 b2bc 8430 16be e36a 4a3e
00000180: d1ef ec3d 09c9 febd c1cd 63be 3df7 5a3e
00000190: f1b8 e7bc c8c1 bfbc 5248 f1bd 7314 963a
000001a0: 2c68 b23c f354 07be 772a afbd 826c 9d3d
000001b0: 2b47 e9bd c067 ed3c 8b48 3dbe b0dd 723c
000001c0: f869 70bd cce2 b2bd 6b68 ccbd 4e07 cebc
000001d0: d570 18bd 48af 9c3d 584e e2bc 8ef0 ac3d
000001e0: 6fed 62bd 47c6 c9bc 325e 85bc a3d4 b03d
000001f0: 94f6 f23d 77f7 86bd 1434 a23d 034b dfbc
00000200: 5d80 b53d 1781 8f3d 7176 f23d 23f9 68bd
00000210: 22e0 e4bd 4c7c dbbd 7b02 a3bd f77c 333e
00000220: c398 9abc 45a6 5fbe 9cc3 ef3d c514 c3bd
00000230: ef4c e0bd cb87 313d 4b7c b03b 6971 0bbe
00000240: 4c35 00bd 0b0c 58be 9257 91bd 9430 41bd
00000250: b221 fbbc 3d98 07bd a922 1e3e e849 873d
00000260: 3f26 49be 97a8 693d 156e babd 5231 2fbd
00000270: d5fc efbc 4b11 883d 62fa 9e3d 5177 bb3d
00000280: c6e0 a83c ada7 283e 34bc cc3c 0a3b 033d
00000290: 92d2 ccbc a899 633d efc3 c03d b20b b93d
000002a0: 3442 fd3d 6911 25bc 0cba bcbc 7108 9f3d
000002b0: 1ad6 d6bd 5582 f43c 182c 84bd be38 b5bc
000002c0: cd26 2ebd 0482 15ba 957e d9bd 54ff e3bd
000002d0: 9406 aabc 4d7b 4d3d da43 4bbc cec6 29bc
000002e0: d121 b13d f105 1d3d a74e ab3d b440 a13d
000002f0: bb97 2c3e 8751 053e b13e 133e 9276 dd3c
00000300: 78c9 afbd 1464 003e aadf 4c3d 7836 59be
00000310: 72e1 3cbd a542 1b3e 73f4 a93d 050c e4bd
00000320: e0bf 863c 4343 e93d 92f1 b43a ea75 0dbe
00000330: c8cb 2cbe f983 fabc 2d2a bb3d 6889 1d3d
00000340: 80ba 19bd e52a 0e3e 5e69 20be cc2a 833c
00000350: 36b6 513c f6aa 6cbe 494e 903d 86de f9bb
00000360: 1d75 e7bd 5deb bdbd eb7f 263e 303d e6bd
00000370: 89ba c8bc 5bde 043d 7da0 013e fbb5 13be
00000380: 1300 41be 92c4 123e da6b e6bc 6a82 8f3d
00000390: 92f0 d13d d163 e33a e78d ac3b c751 2a3e
000003a0: 1d43 073d 2c8e c03d 49c7 a2bb d20f 3c3c
000003b0: 436d 0abd dda6 303c c067 e53a 14f9 a23c
000003c0: a52c 263d 6667 62bd 7951 c2ba 887d 81bb
000003d0: 84d8 12bd 6f7e 853d 7203 61be b044 013e
000003e0: f890 093c 6727 023e 4735 b83c 34b6 17bd
000003f0: f226 34bd 624b 083e ccaa 06be 0c15 81bd
0.1427935 0.0104271425 0.099325314 0.07799918 0.039450653 0.038712163 0.11176495 0.052286323
0.002899703 -0.26061064 0.105521955 0.06493827 -0.005497829 0.14010873 0.011049995 -0.06635322
0.007894879 -0.1457124 0.007983327 -0.06462392 -0.015907612 -0.011057293 -0.046282828 0.1186993
-0.03439248 -0.12960398 -0.11195739 0.021259401 -0.14329356 0.11605632 0.004580869 -0.07250527
-0.117161945 0.10398229 -0.13706446 0.14803296 -0.18329673 0.07133809 0.016353 -0.117889814
0.06684284 0.0021504897 -0.009385601 0.07401266 -0.106456436 -0.11206915 -0.09521587 0.104331076
0.05894381 0.15152854 0.03171113 0.0041288445 -0.0038254012 -0.14159629 0.029101921 -0.025861483
0.02017635 0.03453579 0.03478604 -0.08240002 0.047163185 0.068053566 0.03479953 0.14077552
0.11032011 -0.1552973 -0.00029329766 -0.010121398 -0.1388016 -0.081971414 0.034567088 0.21677545
0.09835947 -0.24342366 0.050404325 0.06668824 0.20584638 -0.11887696 0.068926185 -0.038218357
0.058344916 -0.09653209 0.14994754 0.24878031 -0.03129916 0.23295636 0.09401373 0.09549769
0.033130813 -0.0003909063 0.064834096 -0.1293421 0.187145 -0.021846157 -0.14666945 0.19767337
0.11569179 -0.12440688 -0.22246458 0.21383376 -0.02828643 -0.023407832 -0.11781372 0.0011450186
0.021778189 -0.13216 -0.085530214 0.07686712 -0.11390527 0.028980136 -0.18484704 0.014823362
-0.05869481 -0.08734664 -0.09980854 -0.025149968 -0.03721698 0.0765062 -0.027625248 0.0844432
-0.055402216 -0.024630679 -0.016280267 0.08634307 0.11863437 -0.06590169 0.07920089 -0.027257448
0.08862374 0.07007044 0.11838997 -0.05687822 -0.111755624 -0.10717067 -0.079594575 0.17528139
-0.01887167 -0.2184077 0.117072314 -0.09525446 -0.10952174 0.043342393 0.0053859106 -0.13617481
-0.031300828 -0.21098344 -0.07096781 -0.04716547 -0.030655716 -0.03310417 0.1544291 0.066058934
-0.19643496 0.057045545 -0.09103028 -0.042771645 -0.029295364 0.06643923 0.077626005 0.09153617
0.020614993 0.16470213 0.024992086 0.032038726 -0.025002751 0.05556646 0.09412371 0.09035434
0.12366143 -0.010074952 -0.023037933 0.07765282 -0.104900554 0.029847303 -0.06453723 -0.022121783
-0.042517472 -0.0005703273 -0.10619847 -0.11132684 -0.02075509 0.050166417 -0.012406314 -0.01036234
0.08649028 0.038335744 0.08364611 0.07873669 0.16854756 0.13019381 0.14379384 0.027034078
-0.08583349 0.12538177 0.05001799 -0.21212184 -0.04611344 0.15162142 0.08298578 -0.11135105
0.016448915 0.11389782 0.0013804904 -0.13814512 -0.16874611 -0.030580508 0.09138904 0.03846112
-0.037531376 0.1388355 -0.15665194 0.016011618 0.01279979 -0.23112091 0.07046182 -0.007625404
-0.113016345 -0.092734076 0.16259734 -0.11242139 -0.02450301 0.032438617 0.12658878 -0.14424889
-0.18847685 0.14332798 -0.0281276 0.070072964 0.10250963 0.0017348473 0.0052659395 0.16632758
0.03302299 0.09402117 -0.0049676043 0.011478381 -0.033795606 0.010781971 0.0017502233 0.01989416
0.04056992 -0.05527439 -0.0014825306 -0.003951732 -0.035851017 0.06518256 -0.2197397 0.12623858
0.00839638 0.12710343 0.022486342 -0.037038997 -0.043982454 0.13310006 -0.13151091 -0.063028425

lstm1.bias_ih_l0 f4 [256]
00000000: c399 94bd 1b22 babc e115 3bbc 39aa 053e
00000010: 30b7 2cbd 7356 ebbd 8b6d 10be 6c4a 88bd
00000020: 2739 8abb 73e5 1e3e ee8a 9f3d dade a2bd
00000030: 6b0a b3bb afe5 6ebe 72b3 22bd bda6 e5bc
00000040: 1c21 113d 08c1 b5bd cce6 b43d 5218 5cbd
00000050: 63f7 c8bd 30c2 dabd 9c2b 06be e390 24bd
00000060: f036 c53c 34b1 1e3d 8410 e0bb 2df2 15bb
00000070: 213f 3ebd 62c4 24bd e6ce ee3d b2b5 1bbd
00000080: 3218 723c b2dd 07be 1131 d3bc 4f90 89bd
00000090: 4361 ed3c 0ab2 64be f8d2 8dbd 7385 bfbd
000000a0: e2d5 fabd d9ce f2bc 91c2 b1bd edd8 42be
000000b0: d2cf 98bd 5b3f be3c 191e debd 48e5 a3bd
000000c0: 74c5 8d3b 06de babc 89f2 a7bd a0b7 e0bd
000000d0: 468a c93d 074e 8dbd 9e9e a73d 50fa ad3c
000000e0: d3b5 d73d be63 35bd 2203 1cbe a4bb 11be
000000f0: 7101 113d e851 093d bd1d 4e3b 2ce3 303c
00000100: ac3a a8bc 497d 7b3d 5f00 c03c a69f 783e
00000110: ff94 19bb 7ad6 98bc bfbf ebbd e2fc 083e
00000120: b8ba d8bc b41a 163e 700c 4b3d c3e6 eebc
00000130: 487e 93bc f9b3 833d e95a a8bc 90e6 febd
00000140: 2e65 ba3d 3380 0f3d ead5 74bc ec4e de3d
00000150: 1ee6 1c3e 11cd 853d e0b1 4c3e e57a 0abd
00000160: c480 073e 70de 0ebd c7fa 363d 4361 6b3e
00000170: c0de be3d 1013 833b c106 cc3c 5b71 c73d
00000180: 5b98 053e 3255 473e 3d69 0cbd e549 25be
00000190: aa9d d93d b037 b4bc 8232 d03c d3f2 1dbe
000001a0: ae41 663e 52c0 5f3d 8966 b53a e49c 76bd
000001b0: 7c57 253e a657 c73d 640f b0bd f5d2 1dbc
000001c0: ee8e 58bb 0860 a9bd 9545 303e 3bc9 d03c
000001d0: 552a b1bc 6eee 673d e628 7a3d ee9a d03d
000001e0: ad64 88bd 3fd1 93bd 3a40 febd 15c2 b7bd
000001f0: dac0 61bd e912 b43b 7e62 87bd aa58 f9bc
00000200: 0486 843c c0b5 c33c 91f2 79bc 9722 473d
00000210: 4a44 833b 26be d3bb d724 eabc ec94 e53c
00000220: 63ae afbc 885c 1bbc d40f a7bd 59ad 91bd
00000230: e7be e1bd 24f0 1ebd 66a1 23bd 2468 063a
00000240: 6a0d f43c a91a 763d bcdb 50bd 7c09 f2b8
00000250: 1521 b23c 72c9 ec3c abbc fabc f2c9 b73c
00000260: 012c c43c b1ce 213e 87ef 873d 7a8d a03c
00000270: a396 fcbb f9c0 ca3d dd68 08bd d134 d33c
00000280: 8978 133d 326e 263d 7961 203e 8cd3 41bd
00000290: 58bb 0c3e 6c44 493d e436 8b3d 1cf6 103d
000002a0: bff1 cf3d 24e8 55bd e9a5 403c b7b5 6dbd
000002b0: ed70 a13d f954 cdbd d6fe 373d b0e3 da3c
000002c0: 4134 95bd a2d8 cdbd 1da8 c4bc fe15 e4bd
000002d0: e4f8 f43c e2cf 933d 8f52 253d ed47 d43d
000002e0: c967 cf3c 8d09 dd3d b18a 2f3d d055 9039
000002f0: 31c4 e7bd 7d59 533b 6c18 debd 0b05 ab3d
00000300: 43a2 bb3c 5b07 9ebc 630c e03d 09f1 ed3d
00000310: 1be0 b23d fde3 6b3c 721e b8bd 4b9e 113e
00000320: aac2 f3bd 9490 463d a672 ac3d 4cdc b5bd
00000330: 1ce9 283e e42b 903d 949f 11be 1b50 89bd
00000340: 8600 e13d 2358 693d 6680 f43d 6340 38bc
00000350: 0aeb 8c3d 1d93 41bd a8ed 1a3e a091 bebd
00000360: 83dc 933d eb16 0cbe 5766 80bd c229 cf3d
00000370: 46f9 b3bd 2054 82bc 1111 eb3c 6193 923d
00000380: 59f0 f1bd 08ca 243d 565b 3cbc 347f 3b3d
00000390: d04d a3bc 37ce f1bd d1e5 203c 0ceb 19be
000003a0: c0b5 5f3e 9d09 c93d 5cae 25be 42c2 b9bd
000003b0: 1e88 ae3d 8638 823d 0764 893d a564 9c3c
000003c0: 11cc 27bd d33c 25be ca92 6dbc 7084 82bd
000003d0: 4bb6 663d 5b31 d3bd 66a1 653d f2f2 ec3d
000003e0: 8847 8abd 1bf0 fabb 6dad 913d 92d8 ebbd
000003f0: 2cac 1e3d 3d2c 12be ed14 2abd e5cc 8bbd
-0.0725589 -0.02272134 -0.011418791 0.13053216 -0.04216689 -0.11491098 -0.14104287 -0.0665482
-0.004218239 0.15517215 0.077901706 -0.07952662 -0.0054638884 -0.23329805 -0.039721914 -0.028033609
0.035431966 -0.088747084 0.088330835 -0.05373413 -0.0981281 -0.106815696 -0.13102573 -0.040177237
0.024074048 0.038743213 -0.0068379063 -0.0022879944 -0.046446923 -0.040226348 0.116605565 -0.038015075
0.014776276 -0.13268164 -0.025780233 -0.06716978 0.028977042 -0.22333542 -0.06925005 -0.09351625
-0.12247826 -0.029639648 -0.08679689 -0.19028063 -0.074615136 0.02322357 -0.108455844 -0.08002716
0.0043265168 -0.022810947 -0.08200557 -0.10972524 0.09840827 -0.06899648 0.08184551 0.021237522
0.10532727 -0.044284575 -0.1523557 -0.14231735 0.035401765 0.033525378 0.003145083 0.0107963495
-0.02053579 0.061398778 0.023437677 0.24279651 -0.0023434756 -0.018656958 -0.11511182 0.13377717
-0.026456222 0.14658624 0.04957241 -0.02916277 -0.018004552 0.064308114 -0.020551162 -0.1244632
0.0910133 0.03503437 -0.014943579 0.10854897 0.15322158 0.06533254 0.19989729 -0.033808608
0.13232714 -0.0348801 0.044672754 0.22986321 0.0931983 0.004000075 0.024905564 0.09738418
0.130464 0.19466093 -0.03428005 -0.1614147 0.10625775 -0.02199921 0.025414709 -0.15424661
0.22485992 0.05462677 0.0013839762 -0.060208216 0.16146654 0.097335145 -0.085966855 -0.009632816
-0.0033044177 -0.0827027 0.17214043 0.02548658 -0.02162663 0.05662387 0.06107416 0.101858005
-0.066598274 -0.07217645 -0.12414594 -0.08972565 -0.05511556 0.0054954183 -0.06610583 -0.030437786
0.016177185 0.023890376 -0.015255586 0.04861697 0.0040059434 -0.0064618764 -0.02858202 0.028025113
-0.021445459 -0.00948251 -0.08157316 -0.071131416 -0.1102274 -0.038803235 -0.039948843 0.00051272125
0.029791553 0.06008402 -0.050990805 -0.00011541226 0.02174429 0.02890465 -0.030607542 0.022435162
0.023946764 0.15801503 0.06637483 0.019598711 -0.007708387 0.09900088 -0.03330313 0.02578202
0.036003623 0.040632434 0.15662183 -0.047320887 0.13743341 0.049137518 0.06797579 0.03539096
0.10153531 -0.05222334 0.011758306 -0.058034625 0.07882867 -0.10025973 0.044920765 0.026719898
-0.07285357 -0.10051085 -0.024005944 -0.11137007 0.029903837 0.07217385 0.040361937 0.10365281
0.025318043 0.10792837 0.042856876 0.00027529756 -0.113167174 0.0032249384 -0.10844502 0.08350571
0.02290452 -0.019290617 0.109398626 0.116182394 0.08734151 0.014397618 -0.08990182 0.1422054
-0.119023636 0.048477724 0.08420305 -0.08879909 0.16495174 0.070396215 -0.1422103 -0.06704732
0.10986428 0.05696882 0.119385526 -0.01124582 0.06880768 -0.04725944 0.15129721 -0.093051195
0.07219794 -0.13680618 -0.0626952 0.101153865 -0.087877795 -0.015909255 0.028694661 0.071570165
-0.11813421 0.040231735 -0.011496386 0.045775607 -0.019934565 -0.118069105 0.0098204175 -0.1503107
0.21846676 0.09816287 -0.16179794 -0.09070255 0.08522056 0.06358437 0.06708532 0.01909096
-0.040966097 -0.16136484 -0.014500329 -0.06372917 0.056326192 -0.10312148 0.056062125 0.11569776
-0.06751925 -0.0076580173 0.071131565 -0.11515917 0.038738415 -0.14274688 -0.041523863 -0.0682619

lstm1.bias_hh_l0 f4 [256]
00000000: 1200 13bc 3b35 423d af77 c33c 8390 013c
00000010: ee0e 06bd 8e17 cfbc bf7b 9ebd e3ef fabc
00000020: 98c1 893d 4034 8dbd 5853 0dbe 9a42 b9bd
00000030: 71b5 a8bd 654d 22be 2734 07bd 3c52 84bc
00000040: c14c aa3d 2cff 95bd eb9e fbbd 2288 143d
00000050: c9f1 d1bd ec03 a8bc 91eb 4dbd f90e 22bd
00000060: e016 cd3d 7076 24be f9c5 363d c240 b23d
00000070: 4d5e 07bd b169 f1bd af4e 86bd 471a 973d
00000080: 8dae 0abe e5e9 1abe 50ae 39bd d042 493d
00000090: 62c9 00bd b505 2cbe fd99 203d 055b e2bd
000000a0: eac8 cfbd 4ca1 db3d a717 083c 172c 16bd
000000b0: b300 9c3d 11bd aebc d3b5 22be 1e2b 233d
000000c0: 23ea 843d 650b 753d 09cc 113b d1e2 44be
000000d0: c02a 58bd 4d22 523d 687a 0b3d c46b 8b3d
000000e0: 698d bebc b738 03be 6a79 1ebe a9c0 57bd
000000f0: b18b 583d 592e 3bbe 4cdf 843c 9798 a5bc
00000100: 89c6 debd ffd9 90bc 01ba cbbc d0fb 883d
00000110: b0cc b73c fd5a 8d3d 27b3 943d 5e0d 763e
00000120: d43d b43d 408e 6e3d 55f0 89bb 6f47 a2bc
00000130: 6f75 083d 3488 b3bd 8fa6 3abc cba7 97bb
00000140: 283d 633d 8f1a 88bd 6110 d43d f061 b63b
00000150: c856 513d 848c 6ebd c5a9 903e 8629 5ebc
00000160: 0823 363e a7af 94bd ce75 123e 1704 993c
00000170: f189 313d 8341 66bb 67f3 953d 48fe 47bb
00000180: 3092 2bbd 0700 623e 2dc5 f73d 90c0 06bd
00000190: db01 803d c6cf 1b3e b229 c93d 19b0 273c
000001a0: 9a5b f53d faa4 d83d bc0a 00be 4073 a5bd
000001b0: 258b ebbc d964 673c ab39 623d b015 64bd
000001c0: c090 993d 03d7 10be 0594 da3b db28 cfbd
000001d0: 5e66 e33d 3fa3 b83d 6f13 0f3a 0bbf 263d
000001e0: b885 0d3d 9898 973c 7f03 81bc b88f cc3c
000001f0: 8d6f bebc c1ea d43d 4872 83bd bb5b b53d
00000200: c0c9 0b3d 39a4 7dbb 8f06 83bd dd56 163e
00000210: 282c 333d 60fb de3d 8888 bfbc c324 aebc
00000220: d565 febc d4ea cfbd c408 28bc 0a9b 36bd
00000230: 8742 eb3c 8544 8f3c 3481 2dbc cfca 693d
00000240: b07f 89bc 6a13 8dbd d0fd 15bd a6d5 4f3d
00000250: c901 c93b 3320 e13c bc80 8c3d aab9 463c
00000260: bdd0 15bd 206a 54bd 4d6b 013e 412c 8dbd
00000270: 8eaf e0bc 8272 f53d 6333 bf3d 1232 9cba
00000280: 07d3 d33d 6e55 a5bd 90db 0b3e f274 86bd
00000290: 1188 023e d443 59bc 8d17 943c ff6f 04bc
000002a0: 0ee8 95bd 19b8 36bd 4f0e a5bc d4f9 25bd
000002b0: 6781 af3d c829 b0bd 7220 c13d fc02 583d
000002c0: e97a a93d 3203 82bd 80a0 a73d c790 1bbd
000002d0: 0885 273d 6e11 d33d fd18 843d 5e01 28bc
000002e0: 7ec5 33be 821b 0f3d 755e 053d 6b5a 0c3d
000002f0: 8f14 fb3d 6c57 9e3d 33b8 b23d fb19 dbbd
00000300: 89a5 4dbd 29b5 9bbd 6fbc 273b c325 3b3e
00000310: 71d3 b6bd 066d 7ebd 4a57 4cbd f345 cd3c
00000320: 288f 6b3d 41ff 433e bfc2 67bd 17d1 493c
00000330: 2661 6f3d 341e 7cbd 50f8 ac3c dc78 3abd
00000340: 4086 7c3d 0437 bebd 81d8 1c3d 50bb 953d
00000350: f877 86bc f94d 61bd 7172 483e d312 0b3e
00000360: 46d9 a13b bbd3 09be cd6b abbd d255 573d
00000370: 2f54 9c3a f4ba bcbd 77ae bbbd ac95 8fbd
00000380: de82 843d 1688 853d 9cfa 37bd b68a 12be
00000390: 83e4 11bc abea 80bd 3f18 bdbd 3c8b 00be
000003a0: f457 703e 5e79 e23d fb1f 6b3d 3a11 8a3c
000003b0: 8aa1 f93c 3664 963d e90c 22be 8586 d93d
000003c0: 9c17 243e 7478 b3bd de9c 3ebd 9302 123a
000003d0: 9b35 083e ead3 923d 4cec 46bd 1ea8 46bd
000003e0: f30c a9bb 6895 a4bb d875 26bd e767 293c
000003f0: b628 7ebd 75f7 efbb 4376 0cbe 6d5c b4bb
-0.008972185 0.047414046 0.02386078 0.007907989 -0.03272908 -0.025279786 -0.077384464 -0.030631965
0.06726378 -0.068947315 -0.13801324 -0.09045906 -0.08237732 -0.15849836 -0.03300872 -0.016152494
0.08315421 -0.07324061 -0.122861706 0.03626264 -0.10251195 -0.020509683 -0.05027348 -0.03956506
0.10014129 -0.16060805 0.044622395 0.08703758 -0.033048917 -0.11787737 -0.065579765 0.07378059
-0.13543148 -0.15128286 -0.045332253 0.049135983 -0.031442054 -0.16799052 0.039209355 -0.11052517
-0.10145743 0.10724124 0.00830642 -0.03666314 0.07617321 -0.021330388 -0.15889673 0.03983604
0.064899705 0.05982532 0.0022246859 -0.19227149 -0.052775145 0.051302243 0.034052283 0.06807664
-0.023260789 -0.12814604 -0.15476003 -0.05267397 0.052867595 -0.18279399 0.016219757 -0.020214362
-0.10877711 -0.017682074 -0.024868967 0.066886544 0.02243647 0.0690212 0.07260733 0.24028537
0.08800855 0.05824113 -0.004209558 -0.019809453 0.03331512 -0.08766213 -0.01139225 -0.004628157
0.055478245 -0.06645691 0.103546865 0.0055658743 0.05110815 -0.058239475 0.28254524 -0.013559705
0.17786801 -0.072600655 0.14302751 0.018678708 0.04334444 -0.0035134263 0.07321816 -0.0030516554
-0.041887462 0.22070323 0.12098155 -0.032898486 0.06250354 0.15215978 0.09822406 0.010234856
0.11980362 0.10578342 -0.12504095 -0.08078623 -0.028752873 0.014123165 0.055230778 -0.055684745
0.07498312 -0.1414452 0.0066704773 -0.101152144 0.11103509 0.09015512 0.0005457913 0.040709537
0.034551352 0.01850538 -0.015748737 0.024970874 -0.023246551 0.10396338 -0.06418282 0.08855387
0.03412795 -0.003870262 -0.06397735 0.14681573 0.043743283 0.1088779 -0.023380533 -0.021257764
-0.031054417 -0.10152212 -0.010255996 -0.04458145 0.028718246 0.017488727 -0.010589886 0.05707818
-0.016784519 -0.068884686 -0.036619008 0.05074086 0.006134246 0.027481174 0.06860492 0.012129227
-0.03657602 -0.05185902 0.12638588 -0.068932064 -0.027427461 0.11984731 0.09335973 -0.0011916778
0.10342985 -0.08072935 0.13657975 -0.06565274 0.12747218 -0.0132608 0.018077636 -0.008083343
-0.073196515 -0.044609163 -0.020148424 -0.040521458 0.085696034 -0.08601719 0.094300166 0.05273722
0.082753964 -0.06348266 0.0818491 -0.037979867 0.040898353 0.10306059 0.06450079 -0.010254232
-0.17555806 0.034938343 0.032560784 0.034265917 0.122597806 0.07731518 0.087265395 -0.10698315
-0.050206695 -0.07602913 0.0025594493 0.18276124 -0.08927048 -0.06211569 -0.049887933 0.025057768
0.05750957 0.1914034 -0.05658221 0.012317917 0.058442257 -0.06155224 0.021114498 -0.045525417
0.06165147 -0.09287837 0.03829241 0.07311118 -0.016414627 -0.055006 0.19574906 0.135814
0.004939231 -0.13459675 -0.08370171 0.05257208 0.0011926944 -0.09215346 -0.09164136 -0.070109695
0.064702734 0.06520097 -0.044916734 -0.14310727 -0.008904579 -0.06294759 -0.0923314 -0.12553114
0.23471051 0.11058305 0.057403546 0.016853917 0.030472536 0.073433325 -0.15825237 0.10621361
0.16024631 -0.08763209 -0.04653632 0.00055698416 0.13301699 0.07169326 -0.048565194 -0.048500173
-0.0051590144 -0.0050226934 -0.04063973 0.010339714 -0.062050544 -0.0073232003 -0.13716988 -0.005504182

lstm2.weight_ih_l0 f4 [128, 64]
00000000: 3e38 51be 7a3b 8a3c 8228 d73c 72c9 a53d
00000010: d854 d13c 1cc4 d83d c77b d9bd c229 54be
00000020: 15b7 313e d64b c43d 535c cd3d eb41 09be
00000030: f782 52be 8ad2 68be 5aef 81bc f6fb f1bc
00000040: 48cf ef3d 6a55 313e cec8 713d 8513 e83d
00000050: 295a 083e aba4 0cbd 6342 01be c3d2 cdbd
00000060: 58d8 633e 0506 813e 62b5 9dbc 640a b8bd
00000070: d431 533d 5156 50bc eb18 debd 95b2 963c
00000080: c414 e1bd b5f3 013e f32b 2a3e d799 d6bd
00000090: 1f01 26bc 16d9 313d 4017 443e 033a ff3d
000000a0: f7a8 0cbe 6552 01be be4e 2e3e c2ad 95bd
000000b0: a209 0ebe cb9e 3cbc d2bb 4bbb 8476 bdbd
000000c0: 00dd 18be 7e6c 12be 2447 463e ca27 98bd
000000d0: a252 cc3c c37f 6dbd 34a5 8dbd 68b8 4b3e
000000e0: 87d9 c33c fb52 31bd 90d3 bf3b 1d56 83be
000000f0: 05be 49be 0cec 9d3c 8eb6 58be c3d1 bcbd
00000100: a9bf d93d 007e 303e bcc0 243e 403e ccbc
00000110: a53b 803e 0829 83bd 0ea7 f33c 2d3a 123e
00000120: c316 643e 6f00 89bd fc0f 23be 8ce3 11be
00000130: fa1d 953d 5753 043e 3fd0 68be 85a9 233d
00000140: 14f0 173e 7f03 d83d f118 15be 41ea e0bc
00000150: 5ab7 073e 0f12 c6bd 047a db3d e960 723d
00000160: 0c3c 8cbe 7643 3b3e 75ce 07be aa5b 15be
00000170: e6ae 6dbe 3809 74bc 230c e33e c163 1bbe
00000180: 1b6e d03d 64ee 8a3d c545 883e e425 37be
00000190: 1aae 95bd 97a5 cb3d b38f c2bc 65e9 71be
000001a0: 7384 7e3d b48d a63d c632 0b3e 73d6 0b3d
000001b0: a23a e73e ddba 4c3e cc40 45bd 4490 043d
000001c0: 1edb a23d edf8 a5bd 1bce a33e d09e 483e
000001d0: c974 85bd cb42 843d a284 e4bd 1bc8 213e
000001e0: c5b6 0b3e 158c 643e 09e3 503e f3aa 813e
000001f0: 8971 1cbe f85e 583e 949b 57bd 365d 9a3e
00000200: 2f9e 36bd 578c 073e 450f e3bc 6929 963c
00000210: 920a 99bd c3a8 623d 7693 b53c 44ba 443d
00000220: 3ab5 d63b d7ec d4bc ef46 51be 15f2 60be
00000230: 310d 0dbe 3a5b 15be a97b ca3d 2c99 c7bc
00000240: 4a5c ae3d 6fa3 433e 21e3 7abe 593d 683d
00000250: 15e5 323e c6b6 85be 777a b1bc 9434 923e
00000260: 47d0 af3d 1914 bbbd a79a 853e 812a 153e
00000270: 0caf 55be a4ef 9dbd 859a c73d d4bf 243a
00000280: c66e f33d 3f45 653e 8e22 733e 54de 3dbe
00000290: 8450 933e a314 883d 32ad 54bb ddf5 2c3e
000002a0: 7155 20be 18be 7639 1c07 48bd 101f 85bc
000002b0: 14a5 533d 3626 a5bd b9c5 a73d 0389 e43c
000002c0: 31ae 093d 88dc f63d b38f 11be 2821 7d3d
000002d0: 6ffc 363e e65c 233e b151 d33d fd53 86bd
000002e0: 254f 373e f8d9 e83d 7ade 79bc a805 f2bd
000002f0: 4dfa b23d ca75 673d 5138 1abe 715d 4bbb
00000300: a2dd 6e3d 96a5 c9bd 58c5 9f3c 05fa 903e
00000310: 8e8e 19be 6d43 9ebd 4107 c3bd 1194 40be
00000320: dbef d03e d677 8cbe 4cae 4e3d 77b5 2f3e
00000330: 1312 833e da41 633b f750 8e3b fba4 87be
00000340: 3159 a43c 89d5 2fbe f4f8 f83b f5f3 67bd
00000350: 432c d9bd 9406 cebe 081c a7bd 29f1 753b
00000360: e520 2dbe 445d 02bd 9ae9 86bd b849 87be
00000370: 8aac 01be 9ddb 48bc 7efd d23d 6cb1 763d
00000380: c99f 14bf 8ebe 5c3e d0c7 06bd 71e2 473e
00000390: 9e5e fabd 21a3 25be 09bc 733d e2a4 b2bd
000003a0: 2503 243c 0f26 1a3e 4ac3 c7bd 281c 7b3e
000003b0: c511 a53d 41e8 13be 22d9 0f3e 7da2 a1bc
000003c0: 8696 543c 9087 2c3d 71e5 29be 8c10 d13c
000003d0: 920d 573e 0c2d 95bd b9c6 b63d 6fc6 bcbc
000003e0: 3b84 aebd bb8a 08be f8e9 e63d ae8c 8c3d
000003f0: 3888 913d 763b 27bd 87bc 93bc e990 0b3e
-0.20431611 0.016874064 0.026264433 0.08095063 0.025553152 0.1058428 -0.10619312 -0.20719054
0.17354997 0.09584777 0.10027375 -0.13404052 -0.20557772 -0.22736564 -0.015861202 -0.02953909
0.11709458 0.17317739 0.059029393 0.11331848 0.13315643 -0.034336727 -0.12622981 -0.10049965
0.22250497 0.25199905 -0.01925153 -0.08986357 0.05156119 -0.012715892 -0.108445965 0.018395701
-0.10990289 0.12690623 0.16618328 -0.10478561 -0.010132103 0.04341992 0.19149494 0.12462237
-0.1373633 -0.12629087 0.17022225 -0.07308532 -0.13870862 -0.011512469 -0.0031087291 -0.09251121
-0.14928055 -0.14299199 0.19363075 -0.07429464 0.024941746 -0.05798317 -0.069162756 0.19894564
0.023907436 -0.043292027 0.0058540776 -0.25651637 -0.19701393 0.019277595 -0.21163389 -0.092196964
0.106322594 0.17235565 0.16089147 -0.024932027 0.25045505 -0.064043105 0.029742744 0.14280005
0.22274308 -0.06689536 -0.15924066 -0.14246958 0.07281108 0.12922417 -0.2273569 0.03995659
0.14837676 0.10547542 -0.14560296 -0.027455451 0.13253537 -0.09671413 0.10716632 0.059174452
-0.27389562 0.18287453 -0.13262351 -0.14585748 -0.2321125 -0.014894776 0.44345197 -0.15174772
0.10177251 0.06783751 0.2661573 -0.17885548 -0.07308598 0.09943693 -0.023750162 -0.23624189
0.062138032 0.081324965 0.13593587 0.03414006 0.4516192 0.19993158 -0.0481575 0.032364145
0.079519495 -0.081041194 0.31993183 0.19591832 -0.065164156 0.06458052 -0.1115811 0.1579899
0.1364394 0.22319062 0.20399107 0.25325736 -0.15277685 0.21129978 -0.052638605 0.3014924
-0.04458445 0.13237129 -0.027717242 0.018330293 -0.07472719 0.055336725 0.022165041 0.0480292
0.0065523656 -0.02599184 -0.20437215 -0.21967347 -0.13774563 -0.14585581 0.098868676 -0.02436503
0.085136965 0.19105314 -0.24500705 0.05669913 0.174702 -0.26116008 -0.021664841 0.2855574
0.085846476 -0.09134693 0.26094553 0.14566995 -0.20867556 -0.077117234 0.09746269 0.0006284688
0.11886363 0.22389697 0.2374365 -0.18541843 0.28772366 0.06644561 -0.0032451865 0.16890664
-0.15657593 0.00023531204 -0.048834905 -0.016250163 0.051671103 -0.08063929 0.081920095 0.027897364
0.033613387 0.12053782 -0.14214973 0.0617992 0.17869733 0.15953407 0.10318316 -0.06558988
0.17901285 0.11369699 -0.015250796 -0.11817485 0.08739147 0.056508817 -0.15060546 -0.0031031037
0.058316834 -0.09846036 0.01950328 0.2831575 -0.14995787 -0.07727704 -0.09522868 -0.18806483
0.40807995 -0.27435178 0.05045919 0.17159067 0.25599727 0.0034676702 0.004343148 -0.26493058
0.020062061 -0.17171301 0.007598037 -0.05662914 -0.106041454 -0.40239394 -0.081596434 0.0037527776
-0.1690708 -0.031827226 -0.06587525 -0.2642343 -0.12663475 -0.012259391 0.10302256 0.060227796
-0.5805631 0.21557066 -0.0329054 0.19519974 -0.12225078 -0.1617551 0.059505496 -0.08722855
0.010010515 0.1505358 -0.09754045 0.2452246 0.0806003 -0.14444067 0.14047673 -0.0197308
0.012975341 0.04212147 -0.16591431 0.025520585 0.2100127 -0.07283983 0.08924622 -0.02304384
-0.08521315 -0.13334171 0.11275095 0.0686277 0.0710606 -0.04082819 -0.018034233 0.13629498

lstm2.weight_hh_l0 f4 [128, 32]
00000000: cc6a 13be 733e 653d 9582 383d 6850 10bd
00000010: 9f59 31be cda9 b73d fb7d 973d 7f31 18bd
00000020: 98dc f0bd f7a1 f2bb 7e31 debb e1d0 613e
00000030: 57ff 913b 22cd f83d 3224 44be 5768 36be
00000040: c117 77be 9141 873c 7581 b03e 7fb8 ddbd
00000050: ae4a b8be 6f96 ea3d 205d 2b3d 42c5 65be
00000060: 1703 e43d 6c04 6ebc c233 84bd fe42 5f3e
00000070: 0d83 c8bd c9a1 00bc b5d9 0fbd 7be7 06bd
00000080: da0f 833d efe6 d33c ff5f 913e ef6c a3bd
00000090: a865 233e 4124 a9bd ec21 1fbe 0bdd 253e
000000a0: d640 523e a06f 683d c986 233d 556e 60bd
000000b0: eef5 edbd 44f0 743c 393e 5bbc 9c03 293e
000000c0: 4717 28bc 91e8 1f3e 0941 95bd 4197 793e
000000d0: 75e0 633c 989e 0a3d ae2c 0cbe 5108 6dbe
000000e0: 37eb 22be b006 b43c 9748 4e3e 05ee 433e
000000f0: d1cd 033c cad7 abbc 5870 363e 3cbf 233e
00000100: 9061 08be 6f8c 41be cfeb a13d 2b51 8dbd
00000110: c66a 6cbd 5541 5a3d f0a2 ddbc f3e9 bcbc
00000120: 2a32 4cbd 8349 2b3e f0d1 ba3d 1004 56bc
00000130: 7a6c 7ebe e09d a63c d075 4f3e 7691 fcbd
00000140: f8b5 abbc a95b 033d be80 1b3d 24ab 9fbd
00000150: 247a abbe 529e 043e 8004 043d 097a a6be
00000160: 6dde 53be 2dd7 9dbd c664 5d3d b8b8 043e
00000170: 1389 82bd b1c7 c0bb 4d5f 98bd 0426 20be
00000180: 045e 953c f4e9 36bc 6cce 12bb 38ab edbd
00000190: 49c3 993d 95b4 c5bd c356 13be 73e2 573e
000001a0: 1e45 9f3d 3fbd 22be a17e 21be 7b8d 463e
000001b0: d547 203e 0799 493e 236a 88bd dd60 bdbe
000001c0: 2770 fd3d 7568 883e 2ab5 d13d 074f 5c3d
000001d0: 8c13 96bc 4dbe 953e 7fc5 f73d 7ec0 11be
000001e0: c581 363e 93d6 a8bd 38db 8dbe bae2 093e
000001f0: 3e86 f2bc c2c4 243e 6ceb 63bd 1199 243e
00000200: 2e5e 90be 7f3e 313a 3a3d b0bc 9398 05ba
00000210: 9870 213e b81e 96bd ded2 e7bc 03eb ca3d
00000220: b64a 72bd 5348 d43d 0173 363c 1247 0a3d
00000230: 68e0 a1bc 8c54 b1bd a099 8a3d f5f8 a3be
00000240: b633 c2bc b7cb adbd ff11 37bd ab75 98bd
00000250: 5269 c8bd a288 c2bc 4442 1dbe d830 bcbe
00000260: 2865 c7bd 5693 18bc 33e3 943e 7ad5 883e
00000270: f188 913d 2f43 7a3d 9aa0 313e bd59 e9bd
00000280: ce70 c8bd 31a5 36be a56d f9bd f71d 9f3d
00000290: c97b e3be 269c 22be d0b7 14bc cc31 e4bd
000002a0: 5f09 7bbe a265 78be 43e4 4e3e 4344 f9bd
000002b0: 3915 a13d 8819 c23d 24ca 17be 438b 38be
000002c0: b359 31bd b090 283e 5bf8 443e 6b28 7bbc
000002d0: 1632 06bd 3275 b1bc 635e a4bb aa33 2b3e
000002e0: 699a 383e 5edb 0fbd 4099 89bc 382c 94bd
000002f0: c9e1 2cbd 2638 153e 0134 b6bc f669 98bd
00000300: 5494 fd3c 6133 57bd 7466 123c 0030 803e
00000310: 1041 3cbe de8a 24be 703d 06bb d4fe 073e
00000320: 3480 2b3d 045f a03c c209 56bd d335 efbd
00000330: 4862 be3c 85ac be3c 5e1c 07be 8457 fcbd
00000340: 928a 2c3e e639 9a3e 4dbf f93d 913f 8c3d
00000350: 0391 10be bd40 6e3c c07d e93d e92c edbe
00000360: 1e5b e7bd 7997 f73c 7b95 32bd 7d1a 85bd
00000370: 1864 813e a218 0d3e f01e eabd 1a38 8fbb
00000380: 3ebf 97bc 4fe2 1f3e b7d0 1c3c 45e6 21bd
00000390: 1f82 4b3d 03b4 ad3e 015c 83be c948 b13e
000003a0: 2aaa cc3c 6376 80be 9b25 8dbc 4228 e23b
000003b0: 449e e6bd 2dc3 debc 1aa8 82be 6253 e3bd
000003c0: 601b 27bc b404 823e 9fa5 883d 666b bfbd
000003d0: 5b06 b6bd c652 bf3c f647 193e af92 34be
000003e0: 13f8 8cbe d95e 30be 06ee 683e 4bf0 c03d
000003f0: 0261 c53d 02bd 87bc ec74 073e 4c27 393c
-0.14396209 0.05596776 0.045046408 -0.03523293 -0.17319344 0.08967934 0.07397076 -0.03715658
-0.11760825 -0.0074045616 -0.0067808023 0.22052337 0.0044554877 0.12148501 -0.19154432 -0.1781324
-0.24130155 0.016510757 0.34473768 -0.108262055 -0.35994476 0.11454474 0.041836858 -0.22438529
0.11133402 -0.014527421 -0.064551845 0.21802899 -0.09790621 -0.007851073 -0.03511973 -0.0329356
0.06399508 0.025866954 0.28393552 -0.07979762 0.15956748 -0.08258868 -0.15540284 0.16197602
0.20532545 0.05674708 0.039923463 -0.05479272 -0.11619173 0.014949862 -0.013381534 0.16505283
-0.010259456 0.15616061 -0.07287795 0.24374105 0.013908495 0.033842653 -0.13688919 -0.23147704
-0.1591004 0.021975845 0.20144878 0.19133766 0.008044676 -0.02097692 0.17816293 0.15990919
-0.13318467 -0.18901227 0.07906305 -0.06900247 -0.057719015 0.05328496 -0.027055234 -0.023060774
-0.049852528 0.16727261 0.09122074 -0.013062492 -0.24846068 0.020338953 0.20259786 -0.12332432
-0.020960793 0.032069836 0.037964575 -0.07796314 -0.33491623 0.1295102 0.032230854 -0.3251498
-0.20690317 -0.07707057 0.054051183 0.1296109 -0.06373801 -0.00588318 -0.07440052 -0.15639502
0.018233307 -0.011164177 -0.002240087 -0.11604923 0.07507951 -0.09653584 -0.14388566 0.21082477
0.07776855 -0.15892504 -0.15770961 0.19389908 0.15652402 0.19687282 -0.06660869 -0.36987963
0.12374907 0.26642194 0.102396324 0.053786304 -0.018319868 0.2924675 0.12098216 -0.14233586
0.1782294 -0.08244052 -0.27706313 0.13465396 -0.029605027 0.16090682 -0.055644438 0.16074015
-0.28196853 0.0006761327 -0.02151357 -0.00050962827 0.15765607 -0.07330078 -0.028298791 0.09908106
-0.05915328 0.10365357 0.0111358175 0.033759184 -0.019760326 -0.08658704 0.06767583 -0.32025877
-0.023706298 -0.08486121 -0.044694897 -0.074443184 -0.09785713 -0.023746792 -0.1535731 -0.36756015
-0.09736091 -0.009312471 0.2907959 0.2672537 0.071061976 0.061099228 0.17346421 -0.11394069
-0.09787141 -0.17836453 -0.12179116 0.07769387 -0.44430378 -0.15879878 -0.009077027 -0.111423105
-0.24515294 -0.2425752 0.20204262 -0.12171223 0.07865376 0.09477526 -0.14823204 -0.18021874
-0.043298434 0.16461444 0.19235365 -0.015329461 -0.03276261 -0.021662328 -0.0050161346 0.16718927
0.18027653 -0.035121314 -0.016796708 -0.072349966 -0.042207513 0.145722 -0.022241594 -0.074420854
0.030954517 -0.052539233 0.00893556 0.2503662 -0.18384194 -0.16068599 -0.0020483397 0.13280803
0.04187031 0.019576557 -0.0522554 -0.11680188 0.023240224 0.023275623 -0.13194415 -0.1232138
0.16849735 0.30122298 0.12194691 0.06848062 -0.14117818 0.014541802 0.11400938 -0.46323326
-0.11296676 0.030223595 -0.043599587 -0.06499193 0.25271678 0.13778928 -0.11431682 -0.0043707015
-0.018523809 0.15613674 0.009571246 -0.039526243 0.04968464 0.339264 -0.2565613 0.34625843
0.024983484 -0.25090322 -0.017229846 0.0069017718 -0.112606555 -0.027192676 -0.25518876 -0.110998884
-0.010199398 0.25394213 0.06672215 -0.093466565 -0.08887931 0.0233549 0.14968857 -0.1763408
-0.27533016 -0.17223682 0.22747049 0.09420832 0.096376434 -0.016569618 0.13228196 0.011300873

lstm2.bias_ih_l0 f4 [128]
00000000: a1ad 68bd 3e16 f03d ab15 b13e 87d7 763e
00000010: 24ae 8abd 7c78 f5bd a5ee 6e3e e796 5a3d
00000020: afea 2a3e b650 b2bd 0d5a 6a3e 15bd 57bd
00000030: 8f47 293e 9784 973e a38c 5d3e 39ad 96bc
00000040: f993 68bb be20 db3c dbe2 223e 0b13 2bbd
00000050: b1de db3d 909e ddbd 5e09 133e 4f22 6d3e
00000060: b657 953d e27d 043e 3bd1 a23d 0fbd 67bc
00000070: 1f30 22be 5c9d 003e ec5e 8d3e 600b 1dbd
00000080: e5af 913d 1509 723e 0465 cc3e 6808 683d
00000090: ca9c 923e 7ad7 093d 884b be3e df16 933d
000000a0: d0b7 8f3e 4add 913e 74ab 593e 19a8 d93d
000000b0: 9cee 423e 55e5 0e3e a53c e63c f774 b93e
000000c0: 0290 3c3e c938 df3e 4e2e b23e f80a bf3e
000000d0: f1ed ac3d aedd 9f3e cb89 313e 95cb bc3e
000000e0: b674 0f3e 2a8f 663e 2f5c b53e b7bd 3b3e
000000f0: da23 423e a975 a33e 6452 583e 096d ee3e
00000100: ee5c 213e 50c6 0f3d f027 0ebd 9351 263e
00000110: 5ceb 983d f0e5 60bd c680 8cbd 1ffc 9dbd
00000120: 230f 0d3e b7fc 1dbd b651 1b3e de09 663e
00000130: b587 26be b085 dfbd 90d0 4dbe 6580 30bc
00000140: d037 6e3d 671a c43d 3a0c 423e 0559 cc3c
00000150: c7b8 97bb 2e99 02be ca2a 63bd 8fda 75be
00000160: 6624 5dbc 49d1 4ebe dc11 043e 3ee5 46bd
00000170: 7900 573c e6c1 273e b20b 06be 3bbb 10be
00000180: 0fec 073e f7cf 8bbc 80e5 1e3e bb61 ac3c
00000190: 59f6 a43d ff40 9e3d b104 853e b842 903e
000001a0: d98b 9f3e 770c 083e ff94 533e 9750 483e
000001b0: c453 553e b53e e7bb 63bf 07ba 812b 8f3e
000001c0: f449 cb3b c0b1 093e cbc4 863d 6fb3 663e
000001d0: 08f4 763d c83a 923e b4a7 b83e e1ea 753e
000001e0: c0ff 723e c47b 6e3e 32bc 893e d59e a83e
000001f0: fe6c 753e 6947 463e 7183 6c3e dd22 843d
-0.05680621 0.11722992 0.34586844 0.24105655 -0.06771496 -0.11985871 0.23333223 0.053366568
0.16691087 -0.08706801 0.22885914 -0.052670557 0.16531204 0.29593346 0.2163568 -0.018393146
-0.003548859 0.026749011 0.15906851 -0.041766208 0.107358344 -0.10821259 0.14359042 0.23157619
0.0729212 0.12938645 0.07950064 -0.014144196 -0.15838669 0.12560028 0.27611482 -0.038340926
0.07113627 0.23636277 0.3992082 0.05664864 0.28635246 0.03365276 0.37167 0.07182097
0.28069925 0.28489143 0.2125681 0.10627765 0.19036335 0.1395467 0.02810509 0.3622205
0.1841431 0.4359801 0.34800953 0.37313056 0.08443821 0.31223816 0.1733772 0.3687407
0.14009365 0.2251555 0.35421893 0.18334089 0.18958989 0.31925705 0.2112518 0.46567562
0.15758106 0.035101235 -0.034706056 0.16242056 0.07466766 -0.054906785 -0.06860499 -0.07714104
0.13775305 -0.038571086 0.15167889 0.22464702 -0.16262706 -0.10914171 -0.20099092 -0.010772799
0.058158696 0.09575348 0.18949977 0.024944792 -0.0046301815 -0.12753746 -0.05546073 -0.24009155
-0.013497448 -0.20197023 0.12897438 -0.048558466 0.013122671 0.1638256 -0.13090399 -0.14133923
0.13273643 -0.017066939 0.15517235 0.021042695 0.080547996 0.07727241 0.25980142 0.28175902
0.31161383 0.13286005 0.20662306 0.19561993 0.20832735 -0.007057036 -0.000517836 0.27962878
0.0062038843 0.13446712 0.06580504 0.22529386 0.06029132 0.28560472 0.36065447 0.2401538
0.23730373 0.232894 0.26901394 0.3293368 0.23967358 0.19363178 0.23097016 0.06451962

lstm2.bias_hh_l0 f4 [128]
00000000: 8ee5 a63d 6909 733d be6c 073e 84ba 8a3e
00000010: b3d4 9f3c 7eb9 793d 87cc 6cbd 33d9 733e
00000020: ff64 5ebd 560b 033e b316 083c 5307 833e
00000030: 5254 e23c 66da 32bd de99 8c3e 2240 1d3e
00000040: fa6a e33d 17c9 b7bd cdd1 223e beb2 2b3e
00000050: 112c 53be 3629 003e 31f5 06be 9d33 5a3e
00000060: f0d5 3f3e 7c15 6fbc c56b 383e fe95 08be
00000070: 5344 47bd 41cd 823e ddc3 c53d c1b5 623d
00000080: c309 743e b728 983e c6f5 723e b04b b33d
00000090: ee6d b83d 8bf5 6a3d eeb0 cc3e 0282 733e
000000a0: 903a 853e 2be3 ac3e 7ca4 833e fa8f db3e
000000b0: 5d76 b23e 69f4 9d3e 48e6 9f3e 9e26 2f3e
000000c0: aa19 bc3e 5623 b33e e6f1 b33d 82cc fb3e
000000d0: b61d 7a3e 69d5 1b3e 6865 8a3e 43fd 5c3e
000000e0: 2ae8 bc3e 8b01 8f3d ec71 863e 3c52 693e
000000f0: e977 fa3d a0e7 023e 5bf2 123e d7da bc3e
00000100: b736 f83c 071c d63d 06d4 023e c754 4dbd
00000110: 708a ea3d 74de 0abc ba9f 00be 6794 9cbb
00000120: 0607 273e acaf 283e cca2 afbd bb54 f63d
00000130: 21d8 ad3c 0d62 c43d a998 373d 5aae da3d
00000140: 7c0a 0cbd 4e44 a7bd 091b 87bd 91fc 89bd
00000150: 69ee e8bd f347 33bc 9b20 f7bd 7719 7cbd
00000160: 2d52 82bd a6eb 12bb 6f30 c9bc f5ef 013e
00000170: 2431 803c a6d5 b5bc 9931 0b3c 10a2 00be
00000180: c768 5f3e d7a0 4c3e 00f0 013e d1ad c23d
00000190: 6667 4d3e 507c 8a3e 69e3 873e 53ed 803d
000001a0: 7062 3d3d 389b 0c3a 9857 553e 9085 df3c
000001b0: 2fc6 893e 161c a63e 51cd 233e 2c6a a23e
000001c0: 3d23 173e 0f6f 8b3e f094 a73e cc7c 7dbd
000001d0: ee8f 853c d555 e43c 4fba c63e 1c23 1f3e
000001e0: 3ba3 193e 98cc 2c3e a191 703e 7cb3 463d
000001f0: 7846 9b3d 393d f23d aaa9 cd3d 0311 b03d
0.08149253 0.059335146 0.13225076 0.27095425 0.019510603 0.060967915 -0.05781224 0.23813324
-0.054295536 0.12797293 0.008306193 0.25591525 0.027628098 -0.043665312 0.2746114 0.15356496
0.111043885 -0.08973902 0.15900345 0.16767403 -0.20622279 0.1251572 -0.1317947 0.21308751
0.18733954 -0.014592525 0.18009861 -0.13338467 -0.048649143 0.2554722 0.096564986 0.055349115
0.23831849 0.29718563 0.23726568 0.087546706 0.090053424 0.057363074 0.39978737 0.23780063
0.26021242 0.33767065 0.2571143 0.42883283 0.3485593 0.30850533 0.31230378 0.17104575
0.3673833 0.34987897 0.08786373 0.49179465 0.24425396 0.15218128 0.27030492 0.21580987
0.36895877 0.06982716 0.2625879 0.22785276 0.12229902 0.1278367 0.14350264 0.36885712
0.030299528 0.104545645 0.12776193 -0.050129678 0.11452186 -0.0084758885 -0.12560931 -0.004778433
0.16311273 0.16473264 -0.08575973 0.1202788 0.021221222 0.09589014 0.044823322 0.10677786
-0.034189686 -0.08167325 -0.065969534 -0.06737626 -0.11373598 -0.010942447 -0.12066766 -0.061547723
-0.0636333 -0.002241829 -0.024559228 0.12689193 0.015648432 -0.022196602 0.008495712 -0.12561822
0.21817313 0.1998323 0.12689209 0.09505809 0.20058975 0.27047968 0.26540688 0.06295266
0.046236455 0.00053637056 0.20834196 0.027285367 0.26909015 0.32443303 0.1599629 0.31721628
0.14759536 0.27233168 0.32730818 -0.061886594 0.016303983 0.02787296 0.38814017 0.15540737
0.15003674 0.16874921 0.23493053 0.048511013 0.075818 0.118280835 0.100421265 0.08596995

fc.weight f4 [6, 32]
00000000: 1562 22be 2a76 923e f05f 813e 3b29 73be
00000010: 482a 5b3e 6676 3dbe 7308 1fbe 696c 9d3e
00000020: b0a6 e3be a6d9 58bf 7c43 31be 3c4d 433e
00000030: fa59 60be e33a 543e 84c4 07bf 0300 7f3e
00000040: 699f 92be 5cbc bf3b b69b b73e dbd7 78be
00000050: e5a6 253e 2926 8bbc 3327 87bf 968a 96bd
00000060: 2971 87be 19cc 4fbe dd5b 04bf 6350 1bbf
00000070: 3010 ad3e e0a6 9abe 1010 313e ebb8 113f
00000080: 2b6a 7d3b 6cd0 9e3d 8202 76bf fcb4 f43d
00000090: 2e86 a73d 3e70 11be 63be 6c3e 96da f93d
000000a0: 1c67 773e 2905 a3be 6402 0bbe 454c 05bf
000000b0: a807 f23d ab0c 06bf 7ec6 a43c 2624 203e
000000c0: 6c24 2a3f 77e4 7a3c 188c a4be 833c b33e
000000d0: ea6c d63c 8819 783e fab0 353d 7523 1abe
000000e0: 6c3a 82be 2058 06bd 8faf e13d e815 d73c
000000f0: 62ee bebd dce1 d4be 8263 be3e 95e9 4abd
00000100: 05d8 643e f18d 213e b00b 2f3e 9819 2a3e
00000110: 5696 41bc 35c6 5abd f3f1 3bbe 3353 403d
00000120: e664 483e e3c6 a63e 1016 32be d64b e0bd
00000130: 4e31 293e 5075 8dbe aa46 b63d 6118 c43d
00000140: 39df c73e cfe7 ee3d 2215 b1be 485b 463e
00000150: cdde 5f3e c101 e2bc 6ac0 b03e 2abd 4bbe
00000160: 2f80 2abe a8be 523e 9dde 963d bdee 8f3e
00000170: a65a 8dbe 389c 873e 69c4 3cbe a00b f5bd
00000180: 6d6d 60be eb54 bbbe 0505 573d bce3 f03d
00000190: 4b51 2ebe 1fa6 dc3e 4f9a a53e 546a dfbe
000001a0: c57b 71bd 3f79 51bc a1fd e2bd bc3f 0bbd
000001b0: 3731 1bbd b66d b6bc 19fd 19be d5f5 b9be
000001c0: 0774 c6bd 7445 bdbe 8145 883e 5e7b 14be
000001d0: 8391 79be aeaf 28be 1c10 bebe 37fc 7e3f
000001e0: a799 e23e 0943 033e 9a45 25be ac1e c1be
000001f0: f613 80be 79aa a23d ae74 3c3e 3db2 403e
00000200: 63d0 7cbe 2720 a7bd ec52 8fbe 1771 693e
00000210: eb35 63be f39b 16bf f62e d13e 06ed 9a3d
00000220: cca2 01bf 5c12 c4be a4e1 693d 60f9 e23d
00000230: 70e5 b23e 189b 0c3e e5d9 0f3e f811 313e
00000240: ca0b 0fbe ff3b 5e3e cb80 ce3d 2f61 a7be
00000250: 0587 563e fd20 53be 999b 893e d307 a63e
00000260: e9ac d03e 7efe fa3e dae9 8d3d 5049 ee3e
00000270: f6f7 efbe 0131 213e d1ad 47be 6e1c 973e
00000280: bb04 88be e740 a0be 0a8d 373e a602 08be
00000290: 8251 9dbe fe2d f73e 2846 8fbd afc6 e0be
000002a0: d626 e93d 76ed f13d 92aa 0f3e e529 5e3d
000002b0: 4d52 2cbe 4b9b 363e c61a 42be bcbf 90be
000002c0: 9b2d 73be 3ad7 d53d e1da 7d3e 6ae5 97be
000002d0: 51c5 4abe 07cc 08be ada5 a83b 0444 353d
000002e0: bc53 053f 4bca 9ebe a481 09bb 1053 9abe
000002f0: 1e0c ce3e 34f5 6c3e fa59 1dbe 64c1 65bd
-0.15857728 0.28605777 0.25268507 -0.23746197 0.21402848 -0.18502197 -0.15530567 0.30746773
-0.4446311 -0.84707105 -0.173109 0.19072431 -0.21909323 0.20725589 -0.53034234 0.24902348
-0.28637245 0.0058513116 0.35860986 -0.24301092 0.16176946 -0.01698597 -1.0558838 -0.07350652
-0.26453522 -0.20292701 -0.5170267 -0.60669535 0.33801413 -0.3020544 0.17291284 0.5692279
0.0038668017 0.07754597 -0.96097577 0.119485825 0.081798896 -0.14202973 0.23119502 0.12199895
0.24160427 -0.31839874 -0.1357513 -0.52069503 0.118178666 -0.5236308 0.02011418 0.1563879
0.66461825 0.015313259 -0.32138133 0.35007104 0.026174981 0.2422849 0.04435823 -0.15052588
-0.25435197 -0.032798886 0.11019813 0.026255563 -0.09322812 -0.41578567 0.37185293 -0.049539167
0.2234803 0.15776803 0.17094302 0.16611326 -0.011815628 -0.05341168 -0.18354015 0.046954345
0.1956974 0.32573614 -0.17391229 -0.109519646 0.16522714 -0.27628565 0.08900197 0.095749624
0.39037493 0.11665308 -0.34586436 0.19370759 0.21862336 -0.027588727 0.345218 -0.19896379
-0.1665046 0.20580542 0.07366679 0.2811183 -0.27608222 0.26486373 -0.184343 -0.11965108
-0.21916743 -0.36588225 0.05249502 0.11762187 -0.17023198 0.4309549 0.3234429 -0.4363581
-0.058955926 -0.012785255 -0.11083532 -0.03399633 -0.03788873 -0.022269111 -0.15037955 -0.36320367
-0.09690099 -0.3696705 0.26615527 -0.14500186 -0.24371915 -0.16473266 -0.37121665 0.996036
0.44257852 0.1281854 -0.16139832 -0.37718713 -0.2501523 0.07942671 0.18403885 0.18817993
-0.24688868 -0.081604294 -0.27992952 0.22797047 -0.22188537 -0.5883171 0.4085614 0.0756474
-0.50639033 -0.38295257 0.057099953 0.11082721 0.34940672 0.13731039 0.14047964 0.17292011
-0.13969341 0.21702574 0.10083159 -0.32691333 0.20949943 -0.20618053 0.26876524 0.32427844
0.4075692 0.49022287 0.06929369 0.46540308 -0.46868867 0.1574135 -0.194999 0.29513878
-0.2656611 -0.31299517 0.17924896 -0.1328226 -0.30726248 0.48277277 -0.06995803 -0.43901584
0.113843605 0.1181287 0.14029911 0.054239172 -0.1682827 0.17832677 -0.18955526 -0.28271282
-0.23747866 0.10441442 0.24790527 -0.29667217 -0.19801833 -0.1335908 0.005146703 0.044254318
0.52080894 -0.31013712 -0.0020981813 -0.30141497 0.4024362 0.23140413 -0.15366355 -0.056092635

fc.bias f4 [6]
00000000: 3caf ab3d 0c4a bfbe 87a1 953e 5a3e 94bf
00000010: d94b a4be d20d 6fbd
0.08383033 -0.3736118 0.29224798 -1.1581528 -0.32089117 -0.05836279
