lstm/federated/federated_finetuned_member3.pt (torch, 124439 bytes, 10 tensors)

lstm1.weight_ih_l0 f4 [256, 3]
0.098479465 0.21637866 0.030489028 -0.03872111 -0.1683342 0.15493195 -0.06168624 -0.14369774
-0.0124153225 0.13469021 0.116327226 -0.2041282 0.30419323 0.23316033 0.20368852 0.207222
0.2214294 0.19306718 -0.13734795 -0.028642643 0.080959216 0.11087652 -0.457946 -0.4200403
-0.6615145 0.09669491 1.0036777 -0.14996456 0.060769685 -0.009343682 -0.24353264 -0.2112335
-0.08279727 -0.23210657 0.08535508 0.26292074 -0.32986757 -0.3433977 -0.13885704 -0.24261197
-0.08664987 0.19013926 0.12423248 0.16622421 0.30764022 0.5004694 0.5649685 0.61748385
0.16157775 0.16809998 0.23160873 -0.19398305 -0.18178464 -0.06752568 0.31797558 0.42347088
0.3433239 0.03824797 0.23852862 -0.29202822 -0.18038625 -0.16178158 0.0046596914 0.44682077
-0.32088074 -0.6515347 0.2501521 0.21430352 0.08548722 -0.009604428 0.09166891 0.040628824
0.1204244 0.11105539 0.264852 0.2194838 0.32294902 0.23649205 -0.28722128 -0.12349836
-0.061526664 0.2588883 0.1642357 0.18791544 -0.34326437 0.009904652 -0.094859295 -0.17540012
-0.3257081 -0.2228092 0.22037224 0.21154997 0.29303735 -0.13543244 0.13367394 0.065703176
0.41364384 0.37376848 0.12744375 0.23818016 0.22206828 0.28502965 -0.45265535 -0.5453674
-0.07848457 -0.16304037 -0.052101728 0.53315026 0.054867934 0.29649484 0.2547974 -0.40680525
-0.037213374 -0.27424547 -0.25090253 0.36111537 0.47301832 -0.373415 0.0125311455 -0.09542158
0.082794875 0.0862676 -0.044528045 -0.10088494 -0.28114444 -0.48152494 0.21112765 0.121120855
0.10062923 -0.46082988 0.44494757 0.2445879 -0.071542494 -0.051275898 0.3065562 -0.00866287
0.23337491 0.069166385 -0.35591602 -0.0304877 0.04867989 -0.23106651 0.0669291 -0.03355998
0.24487947 0.03012146 0.099317715 0.32849357 0.47698957 -0.15204467 0.21878114 -0.555415
-0.62314934 0.1832903 0.044571184 0.25899717 0.74545246 -0.14279813 -0.6368929 0.05786064
-0.1292273 -0.22161458 -0.15302798 -0.09703495 0.06930519 -0.24289459 -0.42003322 -0.24932964
0.48421192 0.20378038 0.05965653 -0.013432957 0.22225666 0.19377573 -0.43698704 -0.3962416
-0.100861706 -0.21254928 -0.047286157 -0.037153464 -0.30016997 -0.13942844 -0.14761633 -0.37607294
-0.11498273 0.24264291 0.26902765 -1.1899928 0.40931836 0.29117915 -0.017261757 0.2244244
0.0850601 0.04593864 0.20820273 0.03865243 -0.04840484 -0.1466723 -0.31585246 -0.3340927
-0.1103417 -0.43419766 -0.18698983 -0.15872371 -0.06462276 -0.042137254 0.09004428 0.03812997
0.14030024 0.10928718 0.031937636 -0.04589497 0.06374596 0.019144634 0.47581857 0.07555298
0.26702958 0.1188633 -0.08901101 -0.17342414 -0.2593997 -0.15254161 -0.123987906 0.030984018
-0.113345385 -0.036947034 -0.015317147 -0.108595856 0.40890568 0.19128563 -0.051611375 0.33714938
0.5849445 0.46014717 0.018443258 -0.31702322 -0.32608956 0.2450821 0.080995284 -0.03714589
-0.011509757 0.023743186 0.09146291 0.19623742 0.11841421 -0.046868164 -0.0074065947 -0.09800532
-0.06969015 -0.23103178 -0.2893601 -0.20351502 0.025604915 -0.011674665 -0.22499415 -0.42546275
00000000: 9aaf c93d 5e92 5d3e 20c4 f93c 079a 1ebd
00000010: cd5f 2cbe 7ba6 1e3e b6aa 7cbd 8025 13be
00000020: a369 4bbc 3bec 093e f83c ee3d fc06 51be
00000030: 37bf 9b3e 95c1 6e3e b993 503e 0132 543e
00000040: 63be 623e 67b3 453e f1a4 0cbe faa3 eabc
00000050: f2cd a53d 3b13 e33d e677 eabe 860f d7be
00000060: 0459 29bf fb07 c63d 8378 803f 4f90 19be
00000070: a2e9 783d 3e16 19bc 9f60 79be 984d 58be
00000080: 9d91 a9bd 58ad 6dbe a5ce ae3d 8c9d 863e
00000090: 67e4 a8be d3d1 afbe 8a30 0ebe 466f 78be
000000a0: 7d75 b1bd deb3 423e 996d fe3d ae36 2a3e
000000b0: 0583 9d3e c31e 003f c7a1 103f 6c13 1e3f
000000c0: a374 253e 6722 2c3e d72a 6d3e 7ea3 46be
000000d0: c125 3abe e74a 8abd b2cd a23e 2dd1 d83e
000000e0: 26c8 af3e e7a9 1c3d d940 743e b984 95be
000000f0: 2cb7 38be 12aa 25be 53b0 983b b1c5 e43e
00000100: 7b4a a4be faca 26bf f013 803e 6272 5b3e
00000110: ec13 af3d e45b 1dbc e9bc bb3d 696a 263d
00000120: 11a1 f63d 0271 e33d ae9a 873e 5cc0 603e
00000130: 9359 a53e f92a 723e ab0e 93be b5ec fcbd
00000140: 6203 7cbd 028d 843e 672d 283e e86c 403e
00000150: 59c0 afbe 1f47 223c 9745 c2bd 179c 33be
00000160: 36c3 a6be 1828 64be 43a9 613e 8ea0 583e
00000170: fe08 963e cdae 0abe d2e1 083e 638f 863d
00000180: 20c9 d33e 955e bf3e 9d80 023e 80e5 733e
00000190: de65 633e 68ef 913e 71c2 e7be 339d 0bbf
000001a0: 85bc a0bd 0ef4 26be 9f68 55bd 897c 083f
000001b0: 33bd 603d 2cce 973e ce74 823e c748 d0be
000001c0: 0d6d 18bd e769 8cbe 4c76 80be 1de4 b83e
000001d0: 752f f23e 4030 bfbe 6f4f 4d3c 646c c3bd
000001e0: 5c90 a93d 11ad b03d 0a63 36bd c39c cebd
000001f0: 2af2 8fbe 708a f6be d931 583e 360e f83d
00000200: b316 ce3d e5f1 ebbe 2bd0 e33e 4075 7a3e
00000210: df84 92bd ad06 52bd eff4 9c3e b6ee 0dbc
00000220: d5f9 6e3e 1ba7 8d3d a03a b6be 57c1 f9bc
00000230: 9064 473d b39c 6cbe 2012 893d 3176 09bd
00000240: afc1 7a3e 48c1 f63c 1667 cb3d 4f30 a83e
00000250: fa37 f43e 99b1 1bbe 2a08 603e ad2f 0ebf
00000260: b786 1fbf 74b0 3b3e 4690 363d 479b 843e
00000270: f9d5 3e3f ac39 12be 6a0b 23bf 47ff 6c3d
00000280: 2954 04be efee 62be 5eb3 1cbe 43ba c6bd
00000290: e1ef 8d3d 5cb9 78be 980e d7be 4550 7fbe
000002a0: a0ea f73e ceab 503e 685a 743d e815 5cbc
000002b0: 4097 633e 256d 463e c4bc dfbe 2ee0 cabe
000002c0: 9590 cebd 85a6 59be 21af 41bd 3b2e 18bd
000002d0: e1af 99be 54c6 0ebe bc28 17be a28c c0be
000002e0: 117c ebbd 6277 783e febd 893e af51 98bf
000002f0: 2d92 d13e 6f15 953e 8768 8dbc 83cf 653e
00000300: fd33 ae3d 282a 3c3d 1933 553e 0352 1e3d
00000310: 2744 46bd 4331 16be 6ab7 a1be 330e abbe
00000320: d4fa e1bd 284f debe 437a 3fbe 7888 22be
00000330: f058 84bd 1d98 2cbd 2369 b83d 2c2e 1c3d
00000340: deaa 0f3e f5d1 df3d 0ad1 023d 5dfc 3bbd
00000350: 3e8d 823d 35d5 9c3c 7e9e f33e 85bb 9a3d
00000360: 1ab8 883e 9a6e f33d 684b b6bd 1996 31be
00000370: 0ad0 84be de33 1cbe 5fed fdbd 32d2 fd3c
00000380: a021 e8bd c655 17bd c5f4 7abc 8167 debd
00000390: 165c d13e 61e0 433e 7366 53bd d89e ac3e
000003a0: ecbe 153f 6998 eb3e 5116 973c de50 a2be
000003b0: 36f5 a6be cdf6 7a3e dbe0 a53d 4a26 18bd
000003c0: 6b93 3cbc 1281 c23c e850 bb3d 76f2 483e
000003d0: 2683 f23d d5f8 3fbd 05b3 f2bb 03b7 c8bd
000003e0: b6b9 8ebd 9893 6cbe 0227 94be 3e66 50be
000003f0: 66c1 d13c 1847 3fbc de64 66be 41d6 d9be

lstm1.weight_hh_l0 f4 [256, 64]
-0.012586668 0.21381152 -0.060876943 0.034888238 -0.091117136 -0.064571716 0.16784136 0.034028593
0.024773901 0.042370252 -0.08243524 -0.19162743 -0.0036819212 0.027772743 -0.19330637 -0.10971343
0.1592579 0.09120236 0.2874117 0.040726587 -0.096160665 -0.03803346 -0.041278027 0.0210684
-0.28366694 -0.19014128 -0.0292861 -0.02155182 -0.14478527 0.104613684 0.07637626 -0.012588568
-0.13454735 -0.22423153 -0.171455 0.19013011 -0.14247753 -0.06371037 0.16298315 -0.13869877
0.19465525 -0.13382982 0.13270383 0.08620827 0.21914622 -0.22407886 -0.080771096 -0.22914718
-0.07803933 0.052702677 -0.0788428 0.03881483 0.020852244 -0.19628532 0.2127519 0.08047349
-0.101329185 -0.24221578 0.08629349 -0.07903811 0.101055704 -0.20449084 -0.16150758 0.15495665
0.050446507 -0.0014218889 -0.02052807 0.0688019 0.074538015 -0.04871769 -0.12761995 0.030313645
0.14676002 0.04175301 0.0031761741 0.067575194 0.062426124 0.10098341 0.12953319 -0.14885223
-0.15781417 0.0066435835 -0.13369772 -0.17382534 -0.120154016 0.01912234 0.10328032 0.09750543
0.065019354 0.13402206 -0.07208705 0.0675616 0.16791853 0.0004233351 -0.0018372386 -0.05827916
0.197751 0.13432734 0.10013764 -0.092593774 0.04287756 0.06341355 -0.11368918 -0.18104526
0.12684467 -0.059282128 0.079925336 0.10909175 0.033076968 0.15210205 -0.054246016 -0.036427516
-0.03897032 -0.030288605 -0.0307536 -0.09416073 -0.03452166 0.13084915 0.029349433 -0.03148279
0.031963624 0.13511303 -0.042881347 0.042037927 -0.0061272737 -0.033080474 -0.043188393 -0.060289238
-0.14837718 -0.07217815 -0.022059105 0.116932504 0.12017307 -0.001283379 -0.08772794 -0.038560566
0.082806155 0.10843895 -0.1512118 -0.13360183 0.15973204 0.2225808 0.2416512 -0.37911743
0.10213432 0.102890804 0.031400308 0.025512226 0.079859555 -0.2180186 -0.045220077 -0.06412493
-0.07062022 -0.044001795 0.0743435 -0.0098313 -0.007372288 -0.13077207 -0.23625098 0.071453385
0.21119113 0.14971721 0.16267644 0.08288298 -0.038453963 0.04736768 -0.16041577 -0.13349237
0.032483783 0.06027208 -0.0747305 -0.123213254 0.01435895 -0.0741956 0.09520927 0.0069467835
0.009085114 -0.23359497 0.04805881 -0.0902261 0.12209624 -0.15775654 -0.049267914 -0.07596781
-0.3035973 0.16612898 -0.051052097 0.02091158 0.121579215 -0.028180555 -0.016222967 0.040148184
0.0004863352 0.091893084 0.0391279 0.18467616 -0.035305735 0.11138426 -0.023677047 0.034814157
0.09503443 0.056152273 -0.03157572 0.087509766 0.17858237 0.11983396 0.18906601 0.020483308
-0.03674541 0.2778786 -0.20238626 -0.00620751 0.036438745 -0.066449255 0.18427105 -0.07382024
-0.004280305 0.010987813 -0.081287324 0.18081988 0.029918488 0.022072494 -0.29450035 -0.14308986
0.23951428 0.057091758 -0.019501928 -0.0019022933 -0.043093547 -0.010370965 -0.10969765 -0.05894175
-0.069530286 -0.11111273 0.030865567 -0.111249186 -0.012487564 -0.012631305 -0.014485933 -0.031721614
0.11599843 -0.023116497 -0.10257374 -0.04884741 0.15738778 0.077916 -0.08668357 0.13726136
-0.17475994 0.08783875 -0.19754581 -0.025451355 0.0321909 0.055725403 0.06046431 0.08792588
00000000: 5038 4ebc 68f1 5a3e 1a5a 79bd f8e6 0e3d
00000010: 9f9b babd 2d3e 84bd 9bde 2b3e 9161 0b3d
00000020: a3f2 ca3c 6e8c 2d3d cfd3 a8bd fb39 44be
00000030: 634c 71bb aa83 e33c 1bf2 45be 6fb1 e0bd
00000040: 8114 233e 4ec8 ba3d a027 933e ecd0 263d
00000050: e2ef c4bd f9c8 1bbd 2613 29bd a397 ac3c
00000060: cb3c 91be 65b4 42be 67e9 efbc 718d b0bc
00000070: 9742 14be b33f d63d 286b 9c3d 4840 4ebc
00000080: c8c6 09be f39c 65be e691 2fbe 78b1 423e
00000090: a1e5 11be 957a 82bd 0ee5 263e 0d07 0ebe
000000a0: b553 473e af0a 09be 83e3 073e f68d b03d
000000b0: de67 603e ee74 65be 516b a5bd 8fa5 6abe
000000c0: 16d3 9fbd c3de 573d 5578 a1bd 4dfc 1e3d
000000d0: 53d2 aa3c 05ff 48be a2db 593e 49cf a43d
000000e0: ad85 cfbd 6a07 78be a4ba b03d bcde a1bd
000000f0: 4bf6 ce3d 0c66 51be 3e62 25be f5ac 1e3e
00000100: ffa0 4e3d ad5e baba 7c2a a8bc 03e8 8c3d
00000110: 63a7 983d 338c 47bd ceae 02be 5254 f83c
00000120: 4248 163e 3405 2b3d 5c27 503b dd64 8a3d
00000130: 89b2 7f3d 64d0 ce3d 59a4 043e b86c 18be
00000140: 0a9a 21be 6bb2 d93b 0ee8 08be 45ff 31be
00000150: 4f13 f6bd 74a6 9c3c a284 d33d edb0 c73d
00000160: de28 853d 143d 093e 60a2 93bd bc5d 8a3d
00000170: d6f2 2b3e 13f3 dd39 7fcf f0ba 21b6 6ebd
00000180: 3d7f 4a3e 1b8d 093e f714 cd3d cea1 bdbd
00000190: 61a0 2f3d f7de 813d dfd5 e8bd ee63 39be
000001a0: 92e3 013e d1d1 72bd e5af a33d 7f6b df3d
000001b0: b77b 073d a4c0 1b3e 1231 5ebd 0535 15bd
000001c0: 589f 1fbd cf1f f8bc f9ee fbbc 57d7 c0bd
000001d0: 9666 0dbd 52fd 053e 396e f03c 19f4 00bd
000001e0: 4aec 023d 125b 0a3e 5aa4 2fbd f62f 2c3d
000001f0: 4cc7 c8bb 647f 07bd 50e6 30bd d9f1 76bd
00000200: 30f0 17be 23d2 93bd 4cb5 b4bc 4f7a ef3d
00000210: 4c1d f63d 0e37 a8ba b5aa b3bd aff1 1dbd
00000220: 4696 a93d 3d15 de3d 44d7 1abe ebce 08be
00000230: cc90 233e 39ec 633e 6a73 773e ae1b c2be
00000240: cc2b d13d 6ab8 d23d 9c9d 003d 04ff d03c
00000250: 688d a33d 4540 5fbe b038 39bd ee53 83bd
00000260: 55a1 90bd 3a3b 34bd 6841 983d 7613 21bc
00000270: 3c93 f1bb 1de9 05be c7eb 71be 2756 923d
00000280: 7d42 583e 784f 193e a794 263e 8dbe a93d
00000290: e781 1dbd 9d04 423d 0844 24be 39b2 08be
000002a0: b70d 053d dbdf 763d 4e0c 99bd 3b57 fcbd
000002b0: cd41 6b3c ddf3 97bd 14fd c23d d8a1 e33b
000002c0: bbd9 143c 8533 6fbe 51d9 443d 76c8 b8bd
000002d0: 980d fa3d ee8a 21be 27cd 49bd 0395 9bbd
000002e0: 1b71 9bbe b71d 2a3e 011c 51bd c34e ab3c
000002f0: 86fe f83d e8da e6bc 07e6 84bc 6c72 243d
00000300: cefa fe39 7132 bc3d 9444 203d bf1b 3d3e
00000310: bf9c 10bd 6e1d e43d 5ef6 c1bc 4a99 0e3d
00000320: 69a1 c23d edff 653d 8b55 01bd 5238 b33d
00000330: 4cde 363e 826b f53d 859a 413e 9ccc a73c
00000340: 5b82 16bd 1b46 8e3e 583e 4fbe 5e68 cbbb
00000350: cb40 153d 8c16 88bd 8db1 3c3e 112f 97bd
00000360: cd41 8cbb 3a06 343c f879 a6bd d928 393e
00000370: 9e17 f53c 60d1 b43c c0c8 96be 2686 12be
00000380: 3b43 753e 0cd9 693d 82c2 9fbc 5f56 f9ba
00000390: dc82 30bd fbea 29bc 29a9 e0bd e86c 71bd
000003a0: e565 8ebd 128f e3bd c9d9 fc3c 9dd6 e3bd
000003b0: a498 4cbc 88f3 4ebc 6856 6dbc 86ee 01bd
000003c0: 9690 ed3d cf5e bdbc 2e12 d2bd 3914 48bd
000003d0: 432a 213e 6c92 9f3d 2887 b1bd 3e8e 0c3e
000003e0: 45f4 32be cde4 b33d 7349 4abe 5c7f d0bc
000003f0: 9bda 033d 5240 643d 6da9 773d 7c12 b43d

lstm1.bias_ih_l0 f4 [256]
-0.08574721 0.0069941725 -0.1644564 -0.096038654 0.07540624 0.01786749 0.033233393 -0.0975183
-0.011931065 -0.09774573 -0.011529665 -0.013215991 -0.0723563 0.042520758 -0.007860931 0.010753037
0.16179599 0.0647084 -0.015368125 -0.04242941 -0.13461776 -0.024649147 -0.113498576 -0.05262104
-0.047390938 -0.17230836 0.14135782 -0.1617691 -0.02848175 -0.031536967 0.005381634 0.07883746
-0.16313398 0.063430905 -0.024744017 -0.010993458 0.0016923912 0.021756627 0.10183703 -0.024818748
-0.014585268 -0.10178763 0.056785345 -0.031679194 0.013241374 -0.051917046 0.014341321 0.039104134
-0.05471007 -0.017799303 0.11811776 0.09490356 -0.023864223 -0.008972862 0.071822435 -0.0659209
-0.011178485 0.0069813407 -0.067555666 -0.056309067 0.0943712 0.007296263 -0.22810745 -0.08123119
0.035542257 0.08846379 0.041290004 -0.03948147 -0.10086477 0.12566987 0.035082314 0.034631155
0.16523641 -0.0046934416 0.07947863 -0.05965069 0.17528714 -0.008115846 0.15453804 0.16260017
-0.018180206 0.13385026 0.2597158 -0.07445946 0.09225604 0.0525028 -0.010315436 -0.118064135
0.27576306 -0.030890683 -0.006087117 -0.13503252 -0.053213596 0.14668629 -0.09662421 0.06470462
0.021866439 -0.05326367 0.09762787 0.021721696 0.10336056 0.17773776 0.23946053 -0.022905191
-0.025417998 -0.03225383 -0.022448163 0.14486839 0.10526314 -0.039061725 0.00095981266 -0.03765343
-0.07626577 0.0071453997 0.07912048 0.051469017 -0.014961335 -0.06807598 -0.084110744 0.044673093
0.07545384 0.09378965 0.008912968 -0.037737995 -0.06731808 -0.096235655 0.09060179 0.09022226
-0.05620819 -0.09237578 -0.077977665 -0.012529303 -0.043009326 0.07261965 0.031926442 -0.017113844
-0.13602753 -0.04408319 0.108609036 0.13497534 -0.14832637 -0.10211112 -0.047605887 0.049666595
0.13223206 -0.11087233 0.10801914 0.13084541 0.05484573 -0.05370157 0.042819303 0.075452365
0.12958516 -0.0067014047 0.11428118 -0.09552042 0.08576299 -0.13708377 0.007520816 -0.08792242
0.10889847 0.012334256 -0.026335517 -0.07461382 0.045497075 -0.044971716 0.13245472 -0.053115845
0.09946511 -0.0021699958 0.09442445 0.08785583 -0.044096146 0.13531415 0.13372071 -0.03550563
0.051577043 -0.0027182575 0.08118681 -0.035201367 0.120649695 -0.03780064 0.024550512 -0.036263477
0.13666423 -0.056844737 0.15420094 -0.07899457 -0.046205238 0.1094479 0.081823714 -0.031773206
0.029381419 -0.043865956 0.005872259 0.111771286 0.03637757 -0.06368662 0.023455253 0.16986726
0.16027038 -0.12131721 -0.024044605 0.014197716 0.016020233 0.001785935 0.03790209 0.12363389
0.08089551 0.06917645 0.24658364 -0.026037045 -0.07922213 0.1071904 -0.1344573 -0.06550207
0.1610987 -0.11150591 0.09147158 -0.11692544 -0.020315565 0.07117313 0.080189504 -0.0423186
-0.074036784 0.018357087 0.047515124 -0.014599787 0.0675235 0.117772296 0.15923473 0.060247753
0.013000925 0.08114036 -0.12863134 0.063575886 -0.14725925 -0.042251598 0.041694187 -0.06451161
0.0058573796 0.1891517 0.22238068 0.16793598 0.08248815 0.0744265 -0.038318474 0.060350485
0.27914184 -0.012158793 0.16797501 -0.11288103 -0.011822077 -0.04828375 0.18690409 -0.11419518
00000000: 3c9c afbd 5f2f e53b 4267 28be eaaf c4bd
00000010: 966e 9a3d d85e 923c bd1f 083d adb7 c7bd
00000020: 837a 43bc ea2e c8bd ece6 3cbc e287 58bc
00000030: 8a2f 94bd 3f2a 2e3d 22cb 00bc 822d 303c
00000040: d9ad 253e d685 843d 97ca 7bbc 76ca 2dbd
00000050: 3dd9 09be 02ed c9bc f171 e8bd 2989 57bd
00000060: 001d 42bd 9a71 30be 1bc0 103e cda6 25be
00000070: 8f52 e9bc e82c 01bd 6b58 b03b 8975 a13d
00000080: 980c 27be 10e8 813d f7b3 cabc e81d 34bc
00000090: 3ad3 dd3a f43a b23c ef8f d03d b050 cbbc
000000a0: 0cf7 6ebc 0876 d0bd c097 683d 0bc2 01bd
000000b0: 59f2 583c f8a6 54bd dcf7 6a3c a82b 203d
000000c0: ab17 60bd d8cf 91bc b9e7 f13d cc5c c23d
000000d0: e77e c3bc e902 13bc a417 933d 8901 87bd
000000e0: f725 37bc bbc3 e43b a05a 8abd 56a4 66bd
000000f0: b045 c13d 7d15 ef3b 0095 69be 8a5c a6bd
00000100: c294 113d 812c b53d b51f 293d 52b7 21bd
00000110: 3092 cebd 9aaf 003e 79b2 0f3d 66d9 0d3d
00000120: bc33 293e 71cb 99bb b1c5 a23d 4854 74bd
00000130: 797e 333e 53f8 04bc 383f 1e3e a980 263e
00000140: a8ee 94bc 0b10 093e 78f9 843e 347e 98bd
00000150: bcf0 bc3d 2d0d 573d 1302 29bc 9ccb f1bd
00000160: d130 8d3e 750e fdbc 7076 c7bb f745 0abe
00000170: 80f6 59bd ee34 163e eae2 c5bd db83 843d
00000180: 3f21 b33c 022b 5abd 1ff1 c73d b3f1 b13c
00000190: b4ae d33d e300 363e 2435 753e aba3 bbbc
000001a0: 6839 d0bc 981c 04bd 36e5 b7bc 6158 143e
000001b0: 3394 d73d 30ff 1fbd f09b 7b3a 7c3a 1abd
000001c0: 3a31 9cbd f523 ea3b eb09 a23d 2dd1 523d
000001d0: 6320 75bc 6b6b 8bbd 4142 acbd 22fb 363d
000001e0: 8b87 9a3d ca14 c03d b307 123c 2893 1abd
000001f0: 10de 89bd 3317 c5bd 6e8d b93d 73c6 b83d
00000200: 8f3a 66bd 832f bdbd c1b2 9fbd b547 4dbc
00000210: 8c2a 30bd 9cb9 943d 4dc5 023d 5532 8cbc
00000220: cd4a 0bbe 9390 34bd 6a6e de3d fa36 0a3e
00000230: dee2 17be a31f d1bd 64fe 42bd 336f 4b3d
00000240: d767 073e 0811 e3bd 2439 dd3d 57fc 053e
00000250: eba5 603d 2df6 5bbd 4b63 2f3d c586 9a3d
00000260: f9b1 043e 7597 dbbb 400c ea3d 36a0 c3bd
00000270: 82a4 af3d b05f 0cbe 2d71 f63b ab10 b4bd
00000280: 2906 df3d 9f15 4a3c 95bd d7bc 21cf 98bd
00000290: 245b 3a3d 4334 38bd 36a2 073e 0090 59bd
000002a0: 5db4 cb3d 7d36 0ebb 9b61 c13d c2ed b33d
000002b0: 299e 34bd cb8f 0a3e 15ee 083e 5a6e 11bd
000002c0: 7342 533d cb24 32bb 4545 a63d 4f2f 10bd
000002d0: 3017 f73d d8d4 1abd 281e c93c 0389 14bd
000002e0: b5f1 0b3e 07d6 68bd dae6 1d3e e8c7 a1bd
000002f0: b441 3dbd 3826 e03d 3193 a73d 9f24 02bd
00000300: 4db1 f03c caac 33bd 146c c03b 58e8 e43d
00000310: a600 153d 216e 82bd 3b25 c03c aff1 2d3e
00000320: eb1d 243e 2875 f8bd 31f9 c4bc 899d 683c
00000330: dd3c 833c 0916 ea3a 393f 1b3d c433 fd3d
00000340: 8cac a53d 62ac 8d3d 6c80 7c3e a44b d5bc
00000350: 363f a2bd a486 db3d 2daf 09be f325 86bd
00000360: 0ff7 243e 365d e4bd 7455 bb3d 9b76 efbd
00000370: d46c a6bc 38c3 913d 653a a43d 4556 2dbd
00000380: 99a0 97bd 9a61 963c 389f 423d f233 6fbc
00000390: c349 8a3d 9a32 f13d 6e0e 233e 59c6 763d
000003a0: d501 553c eb2c a63d efb7 03be 1334 823d
000003b0: 21cb 16be 0310 2dbd 86c7 2a3d aa1e 84bd
000003c0: 43ef bf3b fcb0 413e c3b7 633e 69f7 2b3e
000003d0: 8cef a83d ec6c 983d d5f3 1cbd 1232 773d
000003e0: aeeb 8e3e ad35 47bc a401 2c3e 2b2e e7bd
000003f0: 63b1 41bc 2ec5 45bd c963 3f3e 2adf e9bd

lstm1.bias_hh_l0 f4 [256]
-0.051606297 -0.00422982 -0.11264491 0.10284863 0.030610938 0.1454318 -0.0042066327 -0.0050115027
0.025898652 -0.091318145 -0.018438878 0.028563745 -0.1000184 0.034247655 -0.043252937 -0.06405697
-0.0026606484 -0.05454527 0.0772678 -0.056316074 0.102714136 -0.069472045 -0.007029009 -0.037093654
0.09617383 -0.05674837 -0.0022378622 -0.06260972 0.0438914 -0.12862337 0.07928824 0.14656188
0.012193052 0.026009336 -0.1508665 0.043248296 -0.053665165 0.09735946 -0.093858145 0.010954569
0.142513 0.010465642 0.051669843 -0.09422561 -0.17811178 0.15353483 -0.033007547 -0.1477279
0.032908935 -0.04353547 0.032138582 0.1421712 -0.0071681803 0.021993997 0.018086841 -0.17046154
0.060095098 -0.023376437 -0.10482019 -0.014819034 0.10307229 -0.07890966 -0.19541234 -0.07221213
0.08717706 -0.07282036 0.07066399 -0.021922478 0.036547408 0.1658581 0.0642941 0.07543798
0.09831863 -0.025512986 0.10415613 -0.0039926954 0.15724687 0.03442255 -0.013762273 0.11677024
-0.041745003 -0.008051217 0.28369984 -0.034934968 -0.043827653 -0.02273373 0.15384245 0.11775792
0.08581588 0.020630315 0.11142525 -0.16105643 0.06625927 -0.07594657 -0.019500723 0.032651536
0.16426976 -0.026342638 0.1541894 -0.0540709 0.1552795 0.16498421 0.13000427 0.0061666914
0.059721597 -0.0052918904 0.07235045 0.14872044 -0.01857267 -0.07419094 -0.092908464 0.019068744
0.06060382 0.057251032 0.2657944 0.13408124 -0.0019369168 0.10842265 -0.005450863 0.12377651
-0.07153834 0.13912387 0.050402254 -0.008154108 0.1286091 0.046796117 0.09485182 -0.1431018
0.15388352 0.0043230015 0.082532115 0.040432572 -0.026225448 0.09395974 0.1572424 -0.120621085
-0.0645884 0.101310566 0.120027594 0.041337676 0.034046963 -0.11524913 0.1341793 0.10310623
-0.060030133 -0.09237744 -0.092715085 0.0040353704 0.065191746 -0.08731148 0.00082982297 -0.07814428
-0.022764066 -0.0472483 0.14808767 0.06170336 -0.11570098 0.038825355 -0.0694148 -0.12772276
0.05764896 0.067912795 -0.10880066 -0.051045883 -0.031348977 -0.07222757 0.009876914 0.08768506
0.017805718 0.043680098 -0.030835634 -0.11128587 -0.055303197 -0.025390662 -0.040630877 0.12529297
0.014794334 -0.020030994 0.1367235 0.07867534 -0.10336379 0.071794525 0.16048436 -0.10640694
-0.082234085 0.05029629 -0.016691783 -0.083897814 -0.05725442 -0.042600594 0.028935682 0.018526193
-0.032603957 0.023214176 0.034883067 0.098717704 0.008398511 -0.06389776 0.14686717 0.15413496
0.10342953 -0.21671462 0.0022762665 -0.015195387 0.17154172 -0.029183118 0.055988822 0.20552382
0.0439405 0.094116926 0.2533084 -0.06640571 0.021024514 0.14800909 -0.06810813 -0.113972306
-0.020964945 -0.1436079 0.1365415 0.053170595 0.03322822 0.060126696 0.029183464 -0.021527328
-0.05137256 0.04703703 -0.06420653 0.073630534 -0.04860577 -0.059952263 0.048598144 -0.005091276
-0.0049120393 -0.06398524 -0.11590757 0.10112493 -0.035459142 0.09271945 -0.14216901 0.0053214883
0.009339245 0.028724184 0.04125436 0.04642883 0.07855264 0.050361574 -0.046987686 0.07895784
0.09429796 -0.037866 0.0006210896 0.018409269 -0.013795637 0.052654035 0.20969255 0.049326036
00000000: 2061 53bd 4d9a 8abb 60b2 e6bd 4da2 d23d
00000010: cac3 fa3c 13ec 143e cbd7 89bb 8837 a4bb
00000020: 6929 d43c 0205 bbbd 210d 97bc 84fe e93c
00000030: 72d6 ccbd 4547 0c3d fe29 31bd 4d30 83bd
00000040: 465e 2ebb dc6a 5fbd 953e 9e3d afab 66bd
00000050: ca5b d23d 5c47 8ebd 9a53 e6bb 84ef 17bd
00000060: c9f6 c43d fb70 68bd 19a9 12bb 8639 80bd
00000070: 78c7 333d d8b5 03be df61 a23d 5114 163e
00000080: 5ec5 473c 8811 d53c bf7c 1abe 2025 313d
00000090: 01d0 5bbd 6664 c73d b338 c0bd cb7a 333c
000000a0: eeee 113e 1678 2b3c c2a3 533d 5bf9 c0bd
000000b0: ef62 36be 3c38 1d3e ec32 07bd fc45 17be
000000c0: 85cb 063d 4052 32bd bfa3 033d 5495 113e
000000d0: 0ee3 eabb c12c b43c db2a 943c 788d 2ebe
000000e0: 4726 763d f17f bfbc f8ab d6bd 89cb 72bc
000000f0: 9117 d33d 639b a1bd 2c1a 48be f4e3 93bd
00000100: e389 b23d d722 95bd 48b8 903d c596 b3bc
00000110: bcb2 153d b5d6 293e a0ac 833d 3a7f 9a3d
00000120: 475b c93d 9c00 d1bc cf4f d53d 28d5 82bb
00000130: 5305 213e a9fe 0c3d 287b 61bc 3c25 ef3d
00000140: cffc 2abd 40e9 03bc 1b41 913e f817 0fbd
00000150: a084 33bd 163c babc e088 1d3e 102b f13d
00000160: 3cc0 af3d e800 a93c ec32 e43d faeb 24be
00000170: f1b2 873d e089 9bbd fbbf 9fbc 9ebd 053d
00000180: 5536 283e 84cc d7bc d3e3 1d3e 7379 5dbd
00000190: 9701 1f3e 9ff1 283e d71f 053e f511 ca3b
000001a0: a29e 743d 9867 adbb 792c 943d 2c4a 183e
000001b0: b625 98bc 6bf1 97bd cb46 bebd 0e36 9c3c
000001c0: b63b 783d 0f80 6a3d 3416 883e 984c 093e
000001d0: 25e0 fdba b20c de3d 279d b2bb 8a7e fd3d
000001e0: b182 92bd 7d76 0e3e 9872 4e3d cf98 05bc
000001f0: 1bb2 033e 49ad 3f3d ac41 c23d 4789 12be
00000200: a493 1d3e f7a7 8d3b 9906 a93d a09c 253d
00000210: c0d6 d6bc f76d c03d 2704 213e 3008 f7bd
00000220: ec46 84bd ea7b cf3d 07d1 f53d b251 293d
00000230: d474 0b3d bc07 ecbd 4c66 093e 5c29 d33d
00000240: 28e2 75bd 6230 bdbd 68e1 bdbd 243b 843b
00000250: 4083 853d 5cd0 b2bd 7a88 593a 1c0a a0bd
00000260: b57b babc 6f87 41bd 4ba4 173e aabc 7c3d
00000270: a3f4 ecbd 5607 1f3d 5929 8ebd c1c9 02be
00000280: 5121 6c3d dd15 8b3d e1d2 debd 7d15 51bd
00000290: c967 00bd 0cec 93bd c8d2 213c 3a94 b33d
000002a0: 4cdd 913c e7e9 323d 039b fcbc d9e9 e3bd
000002b0: 9b85 62bd 1400 d0bc 906c 26bd cd4c 003e
000002c0: ef63 723c 0a18 a4bc 3f01 0c3e 8920 a13d
000002d0: 65b0 d3bd 0209 933d 0356 243e e2eb d9bd
000002e0: 586a a8bd 7c03 4e3d 35bd 88bc 9ed2 abbd
000002f0: 9c83 6abd f67d 2ebd 860a ed3c 3ec4 973c
00000300: ba8b 05bd a82b be3c 8ce1 0e3d 822c ca3d
00000310: e999 093c d4dc 82bd 5964 163e 8ed5 1d3e
00000320: ddd2 d33d 70ea 5dbe 6a2d 153b 13f6 78bc
00000330: a2a8 2f3e 6f11 efbc 8954 653d d674 523e
00000340: f4fa 333d 60c0 c03d a3b1 813e b8ff 87bd
00000350: 9a3b ac3c b28f 173e 467c 8bbd 506a e9bd
00000360: adbe abbc f30d 13be 89d1 0b3e 69c9 593d
00000370: 501a 083d 6947 763d 2912 ef3c 145a b0bc
00000380: 096c 52bd e7a9 403d b77e 83bd 9bcb 963d
00000390: d816 47bd 8190 75bd d90e 473d b8d4 a6bb
000003a0: 2cf5 a0bb b20a 83bd f360 edbd 961a cf3d
000003b0: 9b3d 11bd b2e3 bd3d c194 11be e15f ae3b
000003c0: a203 193c fb4e eb3c 55fa 283d 282c 3e3d
000003d0: 35e0 a03d f047 4e3d 2976 40bd a6b4 a13d
000003e0: 4a1f c13d 6119 1bbd 9ed0 223a 09cf 963c
000003f0: 1807 62bc c2ab 573d a5b9 563e 190a 4a3d

lstm2.weight_ih_l0 f4 [128, 64]
0.43280098 0.15979835 -0.012135954 0.07811069 -0.2764086 0.2663475 0.25520942 0.045731742
0.105486326 0.2852381 -0.053789265 0.15519573 0.11527512 -0.051354304 -0.10735281 -0.085849784
0.03441077 -0.011768042 0.020104676 -0.07360604 -0.28582093 -0.0051428257 0.16837294 0.013116987
-0.14903577 0.13332072 0.25718954 -0.35178262 -0.17701742 0.0026307679 0.09725902 -0.10515736
-0.037902668 -0.054712854 0.21548425 0.31113645 -0.05632992 -0.19497222 0.3728956 -0.07901656
0.14196919 -0.12773821 0.080264114 0.14300196 -0.13246027 0.011611779 0.113148876 -0.09897632
-0.17674495 0.11901501 -0.060095724 0.17718215 -0.030599365 0.020726353 0.24075885 0.13027331
-0.30084342 -0.2090601 -0.08815317 -0.3841898 -0.1497891 0.23961453 0.21742977 0.21546987
-0.08449834 0.05653615 -0.06434322 -0.14901175 0.098555684 -0.0013376094 0.14911537 -0.0011058885
-0.1759716 -0.17804155 0.16470222 -0.03205601 -0.20993371 -0.247354 -0.15114793 0.30308536
0.015579305 -0.32187146 0.01712155 -0.022428015 -0.09834614 0.13780406 0.004452929 -0.064188264
-0.051752824 -0.09604815 0.05830096 -0.12174928 -0.02779444 0.0433445 0.39576015 -0.1230015
-0.061834853 -0.10870309 0.02278327 0.025263114 -0.101564534 -0.0072338004 0.14280565 -0.035862558
0.1804671 0.14276314 0.11910556 0.054319397 -0.10381734 0.08450421 -0.049822636 0.15678293
-0.18972261 0.09511185 0.024919143 -0.05565321 -0.33145186 0.1598539 0.18912713 -0.1759866
0.43394226 0.024497814 0.112175666 0.051353008 0.0042875763 0.00015354343 -0.1337774 0.042109307
0.16502406 -0.19193189 0.09097635 0.15930627 0.05224611 0.15778565 0.023003388 -0.05419493
-0.3057012 0.16598164 -0.0091786 0.069605894 -0.09756396 0.037541077 0.21995875 -0.04276086
-0.068693765 -0.1530555 0.101543576 0.02662074 -0.004694708 -0.072723016 0.10403494 0.0007545482
-0.054543342 0.06735149 0.028820252 0.05787874 0.06378323 0.23487908 0.055248503 -0.16523041
0.045338005 -0.1751666 -0.033443585 0.118209265 0.014490018 0.22553554 0.13666712 0.23460047
0.062063005 -0.046375982 -0.010723187 -0.22516844 -0.08420897 0.123671316 0.23222293 0.1292812
0.14375393 -0.073049404 0.120738536 0.15257812 0.18768413 0.11527834 0.1629488 0.30909693
-0.034654114 -0.13640906 0.059549253 -0.05326378 0.17419179 0.21920869 0.10559402 -0.0954444
0.18081366 -0.27892295 -0.083560854 0.2749637 -0.035873454 0.06552619 0.16130818 0.09181136
-0.23722875 -0.10868248 0.19054575 0.04331155 0.04372839 0.046483427 0.043930717 -0.050085492
0.08091898 0.055713464 0.060740426 0.23744304 0.30201152 0.100307584 -0.18188883 0.1652709
-0.052272525 -0.01600583 0.21453643 0.06981728 -0.17384253 -0.054644782 -0.22352126 -0.3297838
0.16611728 0.16797213 -0.14835145 -0.08810961 0.05703313 0.045459118 -0.08565559 0.092654966
-0.19543542 0.012579495 -0.14921112 -0.2262449 -0.28367096 0.2354953 0.13771573 0.079105064
-0.009655596 -0.00013867153 0.08261631 0.05324805 0.3449667 0.011576419 -0.04677357 0.13886221
0.10436177 0.12815069 0.53762186 0.076769635 -0.20152535 0.08731359 -0.25644964 -0.17760548
00000000: 1798 dd3e 2ea2 233e e1d5 46bc 7ff8 9f3d
00000010: 6e85 8dbe b35e 883e cfaa 823e 3551 3b3d
00000020: 3709 d83d ba0a 923e 2252 5cbd a1eb 1e3e
00000030: 5d15 ec3d e458 52bd cadb dbbd 03d2 afbd
00000040: 4ff2 0c3d bfce 40bc 90b2 a43c c3be 96bd
00000050: 1f57 92be 2685 a8bb f569 2c3e a2e8 563c
00000060: d59c 18be 3a85 083e 59ae 833e da1c b4be
00000070: 0e44 35be f668 2c3b bd2f c73d be5c d7bd
00000080: d43f 1bbd 961a 60bd e7a7 5c3e 474d 9f3e
00000090: 34ba 66bd cca6 47be 2cec be3e 6fd3 a1bd
000000a0: 5f60 113e cecd 02be 8361 a43d 1b6f 123e
000000b0: aaa3 07be 553f 3e3c 99ba e73d 19b4 cabd
000000c0: a1fc 34be 24be f33d ef26 76bd 3d6f 353e
000000d0: 85ab fabc 50ca a93c 7d89 763e 5e66 053e
000000e0: 2608 9abe da13 56be a689 b4bd 87b4 c4be
000000f0: 5062 19be 835d 753e e9a5 5e3e 22a4 5c3e
00000100: 770d adbd 7392 673d 61c6 83bd 8996 18be
00000110: 90d7 c93d b952 afba b3b1 183e 76f3 90ba
00000120: e631 34be 8650 36be b3a7 283e 2a4d 03bd
00000130: ddf8 56be 5e4a 7dbe 86c6 1abe 012e 9b3e
00000140: 5740 7f3c 56cc a4be 7e42 8c3c f5ba b7bc
00000150: b369 c9bd 821c 0d3e e0e9 913b 2375 83bd
00000160: c5fa 53bd e4b4 c4bd fdcc 6e3d b057 f9bd
00000170: 2ab1 e3bc 018a 313d 13a1 ca3e 36e8 fbbd
00000180: 8b46 7dbd ba9f debd fba3 ba3c 97f4 ce3c
00000190: 1101 d0bd 8409 edbb a53b 123e 9ee4 12bd
000001a0: 5ecc 383e 8030 123e 9eed f33d 047e 5e3d
000001b0: 309e d4bd 8b10 ad3d d212 4cbd b48b 203e
000001c0: a546 42be 00ca c23d 3b23 cc3c 9ff4 63bd
000001d0: 0fb4 a9be beb0 233e 8baa 413e d535 34be
000001e0: ae2d de3e a4af c83c 5bbc e53d 8857 523d
000001f0: cc7e 8c3b 8000 2139 f1fc 08be cf7a 2c3d
00000200: 11fc 283e cb89 44be cf51 ba3d 2f21 233e
00000210: 0400 563d 9092 213e 9a71 bc3c 81fb 5dbd
00000220: de84 9cbe 17f7 293e d761 16bc 898d 8e3d
00000230: 9dcf c7bd acc4 193d de3c 613e 0326 2fbd
00000240: 51af 8cbd 95ba 1cbe 14f6 cf3d bd13 da3c
00000250: 11d6 99bb ceef 94bd 4510 d53d dfcc 453a
00000260: d768 5fbd 94ef 893d 7318 ec3c 4212 6d3d
00000270: c8a0 823d 2484 703e 414c 623d 2932 29be
00000280: 58b4 393d e05e 33be 24fc 08bd b317 f23d
00000290: 8a67 6d3c caf2 663e 77f2 0b3e 1b3b 703e
000002a0: c735 7e3d bef4 3dbd 4eb0 2fbc 8e92 66be
000002b0: c175 acbd 6347 fd3d d9cb 6d3e 4a62 043e
000002c0: 3b34 133e ed9a 95bd c445 f73d 703d 1c3e
000002d0: 4530 403e 0d17 ec3d 0ddc 263e f441 9e3e
000002e0: 79f1 0dbd d1ae 0bbe ebe9 733d 1f2b 5abd
000002f0: 555f 323e 3e78 603e ad41 d83d 5b78 c3bd
00000300: 3727 393e fdce 8ebe f421 abbd 0bc8 8c3e
00000310: 0bf0 12bd 9832 863d f92d 253e 9807 bc3d
00000320: 18ec 72be ec94 debd 6d1e 433e 7467 313d
00000330: 8a1c 333d 6865 3e3d b2f0 333d 7226 4dbd
00000340: dab8 a53d cd33 643d f4ca 783d 4524 733e
00000350: 41a1 9a3e 106e cd3d 1141 3abe c63c 293e
00000360: b71b 56bd a91e 83bc 70af 5b3e 5dfc 8e3d
00000370: c703 32be 35d3 5fbd c2e2 64be 6cd9 a8be
00000380: a61a 2a3e e300 2c3e 71e9 17be d072 b4bd
00000390: 929b 693d 5733 3a3d 336c afbd e3c1 bd3d
000003a0: 3920 48be 3a1a 4e3c cdca 18be beac 67be
000003b0: 523d 91be ae25 713e 5a05 0d3e d601 a23d
000003c0: 8132 1ebc 5b68 11b9 bd32 a93d a11a 5a3d
000003d0: 7a9f b03e 05ab 3d3c a595 3fbd e531 0e3e
000003e0: a0bb d53d ef39 033e 96a1 093f 6639 9d3d
000003f0: a95c 4ebe 78d1 b23d 5e4d 83be 36de 35be

lstm2.weight_hh_l0 f4 [128, 32]
-0.10101599 0.111993134 -0.24305677 0.061743986 0.24509685 0.15465392 -0.21328203 -0.24731359
-0.16466865 0.19929357 0.027987227 -0.09788398 0.1280825 0.14931539 -0.07084685 0.20095609
-0.13553652 -0.09622959 0.22267886 -0.091028206 0.0009623145 -0.45195898 0.030445943 -0.08962524
0.14994597 -0.06638477 -0.24373312 0.3047988 0.058615413 0.061293732 0.07805962 0.23459084
0.20043872 -0.012575402 0.015315192 0.04665002 0.12258109 -0.20721346 -0.035757795 0.048587516
-0.15377523 0.17718402 -0.009386079 0.24087952 0.038439244 0.15606813 0.17612496 0.1133518
-0.024490643 0.012608808 0.117371954 0.08618683 -0.13473824 0.11228425 -0.0397889 -0.111552484
-0.18915139 -0.11873799 -0.060592476 0.19554295 -0.14589484 0.22268781 -0.12655908 0.10568511
0.031403475 -0.039904375 -0.10142004 -0.05899421 -0.064034194 -0.028751401 -0.16889818 -0.20469102
-0.18542117 0.1885855 0.12383481 0.13001458 0.20254879 -0.04901084 0.16597691 -0.09769534
0.004279421 -0.0110167945 -0.0129924165 0.25201872 0.20908536 -0.07119855 -0.017497173 0.039363205
-0.060156565 0.061992597 0.05753921 -0.040327318 -0.15165982 -0.09678072 0.21121912 0.12784034
-0.1432549 0.07503138 0.26055986 -0.10021887 0.17335823 -0.149192 -0.1467861 -0.1648644
-0.033663973 0.013790814 -0.29245716 0.025686672 -0.21047595 0.2346254 -0.25288752 0.055959333
0.09507968 0.0134342965 -0.22636573 0.2452954 0.04877412 0.1481777 0.040595125 0.20798267
-0.041315548 0.2902787 -0.1621731 0.14431073 0.19740042 -0.02753955 -0.4745566 -0.010717666
0.08277181 -0.17686674 -0.13870904 0.02716405 0.20055196 0.051664658 -0.2182902 0.07664734
0.22230354 0.17228796 0.2565802 0.1897761 -0.33027038 0.24585572 0.24226028 -0.04371347
-0.39378157 0.02711035 0.19793096 -0.0076508494 0.13561216 -0.08056043 -0.061538193 0.016473394
0.27860355 0.14547674 -0.21051869 -0.0034345002 -0.29682058 0.2934692 0.03431392 -0.25848302
-0.1879406 0.17642839 -0.14732836 -0.13003752 0.2580772 -0.4104717 -0.049282137 -0.0612341
-0.3048397 0.27301812 -0.086973615 -0.02054041 0.26837245 0.23533404 0.028809682 -0.13126172
0.12616964 0.19681416 0.015371316 0.9879123 -0.1414076 -0.21392728 -0.023260172 -0.13637865
-0.22564209 -0.14426304 -0.029964674 -0.10776572 0.2991343 -0.06444573 -0.19516937 0.13240846
-0.0543473 -0.06570208 -0.020278018 -0.18252441 0.34986544 -0.18698777 -0.05859089 -0.10836674
-0.10298147 0.23864722 -0.21062084 0.1788192 0.26277998 0.3222724 0.16096583 0.0722519
-0.07931438 0.07664106 -0.1495132 -0.12697499 -0.069228254 0.063955404 0.22244981 -0.11092952
-0.15567166 -0.19220318 -0.04041742 0.11776642 -0.14812751 0.20524211 0.20959134 0.2521775
0.16102847 -0.147232 -0.18946984 -0.21237753 0.3505451 0.02619807 -0.11742957 0.13919652
-0.28401148 0.19728483 0.021955213 -0.10309785 0.20403759 0.1426292 -0.04859389 0.12650107
-0.26914018 -0.095082216 -0.026957491 0.09839573 0.026906958 -0.3397113 -0.1108079 0.303335
0.33454013 -0.29112253 -0.13261016 0.2528725 -0.12185717 0.3553513 -0.0360565 0.11652776
00000000: 79e1 cebd a85c e53d e0e3 78be 43e7 7c3d
00000010: abfa 7a3e 995d 1e3e 9b66 5abe c63f 7dbe
00000020: e69e 28be 9d13 4c3e 7845 e53c 6577 c8bd
00000030: 0f28 033e 22e6 183e 2718 91bd 6fc7 4d3e
00000040: 16ca 0abe 0514 c5bd ed05 643e ff6c babd
00000050: d543 7c3a 2b67 e7be c569 f93c 708d b7bd
00000060: 708b 193e bdf4 87bd 2d95 79be 970e 9c3e
00000070: b716 703d 230f 7b3d b9dd 9f3d 9538 703e
00000080: cf3f 4d3e 0f09 4ebc 92ec 7a3c 1714 3f3d
00000090: cb0b fb3d c42f 54be c476 12bd b403 473d
000000a0: 4177 1dbe ba6f 353e 12c8 19bc 1fa9 763e
000000b0: 7872 1d3d 53d0 1f3e 1a5a 343e fd24 e83d
000000c0: 9aa0 c8bc 2d95 4e3c b560 f03d b982 b03d
000000d0: d2f8 09be 49f5 e53d b0f9 22bd a175 e4bd
000000e0: e7b0 41be e72c f3bd d12f 78bd 693c 483e
000000f0: 7565 15be 4608 643e b498 01be 6f71 d83d
00000100: eea0 003d c572 23bd 4fb5 cfbd eaa3 71bd
00000110: 5c24 83bd 0f88 ebbc a5f3 2cbe 869a 51be
00000120: 0cdf 3dbe 8f1c 413e 1b9d fd3d 8b22 053e
00000130: f368 4f3e 97bf 48bd daf5 293e 7f14 c8bd
00000140: 633a 8c3b c97f 34bc 25de 54bc 9908 813e
00000150: 791a 563e 8cd0 91bd 3b56 8fbc 503b 213d
00000160: bb66 76bd f3eb 7d3d 3cae 6b3d 422e 25bd
00000170: b64c 1bbe f834 c6bd d349 583e 94e8 023e
00000180: 6ab1 12be 0daa 993d 1a68 853e 8d3f cdbd
00000190: d284 313e cac5 18be 184f 16be 37d2 28be
000001a0: 3ce3 09bd def2 613c f2bc 95be db6c d23c
000001b0: 0287 57be a441 703e 797a 81be 9d35 653d
000001c0: 23b9 c23d 861b 5c3c 6bcc 67be b82e 7b3e
000001d0: 5fc7 473d e5bb 173e 1347 263d 69f9 543e
000001e0: 7e3a 29bd 699f 943e b510 26be 31c6 133e
000001f0: 5623 4a3e 9f9a e1bc 15f9 f2be 2699 2fbc
00000200: 4484 a93d 8e1c 35be be09 0ebe 2487 de3c
00000210: 7e5d 4d3e 529e 533d 7787 5fbe 48f9 9c3d
00000220: 8aa3 633e 416c 303e 7b5e 833e aa54 423e
00000230: 3319 a9be 9ac1 7b3e 1413 783e e50c 33bd
00000240: bd9d c9be 8616 de3c 6aae 4a3e fab3 fabb
00000250: eadd 0a3e defc a4bd 790f 7cbd 36f3 863c
00000260: 20a5 8e3e dbf7 143e 3692 57be 5a15 61bb
00000270: def8 97be 9841 963e c18c 0c3d e357 84be
00000280: 8073 40be a5a9 343e 3fdd 16be 8e28 05be
00000290: b222 843e 5929 d2be 11dc 49bd 9cd0 7abd
000002a0: f313 9cbe 08c9 8b3e 391f b2bd 5d44 a8bc
000002b0: 1d68 893e 68fb 703e 4802 ec3c 7969 06be
000002c0: 9d32 013e a789 493e f9d7 7b3c d2e7 7c3f
000002d0: 27cd 10be c10f 5bbe 1e8c bebc d8a6 0bbe
000002e0: b80e 67be b1b9 13be 7a78 f5bc 46b4 dcbd
000002f0: 2228 993e 1ffc 83bd 7bda 47be 1596 073e
00000300: 469b 5ebd d08e 86bd 161e a6bc aee7 3abe
00000310: 9021 b33e b979 3fbe 00fd 6fbd 62ef ddbd
00000320: f3e7 d2bd f05f 743e fdac 57be 611c 373e
00000330: 198b 863e e300 a53e 3ad4 243e cef8 933d
00000340: 946f a2bd fdf5 9c3d fd19 19be bb05 02be
00000350: 8bc7 8dbd 0dfb 823d e2c9 633e 042f e3bd
00000360: 6468 1fbe e9d0 44be bd8c 25bd 852f f13d
00000370: bdae 17be fd2a 523e 1d9f 563e 691d 813e
00000380: a6e4 243e fcc3 16be 6204 42be 7f79 59be
00000390: a67a b33e 569d d63c ea7e f0bd 8889 0e3e
000003a0: f469 91be 0905 4a3e 6bdb b33c f724 d3bd
000003b0: 3bef 503e 640d 123e 630a 47bd 7f89 013e
000003c0: becc 89be 77ba c2bd f5d5 dcbc b383 c93d
000003d0: fb6b dc3c a4ee adbe 41ef e2bd ba4e 9b3e
000003e0: d848 ab3e 030e 95be f5ca 07be 8178 813e
000003f0: 4090 f9bd 9bf0 b53e fbaf 13bd 1ba6 ee3d

lstm2.bias_ih_l0 f4 [128]
0.13932814 -0.09914 0.15483177 0.30100194 0.00052772247 0.08473169 0.20419984 0.036956053
0.13927773 -0.10012517 -0.180186 0.128833 0.038635418 0.11707636 -0.117027424 0.017393466
0.14794901 0.08651099 0.1621799 -0.009421795 0.11199797 0.07766069 -0.09326224 -0.02171889
0.07375619 -0.08155038 0.06625936 -0.050231494 0.30238804 -0.15935354 -0.10074255 -0.17324781
-0.01639787 0.17228809 0.0605307 -0.0114331385 0.30475098 0.16859148 0.23578875 0.25868613
0.22505434 0.08899448 0.12831657 0.1931242 0.22729816 0.14155911 0.25862485 0.1260196
0.17083588 0.24015854 0.34721544 0.23013465 0.14879505 0.1916845 0.28468063 0.14082643
0.2145058 0.004703982 0.018033141 0.34069863 0.19024068 0.14983593 0.09681133 0.4156395
0.047469974 0.16941935 -0.06665358 0.05823331 0.092506155 0.031242695 -0.20781665 0.0049867947
-0.1082018 0.06906877 -0.008873289 0.028022725 0.04819934 0.04753714 0.06726208 0.089565955
-0.07908894 -0.019041901 0.04785778 0.08375437 0.15826738 0.11045239 0.016753387 0.121792406
0.11675322 -0.043412708 -0.08622059 -0.15762499 0.21024433 0.09448982 -0.0674826 0.19686848
0.2570917 0.12450131 0.11619381 0.19814466 0.18228498 -0.071181685 0.08673919 0.12688638
0.14327636 -0.06247134 0.20062163 0.11922122 0.12680845 0.20248829 0.33863747 0.07899147
0.09312777 0.3201654 0.37566182 -0.010183826 0.26595828 0.11809523 0.04156186 0.31824076
0.21011801 0.24141307 0.30962527 -0.09141091 0.17905942 -0.0366765 0.23798603 0.016631218
00000000: 09ac 0e3e ea09 cbbd 388c 1e3e ed1c 9a3e
00000010: db56 0a3a cf87 ad3d c319 513e 3b5f 173d
00000020: d29e 0e3e 6d0e cdbd ae82 38be ccec 033e
00000030: 2c40 1e3d bbc5 ef3d 13ac efbd be7c 8e3c
00000040: f27f 173e ad2c b13d 7d12 263e df5d 1abc
00000050: 315f e53d 910c 9f3d 4600 bfbd d0eb b1bc
00000060: 7c0d 973d e303 a7bd fdb2 873d 8abf 4dbd
00000070: 9bd2 9a3e 932d 23be 1c52 cebd e067 31be
00000080: d354 86bc 4a6c 303e 0aef 773d 0f52 3bbc
00000090: 5208 9c3e 3fa3 2c3e 9b72 713e 8272 843e
000000a0: a574 663e bd42 b63d 6b65 033e 5ac2 453e
000000b0: d9c0 683e dff4 103e 7a6a 843e 480b 013e
000000c0: 9aef 2e3e 1fec 753e 39c6 b13e 6ba8 6b3e
000000d0: bb5d 183e f148 443e a9c1 913e ce34 103e
000000e0: 69a7 5b3e dc23 9a3b 3dba 933c 0d70 ae3e
000000f0: 74ce 423e 976e 193e 0545 c63d b3ce d43e
00000100: e06f 423d 447c 2d3e ac81 88bd 0d86 6e3d
00000110: de73 bd3d aef0 ff3c e3cd 54be 4468 a33b
00000120: e898 ddbd ed73 8d3d 4661 11bc ea8f e53c
00000130: ac6c 453d 4eb6 423d b4c0 893d 5b6e b73d
00000140: 62f9 a1bd c3fd 9bbc 8506 443d 6987 ab3d
00000150: d810 223e dd34 e23d 663e 893c 4c6e f93d
00000160: 501c ef3d 86d1 31bd 6c94 b0bd 7268 21be
00000170: 4a4a 573e e183 c13d 5134 8abd e497 493e
00000180: 86a1 833e 8bfa fe3d 05f7 ed3d 6fe6 4a3e
00000190: eaa8 3a3e b4c7 91bd 51a4 b13d 81ee 013e
000001a0: 0ab7 123e f3e1 7fbd c26f 4d3e 412a f43d
000001b0: 13da 013e 1759 4f3e e461 ad3e 48c6 a13d
000001c0: c6b9 be3d b8ec a33e bf56 c03e 10da 26bc
000001d0: af2b 883e e9db f13d c53c 2a3d 74f0 a23e
000001e0: 2d29 573e fd34 773e 3487 9e3e a535 bbbd
000001f0: 5a5b 373e 193a 16bd 9cb2 733e 313e 883c

lstm2.bias_hh_l0 f4 [128]
0.18699753 0.16231123 0.19895664 0.23653726 -0.12271666 0.043863993 -0.113951296 -0.025232367
0.118058376 0.14714636 -0.26186538 0.1888616 -0.09146003 0.075140975 0.012228319 0.12871802
0.098721154 -0.06006409 0.13866661 0.09220747 0.105370566 0.0036568977 0.057759866 0.11683632
-0.1369535 0.008193858 0.09180174 0.047976386 0.07288888 -0.059430923 -0.0870455 -0.048782364
0.16004579 0.3183926 0.17034644 0.29908064 0.15768282 0.05446044 0.098165974 0.17690118
0.049548835 0.32047594 0.13588518 0.31291443 0.29422113 -0.010899796 0.28399768 0.019520542
0.0016181068 0.3109977 0.21069017 0.23537026 0.23389165 0.045978125 0.516265 0.14099501
0.16075112 -0.030253347 0.14405562 0.2531192 0.09701687 0.3873648 0.0068695303 0.4340786
0.1332636 0.003785265 -0.007902369 -0.089712776 0.11338171 0.043887112 -0.01914074 -0.21652201
-0.109277226 0.08644448 -0.15075183 0.21764666 0.0026337656 0.0050320076 0.09239854 -0.08159418
0.03478449 -0.08301251 -0.2268028 0.11509739 0.07666431 -0.093192264 -0.04111232 0.20905776
0.037977792 -0.1268719 -0.04412613 0.14093861 -0.024439823 0.04683726 0.11666204 0.13216963
0.088533886 0.20246217 0.19712523 0.45303327 -0.034698527 0.05264493 -0.092931464 0.3083956
-0.07261957 0.21152164 0.11276789 0.23264953 0.09647593 0.115978226 0.3632995 0.16917837
0.055022795 0.39029044 0.14589371 0.17519273 0.23087822 0.10415419 0.020693528 0.19062959
0.11567571 0.09047925 0.3935201 0.1262727 0.10573626 -0.03514457 0.18184763 0.27770913
00000000: 487c 3f3e ea34 263e 4abb 4b3e d336 723e
00000010: df52 fbbd bbaa 333d 4c5f e9bd 1cb4 cebc
00000020: 97c8 f13d 89ad 163e 3813 86be ef64 413e
00000030: 654f bbbd 83e3 993d 4a59 483c a8ce 033e
00000040: 512e ca3d c305 76bd 9ffe 0d3e 45d7 bc3d
00000050: 86cc d73d 90a8 6f3b 9c95 6c3d e147 ef3d
00000060: 8a3d 0cbe 883f 063c 8d02 bc3d e382 443d
00000070: c446 953d d76d 73bd e944 b2bd 04d0 47bd
00000080: 0be3 233e 5b04 a33e 4c6f 2e3e 1921 993e
00000090: 9b77 213e e911 5f3d 3e0b c93d 9525 353e
000000a0: b8f3 4a3d 6c15 a43e 7c25 0b3e 5236 a03e
000000b0: 27a4 963e 0f95 32bc 2568 913e 8be9 9f3c
000000c0: a816 d43a 173b 9f3e 2abf 573e e704 713e
000000d0: 4b81 6f3e 8f53 3c3d f129 043f ff60 103e
000000e0: f19b 243e ded5 f7bc 5183 133e d798 813e
000000f0: c8b0 c63d ae54 c63e cc19 e13b 8d3f de3e
00000100: 4176 083e 3512 783b f078 01bc 55bb b7bd
00000110: ac34 e83d f9c2 333d 0bcd 9cbc f2b7 5dbe
00000120: bdcc dfbd ce09 b13d b05e 1abe c4de 5e3e
00000130: 419b 2c3b 8ae3 a43b 723b bd3d d91a a7bd
00000140: 2e7a 0e3d 7602 aabd fe3e 68be 2eb8 eb3d
00000150: 2e02 9d3d 96db bebd 6465 28bd 3d13 563e
00000160: 9a8e 1b3d b5ea 01be 9abd 34bd 3652 103e
00000170: 0636 c8bc 6dd8 3f3d 82ec ee3d 7a57 073e
00000180: 4151 b53d 3e52 4f3e 32db 493e faf3 e73e
00000190: 0b20 0ebd 36a2 573d da52 bebd 07e6 9d3e
000001a0: 92b9 94bd 2199 583e daf2 e63d ae3b 6e3e
000001b0: 2c95 c53d fe85 ed3d 6402 ba3e 183d 2d3e
000001c0: 955f 613d 26d4 c73e 2965 153e b965 333e
000001d0: 576b 6c3e cb4e d53d 7985 a93c 6734 433e
000001e0: 63e7 ec3d 2f4d b93d 777b c93e a14d 013e
000001f0: 418c d83d c1f3 0fbd 4436 3a3e e42f 8e3e

fc.weight f4 [6, 32]
-0.4712674 -0.2169836 0.22748172 0.77403206 0.260714 0.45049062 0.3050369 0.1380912
0.2741569 0.38248622 0.6787145 0.05988964 0.09198046 0.42738405 0.20927949 0.31937116
0.40183 -0.38169262 0.049761564 0.66138387 0.006276183 0.9223491 -0.71368116 -0.16008729
-0.15702958 -0.39220294 -0.25872543 -0.39900038 0.25513506 0.4969736 0.7639543 -0.022681935
0.17332442 -0.4203944 -0.19473621 -0.06202622 -0.6520734 0.16605796 0.07503016 0.10078094
0.5449465 -0.21969447 0.33504862 0.029635938 -0.1950467 -0.17011526 0.08474182 -0.7662119
-0.1691776 -0.5832704 0.40035877 -0.17832837 0.13254736 -0.39157665 0.05067522 0.036874514
0.11982372 -0.123560935 0.3408583 -0.6738189 -0.22364266 -0.267681 -0.57692015 -0.36455432
0.1407521 -0.20453703 -0.12701842 0.027387425 0.28324634 0.48261797 -0.053158235 0.05599588
-0.104569726 -0.25660822 0.42265162 0.018496148 -0.090904765 -0.24010414 0.13633595 0.095188536
-0.13724335 0.12065633 0.21764104 -0.3171159 0.19310571 -0.21758111 0.10766934 -0.32274324
0.05698025 -0.26792938 -0.15378742 0.34883058 -0.17765333 0.003815444 -0.42895946 0.07962154
-0.49596953 0.08280792 0.3809675 0.38219 -0.44815862 -0.14979818 0.39166588 0.84914935
-0.26094675 -0.39885753 -0.3457444 -0.39453593 0.2466525 0.1351906 -0.78286046 -0.57315564
0.09085378 0.19493905 -0.09159237 0.15558875 -0.029158145 0.24046493 -0.1289723 0.65214837
0.27588323 0.4894802 0.6685028 0.12921247 0.21598396 -0.3728094 -0.15044184 0.024018712
0.14199786 0.10837883 -0.05240448 0.41583312 -0.19735873 -0.40750137 -0.09152613 0.051863518
-0.30624947 0.06863771 -0.3957807 -0.017768163 0.30834365 -0.26863894 0.06602329 -0.1937129
0.03852811 0.18922922 -0.05218863 -0.06856452 -0.26825008 -0.108915545 0.076193206 -0.4305875
-0.40057048 0.045931157 0.52792174 -0.6949148 0.18183139 -0.35055164 0.09284852 0.15112035
-0.3127684 0.089718126 0.24330214 -0.22990547 0.2000184 -0.50105655 -0.047253277 0.12574536
-0.37352896 0.27260706 -0.41581386 0.09881388 -0.08346757 0.44490826 -0.58968496 0.1727259
-0.11840526 0.09801481 -0.044417296 0.20110732 -0.15354475 0.021275626 0.025084125 0.36218554
0.05558049 0.674614 -0.24021545 0.37372208 0.27788368 -0.004216834 0.052773513 0.090280004
00000000: f649 f1be f330 5ebe f8f0 683e f726 463f
00000010: 4e7c 853e b5a6 e63e cc2d 9c3e c867 0d3e
00000020: 4b5e 8c3e 3cd5 c33e 3cc0 2d3f d74e 753d
00000030: 4060 bc3d 15d2 da3e 5d4d 563e 9e84 a33e
00000040: a9bc cd3e 376d c3be c8d2 4b3d 7450 293f
00000050: 70a8 cd3b 121f 6c3f cfb3 36bf eced 23be
00000060: 5dcc 20be d3ce c8be a977 84be c749 ccbe
00000070: 10a1 823e 5373 fe3e 8292 433f 77cf b9bc
00000080: f57b 313e ef3d d7be ee68 47be 350f 7ebd
00000090: 48ee 26bf 190b 2a3e 6aa9 993d 3d66 ce3d
000000a0: 9d81 0b3f 96f7 60be 7e8b ab3e 11c7 f23c
000000b0: 52ba 47be b232 2ebe 1f8d ad3d 7726 44bf
000000c0: e53c 2dbe 3551 15bf d3fb cc3e b69b 36be
000000d0: 7fba 073e bc7c c8be d290 4f3d bb09 173d
000000e0: 2366 f53d 840d fdbd fb84 ae3e 657f 2cbf
000000f0: 9502 65be 7c0d 89be 0ab1 13bf dda6 babe
00000100: 5221 103e 2872 51be 1e11 02be 985b e03c
00000110: aa05 913e b419 f73e 73bc 59bd f05b 653d
00000120: a728 d6bd 2762 83be cb65 d83e 3c85 973c
00000130: 472c babd dcdd 75be a79b 0b3e 35f2 c23d
00000140: 8589 0cbe aa1a f73d 4bdd 5e3e 045d a2be
00000150: 81bd 453e 95cd 5ebe be81 dc3d 9a3e a5be
00000160: 1f64 693d 0a2e 89be 737a 1dbe ec99 b23e
00000170: c1ea 35be 870c 7a3b 93a0 dbbe 9e10 a33d
00000180: b8ef fdbe 3397 a93d 2c0e c33e 68ae c33e
00000190: 0c75 e5be b264 19be 6e88 c83e da61 593f
000001a0: d09a 85be 0e37 ccbe 6905 b1be 9d00 cabe
000001b0: 7992 7c3e 686f 0a3e 8b69 48bf 54ba 12bf
000001c0: 8c11 ba3d 1a9e 473e c894 bbbd a852 1f3e
000001d0: 10dd eebc 703c 763e 5111 04be 32f3 263f
000001e0: 9140 8d3e 269d fa3e 0023 2b3f 4650 043e
000001f0: e62a 5d3e e0e0 bebe 6d0d 1abe e4c2 c43c
00000200: e367 113e b8f5 dd3d 14a6 56bd 14e8 d43e
00000210: 6818 4abe 05a4 d0be 0d72 bbbd d76e 543d
00000220: bbcc 9cbe ed91 8c3d c5a3 cabe 8a8e 91bc
00000230: 38df 9d3e 0b8b 89be 3837 873d ad5c 46be
00000240: a7cf 1d3d 4ec5 413e bfc3 55bd 8e6b 8cbd
00000250: 1358 89be 1d0f dfbd 2f0b 9c3d f775 dcbe
00000260: 9317 cdbe 4f22 3c3d e125 073f f0e5 31bf
00000270: 0232 3a3e 817b b3be 5d27 be3d 4bbf 1a3e
00000280: 2e23 a0be 23be b73d 3224 793e 576c 6bbe
00000290: a0d1 4c3e 3e45 00bf a78c 41bd 64c3 003e
000002a0: 303f bfbe 2793 8b3e 8ee5 d4be ee5e ca3d
000002b0: 0cf1 aabd 04cb e33e 98f5 16bf 0fdf 303e
000002c0: 757e f2bd fdbb c83d e9ee 35bd 14ef 4d3e
000002d0: d63a 1dbe 394a ae3c 397d cd3c 6270 b93e
000002e0: 5ea8 633d 81b3 2c3f 0afb 75be 8058 bf3e
000002f0: c546 8e3e 5e2d 8abb 0a29 583d b9e4 b83d

fc.bias f4 [6]
-0.1283983 -0.23308502 0.17835502 -0.78075606 -0.5041355 -0.17541467
00000000: d87a 03be d7ad 6ebe b3a2 363e a1df 47bf
00000010: 060f 01bf e79f 33be
