lstm/centralized/base_lstm_member2_centralized.pt (torch, 124579 bytes, 10 tensors)

lstm1.weight_ih_l0 f4 [256, 3]
000000 83 2e 05 bf 83 b3 b4 be b9 df c6 be d2 40 c2 3e
       -0.52024096 -0.35293207 -0.38842562 0.3794008
000010 2a 5c 1f 3e a0 8f 03 3f 79 45 cc 3e 14 8d e1 3e
       0.15562502 0.5139103 0.39896753 0.44052947
000020 84 e8 a2 3e 51 8f 8d 3e d2 65 28 bd 21 1c f2 bc
       0.3181802 0.27648404 -0.04111273 -0.029554429
000030 23 49 a4 be 97 b4 ba 3e 75 6d 2c 3f dc 80 93 bd
       -0.3208705 0.36465904 0.6735452 -0.07202312
000040 23 d1 cf 3e fe 59 e3 3e b8 0c 89 3e b0 29 00 3f
       0.40589246 0.44404596 0.26767516 0.5006361
000050 e5 a4 02 3f 09 10 6b 3f 6a 16 b6 3f 42 9f ad 3f
       0.5103286 0.9182134 1.422559 1.3564227
000060 d2 1a 08 3f 8e 9c a3 3e 0a 50 85 bf 25 c8 1b 3e
       0.53165925 0.3195538 -1.0415051 0.15213068
000070 13 62 b1 3b d5 ce 1e be 46 1f c5 be 2e 32 d2 be
       0.0054133027 -0.15508588 -0.38500422 -0.4105391
000080 7f 76 0e ba ff 4f ab 3e 0b c6 4c 3e b9 2b b5 3e
       -0.00054345274 0.3345947 0.19997422 0.3538492
000090 79 bb a1 bc b6 b3 62 3d 04 ce 46 bd fc 2a 57 bf
       -0.019742714 0.055347167 -0.048536316 -0.84049964
0000a0 68 5e 2b bf 2b bf 4b bf 01 81 df 3e 98 b3 b2 3e
       -0.6694093 -0.79588574 0.4365311 0.34902644
0000b0 61 2b b3 3e c1 41 86 3d 23 42 0a be 15 ac bd be
       0.34994033 0.0655551 -0.13501792 -0.3704535
0000c0 5f 3b a3 be 48 8f 4f be ca cb ac bb c9 fe e5 be
       -0.31881234 -0.20269501 -0.005273317 -0.44920948
0000d0 1d 12 1e 3d 72 ad 83 be d1 11 01 bd 65 fd 6a 3d
       0.038591493 -0.25718266 -0.03151113 0.057370562
0000e0 5b 58 45 be e7 62 a5 bd 26 12 8b bf c6 91 04 bf
       -0.19271986 -0.08075505 -1.0864913 -0.5178493
0000f0 bd 92 0f bf e3 d9 b0 be ee 0f 06 be 60 8d ce 3e
       -0.5608328 -0.34541234 -0.13092014 0.40342236
000100 2b 51 d9 3e 08 11 0d 3f d9 b6 60 3d 02 25 b8 be
       0.4244474 0.5510411 0.054861877 -0.35965735
000110 a7 c9 66 be e4 ad 10 bd b9 46 55 be 1a 55 f3 bd
       -0.22537862 -0.035322085 -0.2082776 -0.11881466
000120 e9 8a 8c 3c 28 77 e0 be 8c 7a 13 bf 68 68 75 be
       0.017156081 -0.4384091 -0.57608867 -0.23965609
000130 7a 40 93 be 46 15 a7 be 37 95 f2 3e 75 18 ba bd
       -0.2876013 -0.32633418 0.47379467 -0.09086696
000140 8d dc 11 3f 7a ad af be dd 45 3d be 4e 78 d9 be
       0.5697716 -0.3431204 -0.18483682 -0.42474598
000150 5b a1 21 bd e0 4e 4e bd bb 39 eb bd e5 e8 f0 3e
       -0.03946052 -0.05036819 -0.114856206 0.47052684
000160 00 96 78 3e 5b 3a 99 bd 2c 63 01 be 35 89 af bd
       0.2427597 -0.074818335 -0.12635487 -0.08571092
000170 ee ab 8f 3b 7a b8 6b 3d da 69 86 3d cc 94 c6 3d
       0.0043845093 0.057548977 0.06563158 0.096963495
000180 04 2b fb 3e 00 24 c8 3e ca 3a 0f 3f df c6 9f be
       0.49056256 0.39089966 0.5594908 -0.31206414
000190 c3 ba c4 be 5f 2d 79 be 6f 7e b9 3e 39 a8 d1 3e
       -0.38423738 -0.24333714 0.36229274 0.40948656
0001a0 e9 25 0f 3f 24 16 ba be a2 15 c6 bd 69 14 be bd
       0.5591722 -0.36345017 -0.09672095 -0.09281237
0001b0 3e 52 72 3d b1 a5 81 3e 8a c1 e6 3d 80 03 f6 3d
       0.059160464 0.25321725 0.112673834 0.12012386
0001c0 7f 60 ac 3e 01 21 9a 3e b6 00 8d 3e c2 02 71 bf
       0.3366737 0.30103305 0.27539605 -0.94144833
0001d0 37 97 8d 39 80 bf e8 3e 92 be f4 3e 44 b0 4e 3e
       0.0002700628 0.45458603 0.47801644 0.20184427
0001e0 ec 47 93 3d 2e e0 dd 3d 59 5d 19 3e 7f f7 df 3e
       0.071914524 0.108337745 0.14977016 0.43743512
0001f0 db 80 08 3f f2 3e c4 3e 51 e7 3c bf 67 80 1a 3f
       0.5332162 0.38329273 -0.7379046 0.60352176
000200 ec 56 48 3e d2 44 25 be b8 ac 56 be 42 0c 34 be
       0.19564408 -0.16139534 -0.20964324 -0.17582801
000210 69 08 52 be 88 96 4e be 90 57 a5 ba 10 c7 b7 3e
       -0.2051102 -0.2017461 -0.0012614597 0.3589406
000220 0d 0c 0b 3f c1 cf 03 3e 9e 7a ef 3e 6b b5 93 3e
       0.54315263 0.1287222 0.46773237 0.28849348
000230 68 52 3b bc 19 1b 95 be f8 ea a3 be 3e fa ba bd
       -0.011433221 -0.29122236 -0.32015204 -0.09129761
000240 6e 6b 6f be d9 2d d6 be da 57 35 be 25 4f d9 be
       -0.23380825 -0.41831854 -0.17709294 -0.42443195
000250 a5 a5 34 be d4 dc 0c 3d fb fa 09 be 6e e5 4a be
       -0.17641313 0.034390286 -0.13474648 -0.19814083
000260 46 83 76 be b9 9a 0e bd 9e a9 ab be af fa ef be
       -0.24073514 -0.034815524 -0.33527845 -0.46870944
000270 c2 64 82 bb 6d 18 6b be 28 9a a0 bc f8 2e 95 bd
       -0.0039792964 -0.22958536 -0.019604757 -0.07284349
000280 74 b8 05 be 32 84 8a be 79 23 a6 3e 7e 60 25 3e
       -0.13058645 -0.27053982 0.32448938 0.1615009
000290 03 bd 12 be 25 41 e7 be 04 b5 7e be c2 5a 7c bd
       -0.14329915 -0.4516689 -0.2487374 -0.06160999
0002a0 65 7f df be ea ba 21 be 83 87 30 bd dd 6a 3a be
       -0.43651882 -0.15793958 -0.043097984 -0.18204828
0002b0 a3 cb 94 be ba 9e 29 be f8 d1 19 3e 1a 8e 88 3e
       -0.29061612 -0.16564456 0.15021503 0.26670915
0002c0 2b 00 bd 3e 85 17 22 3e df 7c f5 be 6b 0e 22 bf
       0.3691419 0.15829284 -0.47946832 -0.6330325
0002d0 46 57 4a bc 8b 47 f1 be 38 6f f4 be 75 e1 96 3e
       -0.012349909 -0.47124895 -0.47741103 0.29468885
0002e0 2c 60 7b bd de 03 de 3c 26 01 11 bf 09 9b d1 be
       -0.061371014 0.027101453 -0.5664238 -0.40938595
0002f0 ef 2a 4a 3f ad b8 95 be 9d e9 ae bc f9 0a 03 bf
       0.7897176 -0.2924246 -0.02135163 -0.5118862
000300 ee 21 d2 be 87 d6 94 be 67 f2 08 bf 07 5c 56 be
       -0.4104151 -0.2906992 -0.53494877 -0.20933543
000310 f5 f7 a0 be 2b 41 7b be 69 f0 49 be 34 73 43 bd
       -0.31439176 -0.24536578 -0.19720615 -0.047717288
000320 43 3a 9b bd c2 c2 b0 3d ed c7 30 3d f4 3c 34 bd
       -0.07579472 0.08630897 0.043159414 -0.044003442
000330 37 ff 8e be 80 10 c7 be d2 ff af be 94 c5 ef 3e
       -0.27929088 -0.38879776 -0.34374863 0.46830428
000340 76 55 be 3e 91 5f 58 3e d7 58 99 3e 43 e2 9b 3e
       0.37174577 0.21130206 0.29950592 0.30446061
000350 aa 60 40 3e 90 81 8c 3b 6c 69 dd bd 41 29 ef bd
       0.18786874 0.004287906 -0.10811123 -0.116777904
000360 d1 53 24 bf fd ee 0c bf c0 4b 2d be 0b 69 c1 bd
       -0.64190394 -0.5505217 -0.16923428 -0.094438635
000370 4d cd 2d bd 7d 88 8f 3d 76 62 7d bd 8b ee 10 be
       -0.04243212 0.07008455 -0.061861478 -0.14153497
000380 59 61 4b be c0 a9 bf be 54 26 c5 be cb 1c ef bc
       -0.19861354 -0.37434196 -0.38505805 -0.029188534
000390 5f 4c 16 3e a2 5f 8d 3e 66 de 73 3e a7 37 ad be
       0.14677571 0.27612025 0.23815307 -0.33831522
0003a0 94 67 95 be 83 fa 8d be 6f dc 84 3d 74 a3 1f 3e
       -0.29180586 -0.27730188 0.06487357 0.15589696
0003b0 e2 db d1 3c 54 d2 ce bc 39 5c 84 3d 65 63 dd bd
       0.025617544 -0.025246777 0.064629026 -0.108099736
0003c0 dd 34 9b 3e 08 91 51 3e e5 18 d4 bd cf 83 81 be
       0.3031377 0.20465481 -0.10356311 -0.25295874
0003d0 29 3b 06 be b7 a3 76 be 50 11 51 be f1 00 7e be
       -0.13108505 -0.2408589 -0.2041676 -0.24805047
0003e0 8e 21 8c be 15 0a e1 bc 35 ca 0f 3d f8 15 da bc
       -0.2736935 -0.027470628 0.03510495 -0.026621804
0003f0 4f de 08 bd e4 91 d7 bd d8 ba f6 bd eb 17 eb 3e
       -0.033415135 -0.10525873 -0.12047356 0.45916685

lstm1.weight_hh_l0 f4 [256, 64]
000000 0e 38 1a be c2 be 9c 3d ee f9 13 be d9 97 9e 3d
       -0.15060446 0.07653572 -0.1445081 0.077438064
000010 57 de 7d bd 48 18 92 3d 25 91 16 3d a3 5d 16 3e
       -0.061979618 0.071335375 0.036759514 0.14684157
000020 14 0c 3e be 31 44 30 3e c8 44 b6 3d 0b 76 57 bd
       -0.18559295 0.17213513 0.08899838 -0.05260281
000030 cd 00 e0 bd 85 6d 5d be 0c 9d f9 3d d7 2d 7e bd
       -0.10937653 -0.2162381 0.121881574 -0.062055435
000040 a7 42 1e 3e 20 34 38 3e 3e 3b 18 be 5b c4 0b be
       0.15455113 0.17988634 -0.14866349 -0.13649122
000050 47 d4 4c bd d4 a4 dd 3d 8a 45 69 3c 98 1c 11 3e
       -0.05000713 0.10822454 0.014237771 0.14171064
000060 6d eb ab be e8 92 52 be b9 25 ca bc 5f b1 05 3e
       -0.33578053 -0.20563853 -0.02467619 0.13055943
000070 ec 72 c7 3d db d4 46 bd 93 c7 10 bd e1 8e 0d bd
       0.097387165 -0.04854284 -0.03534658 -0.034560088
000080 86 28 34 be 88 0a 9d 3d 15 3c 9b 3d 85 ae c4 3d
       -0.17593583 0.07668024 0.07579819 0.096035995
000090 6c 6a 34 be 35 9c d3 3c f0 cd 3f 3e 19 01 2b bd
       -0.17618722 0.025831321 0.18730903 -0.041749094
0000a0 55 ba bd bd a5 28 08 bc 07 f2 06 bd b8 b0 8e bd
       -0.09264056 -0.008310472 -0.03294566 -0.069673
0000b0 7d 1a e5 3d b7 21 31 bd 12 bc 5d be 98 c7 95 3d
       0.11186693 -0.043245044 -0.21653774 0.0731346
0000c0 f4 72 7b 3e 31 c5 57 be 1f 71 3b 3e 84 6f 09 be
       0.2455557 -0.21071316 0.18304871 -0.13421446
0000d0 ac 54 35 be 9b 20 ef 3c c3 20 18 be 6e e6 b1 bb
       -0.17708081 0.029190352 -0.14856248 -0.0054290807
0000e0 c9 a5 5a 3e ba b5 a8 bd 75 4f e9 bd cc ea 32 bc
       0.21352305 -0.082377866 -0.11392108 -0.010920238
0000f0 df b9 de bc bc f9 e5 3d b1 1b ee 3d 1f f9 a3 3c
       -0.02718824 0.11229274 0.116263755 0.020016251
000100 ca de 8b 3d 90 4b 55 bc c2 b0 38 3d f7 2b 95 be
       0.06829603 -0.013018504 0.045090444 -0.29135105
000110 c0 de 69 3e 53 52 4d 3d 05 e7 49 be f4 0d 39 3e
       0.22838879 0.05012734 -0.19717033 0.18071729
000120 8b ef 16 3d 28 9c 18 3e 4e 55 78 be 9f 13 aa 3d
       0.03684954 0.14903319 -0.24251291 0.08304524
000130 67 23 bf 3d da 3a 1a be 4a 83 69 3d e4 be 67 3e
       0.09332924 -0.15061513 0.057009973 0.22631413
000140 b5 d9 26 be c2 e5 dc 3d db 9a 52 be 65 0a 56 bd
       -0.16293986 0.1078601 -0.20566885 -0.052256007
000150 1f bc 34 3d 6b 8a 93 3d 45 b0 89 3d 04 fe 4e bd
       0.04412472 0.072041355 0.06723074 -0.050535217
000160 c4 a7 aa bd d7 a4 bb bd 91 93 54 be 46 54 81 3d
       -0.0833278 -0.091623 -0.20759417 0.06314902
000170 66 fd 68 3d bb e6 2b be 06 67 77 3d e9 49 c8 bd
       0.056882285 -0.16787235 0.060400985 -0.09779722
000180 e2 84 f0 3d 0d e4 fa 3c 7d e1 92 3d 2c 60 27 3d
       0.117440954 0.030626321 0.07171915 0.0408632
000190 df 38 24 bd a3 f7 bf bc a2 51 03 3e f4 9d ff 3d
       -0.0400933 -0.023433512 0.12824109 0.12481299
0001a0 b8 d5 68 3d e5 8b 61 3d 46 02 71 bd d3 c9 f3 3d
       0.056844443 0.055065054 -0.05884006 0.11903729
0001b0 2a 45 e2 3d 6f bd c4 bd 89 17 29 bd e6 bc cd 3e
       0.11048348 -0.09606444 -0.04128221 0.4018318
0001c0 e5 64 fd 3d e4 7e 22 bc 99 93 89 3a 83 38 6f 3e
       0.1237276 -0.009917948 0.0010496258 0.23361401
0001d0 97 08 d4 3c cc ff 17 be fa ee 0b 3e d4 b9 6c bc
       0.025883002 -0.14843673 0.13665381 -0.014448602
0001e0 41 8a 6d be c5 f1 b7 bb 5f c0 fd 3d 9f e0 62 3d
       -0.23197271 -0.005613538 0.123902075 0.055389997
0001f0 a3 9c d9 bd d5 0d 15 bd e1 cf 65 be 25 43 23 be
       -0.10625579 -0.036390144 -0.22442581 -0.15943582
000200 f6 10 a7 bd c2 6d d4 bd d7 44 1e be 81 81 4c bd
       -0.08157532 -0.10372497 -0.15455948 -0.049928192
000210 0e 8a e5 bd 43 77 fa bd 04 41 49 3c 04 2b 61 3e
       -0.112079725 -0.122297786 0.012283567 0.21989065
000220 57 bc 63 bd 4d c6 49 3e 3f 92 28 be 4c 82 81 3d
       -0.055599537 0.19704552 -0.16462038 0.0632368
000230 64 73 61 3b 4b ce 63 3d c3 f9 41 3e 3e 8f 42 3e
       0.0034401054 0.05561666 0.18942933 0.18999955
000240 7e 8c 30 be c2 63 83 be 32 3c ba 3e 14 56 06 3d
       -0.17241094 -0.25662047 0.3637405 0.032796934
000250 5b 9e e1 bd ca 20 a7 bc b1 d7 80 3e bf a3 0b be
       -0.11016532 -0.020401377 0.2516456 -0.13636683
000260 c8 b8 a9 be 59 b2 82 3e bb e1 e5 bd 8f 73 9e be
       -0.3314879 0.25526693 -0.11224695 -0.3094754
000270 84 ba aa bd 7d 7a 2a be e0 e9 bd 3d ba fc f5 ba
       -0.08336356 -0.16648288 0.09273124 -0.0018767335
000280 fd 47 79 3e 88 dd 56 be 1a 23 dd 3d 2b 5c 90 bd
       0.24343868 -0.20982945 0.10797711 -0.0704883
000290 5c c0 23 be 2d 84 18 be 62 17 a8 3d 9c 4e 0a 3d
       -0.15991348 -0.14894171 0.08207585 0.033766374
0002a0 c4 8a 5b bd 54 17 82 3d 60 1c 2d 3d 4f ea 9e bd
       -0.053599134 0.06352106 0.04226339 -0.077595346
0002b0 7c 30 6b 3d 4c 46 cc 3c 08 2d 51 3e d4 d6 ae bd
       0.057419285 0.024935864 0.20427334 -0.08537069
0002c0 06 62 3d be 63 dc 6b be ce d8 1c bd 4e 0c bd 3d
       -0.18494424 -0.2303329 -0.0382927 0.092308626
0002d0 8f 4e ec 3c 75 2c d7 3d 9e e5 c6 3d 10 fa 17 be
       0.028846053 0.105065264 0.09711765 -0.14841485
0002e0 77 09 df 3c 8f 5c 27 3e e2 47 8f 3d 93 fe 56 3e
       0.027226193 0.16343902 0.069961324 0.2099555
0002f0 74 a0 b1 bb 48 da 4d be 56 a8 dd be a1 b7 93 be
       -0.005420739 -0.20102799 -0.43292493 -0.28851035
000300 53 20 4d bd 87 fe 77 bd 8b 65 06 3e 7f 2b b0 bd
       -0.050079655 -0.06054547 0.13124673 -0.08602046
000310 fc 91 66 be 09 0e 86 be c2 06 75 be 48 b5 83 3e
       -0.22516626 -0.26182583 -0.23928359 0.25724244
000320 46 87 13 bd 2c de d5 3d 3c 58 18 be df 5a 35 3b
       -0.03601768 0.104427665 -0.14877409 0.0027672572
000330 70 7e 9d 3c 2e 8c 64 be 2c 2b 11 bc 67 92 65 3e
       0.01922533 -0.223191 -0.008860391 0.2241913
000340 f0 dc 40 be 3d 09 42 3e 82 26 36 3e 28 f2 1e be
       -0.18834281 0.18948837 0.17788127 -0.15522063
000350 c9 78 34 bb 9d c4 fe 3d e1 d8 24 be 79 33 c9 bd
       -0.0027537814 0.12439845 -0.16098358 -0.09824271
000360 4d 48 70 3e a2 ea 9c bb 28 a1 87 be 6b 95 87 bc
       0.2346508 -0.0047887126 -0.2649014 -0.01655074
000370 8c 1d 05 be b9 93 80 bd 60 ab 8c 3d ca 53 39 3d
       -0.12999552 -0.06278176 0.06868625 0.045245923
000380 30 a7 4d 3e 04 ed 0a be 2d 1f 0f 3e 6a e0 0c be
       0.20083308 -0.13566977 0.13976736 -0.13757482
000390 7b 2e ee 3c 63 71 9e bd 67 43 94 be 55 a6 4a bd
       0.029074898 -0.077364706 -0.28957674 -0.049475033
0003a0 29 6c 0a bd 96 60 38 3e 32 63 2c 3e 7a 25 79 3d
       -0.033794556 0.18005595 0.16834715 0.060826756
0003b0 75 a9 14 3d 63 ed d4 3d 22 ac 8a bc a3 81 1d 3e
       0.03629442 0.103968404 -0.016927782 0.15381484
0003c0 3e 84 85 3b 07 1a b4 3e e8 8b 17 be e9 c2 38 3e
       0.0040746024 0.35176107 -0.14799464 0.18043102
0003d0 e5 42 a4 3d 36 b1 4a 3b 89 44 31 3e fd 71 0d 3e
       0.080205716 0.003092838 0.173113 0.13813014
0003e0 c1 b0 32 bd 73 87 a3 3d 1d f5 5d 3e 6e 3f 38 be
       -0.043625597 0.07984819 0.21675535 -0.17992947
0003f0 c5 e4 c4 bd f1 f0 0a 3e c6 db 92 3e 10 82 21 3e
       -0.09613947 0.13568474 0.286833 0.15772271

lstm1.bias_ih_l0 f4 [256]
000000 a0 30 6f bb 2d 18 f0 bc 66 2d 40 bd 48 9d 56 bd
       -0.0036497489 -0.029308403 -0.046918295 -0.05239609
000010 37 93 0a be 57 ce 2c 3e a0 ba 1e be da 7a a4 bd
       -0.1353272 0.16875587 -0.1550088 -0.080312446
000020 aa 21 77 bd 9f 4d 23 be 6c 16 03 be af 63 2e 3d
       -0.06033484 -0.15947579 -0.12801522 0.042575534
000030 57 b4 91 bd 3f 46 88 be b0 80 75 3e 1e 68 8b be
       -0.07114475 -0.26616094 0.23974872 -0.27227873
000040 3f 6c 3c 3d 46 a8 0f bd 99 7f 44 3d 05 1e 4c be
       0.04600167 -0.035072587 0.04797325 -0.19933327
000050 b8 27 1f bd d4 4c f1 bc 4e af b6 3d 21 d8 7a bd
       -0.038856238 -0.02945558 0.089201555 -0.061241273
000060 bc 5b d7 bd ee 83 a5 3b a2 b1 a2 3c 76 fb 0c be
       -0.10515544 0.0050511276 0.019860093 -0.137678
000070 0f ef 3b be 0d d0 c4 bd 0f 8e e1 bd 2b 31 f9 bd
       -0.18352912 -0.09609995 -0.11013424 -0.12167581
000080 d5 1d 4c bd 5c 9e 76 3c 68 3c b1 3d 34 83 f4 bd
       -0.049833138 0.015052404 0.086541 -0.119390875
000090 84 2e 5f be 1a 06 27 be 78 79 05 be 9e 0d 2c 3d
       -0.21795088 -0.16310921 -0.13034618 0.042005174
0000a0 f1 3d 6a be 87 6d fe bd 02 88 99 bd 5e a0 94 3b
       -0.22875191 -0.124232344 -0.074966446 0.004535719
0000b0 66 3e 1c be e0 c8 85 3e f6 c2 00 bc e4 81 be bd
       -0.15258178 0.26129818 -0.007858982 -0.093021184
0000c0 a4 15 88 be 7b e6 53 be da d3 e4 3c d8 80 d0 bd
       -0.2657901 -0.2069339 0.02793305 -0.10180825
0000d0 82 12 b3 3d e1 d2 ec 3c 8d 5c a7 3d cf 7a 92 3d
       0.087437645 0.028909149 0.081719495 0.0715233
0000e0 95 a7 9f bd f5 39 1b be 23 8a 2c 3d 4c 5f 51 be
       -0.077956356 -0.15158828 0.042123925 -0.20446509
0000f0 1e 1f a2 3d 56 14 3d 3e 7f fa 0b be 24 ca 81 3b
       0.079160914 0.18464789 -0.13669775 0.0039608646
000100 e8 18 87 3d 2f 28 4f be d7 57 89 3d e8 5d 98 3d
       0.06596547 -0.20230173 0.06706207 0.07439786
000110 ac 68 84 3d 02 d3 0f 3e df fe e0 3c 75 49 83 3e
       0.06465277 0.14045337 0.027465282 0.2564198
000120 4e c8 0e 3b 30 b5 dc 3d 2b 78 bc bd 59 ed dd bd
       0.0021786871 0.10776746 -0.09202608 -0.10836286
000130 3a 6a 36 3e d2 df 27 bc fa 05 5e 3e 88 37 12 be
       0.1781396 -0.010246234 0.21681967 -0.14278996
000140 ad 8b a4 3e 71 02 c5 bd ee 32 8e 3d 6b 1d e9 3d
       0.32137814 -0.09619606 0.06943308 0.11382564
000150 4c 25 08 be 0d c0 09 be 49 c8 c1 3c da fc d6 3d
       -0.13295478 -0.13452168 0.023655074 0.10497446
000160 88 20 be 3e c2 82 95 3c ee 9f 2d bb b8 94 01 be
       0.37134194 0.018250827 -0.002649303 -0.12654388
000170 7b b5 17 3e be 6a 88 3e 0e 2b 70 be f9 83 4a 3d
       0.14815323 0.26643938 -0.23453924 0.049442265
000180 43 ff 7d bd ff 4d 50 3d 8e 02 b8 bb 43 b9 cd 3d
       -0.062011015 0.050855633 -0.005615539 0.100451015
000190 16 62 6b 3d 7f b8 22 3e 44 c1 a0 bd e9 7e 0b 3e
       0.05746659 0.15890692 -0.078493625 0.13622631
0001a0 fb 53 c3 bd 0c 75 31 3d 37 e7 0e be 8a 9c 5f 3e
       -0.095375024 0.043324515 -0.13955389 0.21837059
0001b0 88 ff 76 3d d1 1b 31 3e 67 c8 fb 3e cc 1c ff 3d
       0.060302287 0.17295767 0.49176332 0.124566644
0001c0 17 2f 1e be a5 03 14 be 4c 45 d8 3c bc b7 7f 3d
       -0.15447651 -0.14454515 0.02640023 0.062431082
0001d0 74 70 22 3e f6 f8 4c 3d ec 9e 13 3e 99 e3 61 bd
       0.1586321 0.050042115 0.14416093 -0.055148695
0001e0 1f 69 09 3e c0 ef 42 3b 43 17 75 bd 63 95 50 bd
       0.13419007 0.0029744953 -0.059836637 -0.050923716
0001f0 36 38 fa ba df a0 b3 3d 9e dd af 3d 66 65 1c 3d
       -0.0019090238 0.08770918 0.08587192 0.03818264
000200 6c a2 4e 3d 4f 3b 17 be c9 aa 5d 39 26 1d b1 3d
       0.050447866 -0.14768718 0.00021139825 0.08648138
000210 a1 e5 5d bd 8f 7d 62 3d 02 57 8d 3c 8a 40 79 bd
       -0.05417407 0.055295523 0.017253403 -0.060852565
000220 d3 52 0a be 73 eb 21 3e a0 76 03 3e 3c b1 92 bc
       -0.13508157 0.15812473 0.1283822 -0.017906778
000230 00 bd 07 be 83 bf c2 bd 17 36 08 be f3 7c 15 be
       -0.13255692 -0.09509184 -0.13301884 -0.14598446
000240 35 e4 20 3e de 9d 06 be 52 d2 06 bc b2 0a cc bd
       0.15712054 -0.13146159 -0.008228855 -0.099629775
000250 be 22 f0 bd fd 4c 2f bd f2 fe 1f 3e 64 8a 09 3e
       -0.117253765 -0.04279803 0.15624598 0.13431698
000260 a3 00 cd bc dd b2 e2 bd a1 9d 1d bd 5a bf b7 bd
       -0.025024718 -0.11069272 -0.038480405 -0.08972044
000270 cb 62 70 3d 51 5e a3 3d eb 21 fe bb a2 9f 2e bc
       0.058687966 0.07976974 -0.007755508 -0.010658177
000280 b0 e9 25 bd 5c c5 2a 3e 2d ad 23 be c2 00 0f 3e
       -0.040506065 0.16676849 -0.1598403 0.13965133
000290 66 30 04 3e df c2 05 3e 92 9f 0e be d2 92 dd bd
       0.12909088 0.13062619 -0.13928059 -0.108190194
0002a0 67 3a 75 bd 6f b0 db bd 01 84 af 3d 6f 5a ec bd
       -0.05987015 -0.107270114 0.085700996 -0.11540686
0002b0 9d 67 24 3d 2a 21 a9 bd cc 10 c2 bd eb 2c 1b bc
       0.040137876 -0.08258279 -0.0947586 -0.0094711585
0002c0 ea 81 11 bc 04 7b b1 bc 3c cc 20 bd bd 80 5c be
       -0.008881072 -0.021665104 -0.039257273 -0.21533485
0002d0 97 42 53 bd c2 4b 03 3d 00 14 e0 bd eb 44 c7 bd
       -0.051577177 0.03205467 -0.10941315 -0.09729942
0002e0 a7 eb c5 3d 7c f6 ad bd 9d 66 e8 bd 70 8f 99 bd
       0.09664088 -0.08494279 -0.11347697 -0.07498062
0002f0 b6 9b 09 3e b4 32 1a be 20 fb ce 3d 44 ce 91 bd
       0.13438305 -0.15058404 0.10106492 -0.0711942
000300 4e cd c6 bd bb d0 2c bd f2 55 6c bd fd 14 39 bd
       -0.097071275 -0.04219125 -0.05769915 -0.04518603
000310 05 7e e3 3d 89 0f ec 3d f6 4b af 3d ec 58 26 3e
       0.11108021 0.115264006 0.0855941 0.16244859
000320 c9 e0 15 3d ee 8a 9e 3d 4c 4e 2a bd 0e 09 80 3d
       0.036591325 0.077413425 -0.041578576 0.06251727
000330 d8 f8 34 be fc 0e 0e 3e 8e 97 a7 bb 25 6f 7a be
       -0.17673051 0.13872904 -0.0051145023 -0.24456461
000340 2d da e6 bd 78 0a 11 be 00 cd b9 bd d1 b3 63 3e
       -0.112720825 -0.1416415 -0.09072304 0.22236563
000350 d2 ab 57 bb 6e 5d 93 bd 13 c8 74 3e d0 e0 af bc
       -0.003290881 -0.07195555 0.23904447 -0.021469504
000360 8f 0c 2b 3e ba 90 11 bd 67 3d d6 3d cc 2b d7 bd
       0.1670401 -0.035538413 0.1046093 -0.105064005
000370 09 27 9d bb 53 b3 1c 3d b5 32 23 bd 49 b4 c3 bd
       -0.004795913 0.038256954 -0.03984328 -0.09555871
000380 a7 75 e9 bc dd 1d 1c be f3 24 75 bd f2 11 c1 bd
       -0.028498484 -0.15245767 -0.05984969 -0.09427251
000390 9f 72 69 be 98 32 c0 3d 11 83 18 3b c1 03 c8 bb
       -0.2279763 0.0938465 0.002327148 -0.006103963
0003a0 50 3e 49 be a6 c8 0c 3e 89 9e 15 3d 4a f8 46 bd
       -0.19652677 0.13748416 0.036528144 -0.04857663
0003b0 bf 1b 01 3d 66 49 b6 3b 3f 9d 72 3e 15 a6 20 3e
       0.0315206 0.005562949 0.23692797 0.15688355
0003c0 b2 29 8b bd f0 a4 57 be fc 0a 87 3d c6 44 4f be
       -0.06795062 -0.21059012 0.06593892 -0.20241079
0003d0 bd 9f 0f 3e da 5b 55 bc 97 3a af bd 19 81 92 3b
       0.14025779 -0.013022387 -0.08556097 0.004470956
0003e0 3c 0f 46 bd be 42 d3 bd 80 a7 18 be 5c de b3 3b
       -0.048354372 -0.103154644 -0.14907646 0.005489154
0003f0 db 61 38 3e cc 8c 5d 3e 38 a4 52 3d dc 3c d0 3d
       0.18006079 0.21635741 0.051426142 0.10167858

lstm1.bias_hh_l0 f4 [256]
000000 78 68 2c bc d8 a2 90 bd 75 6b 92 3c 76 6e 5c 3d
       -0.010522954 -0.0706231 0.017873505 0.05381628
000010 65 4a 23 3d 74 13 0a 3e de d2 a7 3c 94 30 58 be
       0.03986587 0.13483983 0.020486291 -0.21112281
000020 6c df 02 be 05 45 d4 bd 08 5d a7 bd 95 b8 e1 3d
       -0.12780541 -0.10364727 -0.08172041 0.11021534
000030 b4 71 95 bd ba 10 ff bd 7f 82 92 3d 28 f6 1f be
       -0.07297078 -0.12454362 0.071537964 -0.15621245
000040 26 a1 98 bb 8f e7 df bc 85 af b2 3c 93 2d 84 bd
       -0.0046578823 -0.027332095 0.02181221 -0.06454005
000050 e1 5c 66 3d 9c b2 da bd e1 80 3e 3e a9 5f fd 3c
       0.05624092 -0.10678598 0.18603851 0.030929403
000060 97 e4 51 be dd 79 fe bd 59 19 2e 3d c9 f6 3b bd
       -0.20497356 -0.12425587 0.042504642 -0.04588965
000070 69 03 f3 bb b6 7b ba bd 35 aa 9a bd 97 73 8c bd
       -0.007416178 -0.09105627 -0.07551996 -0.068579845
000080 c2 16 c1 bc 54 c3 23 be 44 4f 99 3d 10 d2 1d be
       -0.023570422 -0.1599248 0.07485822 -0.15412164
000090 eb 95 7b be 3e f3 41 be 94 76 6e bd e2 f2 09 3d
       -0.24568908 -0.18940446 -0.058218554 0.033678897
0000a0 53 f7 40 be ce 4e 28 bd cf 57 8d bd 72 36 31 3d
       -0.18844347 -0.04109078 -0.06901514 0.043264814
0000b0 aa 48 ce 3c b4 c9 22 3e d2 62 16 be 00 82 dd bc
       0.025181133 0.15897256 -0.14686134 -0.027039528
0000c0 0b 32 95 be 99 fe 56 be a7 7f b2 ba 8c 99 00 be
       -0.29139742 -0.20995559 -0.0013618366 -0.12558573
0000d0 1b 14 91 3d 6c c8 2e 3d a9 45 47 3d f6 c7 27 3d
       0.07083913 0.042671606 0.048650417 0.040962182
0000e0 f5 2b b6 bd 07 a4 d8 3c c0 85 95 3d ec 8e 54 be
       -0.08895103 0.026445402 0.073009014 -0.20757645
0000f0 6e e5 c9 bd 71 e5 3d 3e 1d 01 00 3c df 7e 72 bd
       -0.09858213 0.18544556 0.007812765 -0.059203025
000100 6f 92 7e 3e 62 62 50 be 07 91 a8 3d 1c 28 29 bd
       0.24860547 -0.2035003 0.08230787 -0.041298017
000110 46 67 25 3d bd e1 24 3e 8b f6 85 bd e0 2f de 3e
       0.040381692 0.16101737 -0.06541165 0.433959
000120 b7 1a 84 bd 4f f5 cd 3d 6d 8f 3e bd 2c 41 6c 3d
       -0.06450408 0.100565545 -0.0465235 0.05767934
000130 4f 73 61 3b 91 7c e8 3d 20 27 24 3e e6 e5 20 be
       0.0034401005 0.11351884 0.1603055 -0.157127
000140 29 27 60 3e b8 d5 48 be 20 25 c2 bd 31 a0 06 3d
       0.21889938 -0.19612777 -0.09479737 0.032867614
000150 85 6e 04 bc 38 b7 a1 bd 68 41 79 bd 30 a8 70 3e
       -0.008082991 -0.07896274 -0.060853392 0.23501658
000160 38 84 a5 3e c0 39 d3 bd fe 0d d2 bc 0b 85 90 bd
       0.32327437 -0.10313749 -0.025641438 -0.07056626
000170 8c 76 8d 3e e0 72 1a 3e ec ad 14 be 0c 6c 9b bd
       0.27629507 0.15082884 -0.14519471 -0.07588968
000180 53 d6 eb bc a4 8d 1a bd db bf 92 3d 7a 58 9b 3d
       -0.028788721 -0.037732735 0.071655 0.07585235
000190 5e 79 8f bd 62 f6 f7 bc 21 cf e8 bd 24 45 7e 3e
       -0.07005571 -0.030268852 -0.11367632 0.24831063
0001a0 ad 16 12 be 94 f6 5b bc e7 6a 06 3c e4 3d af 3e
       -0.14266463 -0.013425488 0.008204198 0.34226906
0001b0 1c 15 5d bd 5f db ba 3d 24 02 04 3f 7a 57 86 3e
       -0.05397521 0.09123873 0.51565766 0.26238614
0001c0 8c 26 ca ba 3a 4b 2b be d2 50 db 3d ba 0f d4 bc
       -0.0015422865 -0.16727915 0.107087746 -0.025886405
0001d0 9d 19 30 3e 56 e0 60 3e 3b 00 c3 3d 45 5a c6 3d
       0.1719727 0.21960577 0.09521528 0.09685186
0001e0 8e 95 1c 3e d8 7a 33 bd ac 29 1a 3c 2c 91 a3 3d
       0.15291426 -0.043818325 0.009409349 0.07986674
0001f0 18 6c 9e bd 9c 34 dc 3c 13 b0 c5 3d 76 a3 e4 bb
       -0.07735461 0.026880555 0.09652724 -0.006977494
000200 0a 73 bf 3c dd e6 fa bd d1 23 af bd c8 59 e6 3c
       0.023370285 -0.12251065 -0.08551753 0.028118983
000210 5d bd 95 bd 9d 7b 3b 3e e2 b3 32 3b 76 1d 82 bd
       -0.07311509 0.18308873 0.0027267863 -0.063532755
000220 8c 33 87 bc d0 38 f4 3d ed 8d 85 bc 4e da 0a 3d
       -0.016504072 0.119248986 -0.016303027 0.033899598
000230 16 e9 86 bd b6 cf 63 bc 85 ae bc bd 5f c2 61 bd
       -0.06587426 -0.013904503 -0.092129745 -0.055117007
000240 18 5f a0 3d 9d b6 04 be c0 39 fa bc 59 4e cd 3c
       0.07830638 -0.12960286 -0.030545115 0.025061773
000250 e0 ee 33 bd 93 e9 ea bd 0e 21 f4 3d 24 5f f1 3d
       -0.04392898 -0.11470332 0.11920367 0.11785725
000260 d4 3a e1 bd 3f b9 8f 3d 16 7e f8 bd b9 0b 40 bd
       -0.10997549 0.07017755 -0.12133424 -0.04688618
000270 4d 53 14 bd 20 0b a1 3d 93 e2 62 be e6 e6 d0 3d
       -0.036212254 0.0786345 -0.22156744 0.102002904
000280 ae 40 9b bd 09 73 1d 3e 08 9d 58 be 3d 81 fb 3d
       -0.07580696 0.15375914 -0.21153653 0.122805096
000290 8b a2 94 bc 3c 38 5b bb 4d de 02 bd 2f 0c db bc
       -0.018143913 -0.0033450266 -0.031950284 -0.026739208
0002a0 d4 f9 63 bd 5b 67 b1 bd dd 3b b6 bd 69 ca ea bd
       -0.055658177 -0.086622916 -0.08898137 -0.11464388
0002b0 e1 cb 94 bd 1a e0 33 be 19 74 27 be 20 88 58 3d
       -0.07265449 -0.17565957 -0.16352881 0.052864194
0002c0 45 f1 58 3d f9 50 0e be a2 cf 24 bd 28 03 ec bd
       0.052964468 -0.13898076 -0.040237077 -0.115240395
0002d0 f2 3b b6 bd ca c0 0a be e6 8e 0e be db ba d9 bd
       -0.088981524 -0.13550106 -0.13921699 -0.10631343
0002e0 f3 c4 10 3e 24 b5 a4 bd b5 85 22 be ad 41 0f bc
       0.1413763 -0.08042362 -0.15871318 -0.008743686
0002f0 6e 6f 84 3c d4 c3 d0 bd ab 5f c9 3c a4 ae cc bd
       0.016166415 -0.10193601 0.02458175 -0.099942476
000300 02 fb 43 3d fc a1 6c bd e0 83 3a bd f0 d5 f1 3c
       0.0478468 -0.057771668 -0.045535922 0.029520959
000310 a6 3d c0 3d bd 76 39 3d 26 cf 98 3d 7e 32 6e 3e
       0.093867585 0.045279253 0.074613854 0.23261449
000320 91 07 5c 3e 31 e4 b2 bd 00 70 5d bd a5 90 24 3c
       0.21487261 -0.0873493 -0.05406189 0.010044252
000330 cf 31 81 3c 04 97 8a 3e b0 da bc 3d 02 ba 7d be
       0.01577082 0.2706834 0.09221399 -0.24777988
000340 ad 5b ba 3d d1 8f 31 be 03 5a 0d be c8 73 80 3e
       0.09099517 -0.17340018 -0.13803868 0.25088334
000350 ed 17 35 bd 99 75 0d bc 51 1a fc 3d dd c6 f7 bd
       -0.04421227 -0.0086339945 0.12309707 -0.12098477
000360 a3 f6 7a 3d c5 42 c7 bd a4 6c 9f 3e 93 5a eb bd
       0.061270367 -0.09729532 0.31137574 -0.11491885
000370 d4 90 e3 3c 61 8b d1 bd f6 56 20 be ce 17 e8 3b
       0.02777902 -0.102316625 -0.15658173 0.007082916
000380 60 07 9f bd 22 04 1f be ff 30 19 bd 13 38 f8 bd
       -0.077650785 -0.1552892 -0.037400242 -0.1212007
000390 60 78 77 bd 32 6a 12 3d b5 5d 7c bd 67 57 07 bb
       -0.060417533 0.035745807 -0.061612803 -0.002065146
0003a0 7e 6a 22 bd 2c 89 ac 3d 77 c3 54 3d 7e 89 1c 3e
       -0.03965234 0.08424601 0.051944222 0.15286824
0003b0 a9 3e 52 3b fe 70 a5 3d 41 97 9b 3d b1 b2 80 3d
       0.0032080805 0.08078192 0.07597209 0.06284083
0003c0 bb ac b8 bd b9 fc 82 3c 3a 2d 2b 3d f2 4a 58 be
       -0.09017321 0.015989648 0.04179118 -0.2112234
0003d0 d4 18 97 bb 41 84 f8 bb 7a a4 a2 bb 6c 65 93 3d
       -0.004611114 -0.0075841253 -0.004963455 0.07197079
0003e0 7d 3e 29 be 55 d2 bc bd 07 17 26 3d fa 50 21 3e
       -0.16527744 -0.09219805 0.040549304 0.15753546
0003f0 8a 38 ca 3d c8 5e 85 3e 1f ee a9 3d 82 e6 e8 bd
       0.09874065 0.26048875 0.08297371 -0.11372091

lstm2.weight_ih_l0 f4 [128, 64]
000000 93 61 42 bd dc 6b 09 3d 38 4a 4d be bd 0b 78 3e
       -0.047456335 0.03355013 -0.20047843 0.24223228
000010 4a 67 44 bd 8a 37 04 3e 3b 25 71 3e bd 70 91 3d
       -0.047950067 0.12911811 0.23549359 0.07101581
000020 5c 9a 6f 3d 22 f2 fd 3d 64 b7 28 bd 0a 9d e5 bd
       0.058496818 0.12399699 -0.04119052 -0.112115934
000030 9b 0c a6 bd c2 ce b0 bd 35 f4 00 bc 2d 01 80 be
       -0.08107873 -0.08633186 -0.0078707235 -0.25000897
000040 e1 75 a1 bc f1 8c d6 3c dd a0 e7 bd 1c 26 03 be
       -0.01970953 0.026190253 -0.11309979 -0.12807506
000050 3e aa d6 3d 94 60 51 be 9e c0 33 be c8 c4 19 3e
       0.1048169 -0.20446998 -0.17553946 0.15016472
000060 20 8c fd 3d f9 98 2b be 3b 84 48 3d 50 2d 10 3c
       0.12380242 -0.16757573 0.04895423 0.008799866
000070 c4 32 82 3e 0b 79 42 3d 95 0b ed bb b0 87 f6 bd
       0.25429356 0.047478717 -0.0072340467 -0.12037599
000080 0e c1 53 be 16 f1 a5 3d f7 f5 d9 bd aa cc f6 3d
       -0.20679113 0.08102624 -0.10642617 0.12050755
000090 4d a6 b6 37 90 4e ed bd 31 e7 13 3e dc 2f a4 3d
       2.177353e-05 -0.1158725 0.14443661 0.08016941
0000a0 31 c2 ad bd 6f af 69 be 98 1a 42 3d 7f e7 95 bd
       -0.08484305 -0.22820829 0.047388643 -0.07319545
0000b0 46 4d 23 bc b3 99 93 be d9 ef 7b be 0c e0 ef 3e
       -0.009967154 -0.288282 -0.24603213 0.46850622
0000c0 6c 89 b4 3d 47 3f 95 3d aa a9 98 3c 15 20 1f 3e
       0.08815274 0.0728746 0.01863559 0.15539582
0000d0 ba 07 02 bd 8f 93 49 bd d9 9e 47 bd 37 64 b7 bd
       -0.03174565 -0.04921299 -0.048735473 -0.08954661
0000e0 78 96 a9 3c c0 21 7e be 96 d4 ad 3d ac 7b 9b bd
       0.020701632 -0.24817562 0.08487813 -0.07591948
0000f0 8c 36 1e be bb 63 1d 3e 0c dc 1f 3e af 45 7e bd
       -0.15450495 0.15370075 0.15611285 -0.062078174
000100 93 40 90 bd dd d8 b3 be cb 53 9e bd 0c 53 30 be
       -0.070435666 -0.3512639 -0.07730826 -0.1721918
000110 b1 b1 8a be f0 76 33 3e c5 21 70 bd a9 51 23 3e
       -0.27088693 0.1752584 -0.058625955 0.1594912
000120 d1 1f 24 bd c3 96 ad 3e b5 8c 04 3e a8 1d 15 bd
       -0.040069405 0.33904085 0.129443 -0.036405236
000130 83 1b 3f 3e 77 36 94 bd 0e 3c 8c bc 41 7d f5 3b
       0.18662839 -0.07236951 -0.01711848 0.007491738
000140 eb 1d 04 be be e2 1f be 90 0d 5a bd 2b 01 b1 bc
       -0.12902038 -0.15613839 -0.05323559 -0.021607002
000150 f7 e2 ce bd c5 67 4a be 07 85 ec 3e e9 8b 45 3e
       -0.10101884 -0.19766147 0.46195242 0.19291653
000160 1a fa 14 be 41 e8 2a be cd 21 21 3e 47 08 0d bd
       -0.14548531 -0.1669016 0.1573555 -0.034431722
000170 92 f5 95 3d b1 ba 1f bb 29 ea 72 bd d3 7f 4d 3c
       0.073222294 -0.0024372751 -0.059305344 0.012542683
000180 bb b9 11 3d 53 d8 8f bd 90 dc 66 be 1d 19 f7 3c
       0.035577517 -0.070236824 -0.22545075 0.030163342
000190 b2 98 f5 3d c7 56 9a bd 32 be 43 be ae 08 93 3b
       0.11992015 -0.07536083 -0.19115523 0.0044871187
0001a0 c6 bf 08 bf 9a bf 85 3d 8e f2 29 3e 2b 00 6c 3b
       -0.53417623 0.06530686 0.16596434 0.0036010842
0001b0 96 b6 49 3d 35 b7 ce be 44 d5 4e bd ce 87 c7 3e
       0.049246393 -0.4037415 -0.050496355 0.38970798
0001c0 ac 69 2d be 4f 02 b3 be 25 3a 0a 3e cb db 40 be
       -0.16934842 -0.349627 0.13498743 -0.18833844
0001d0 57 1e ee 3b 01 2d b1 3c 01 8c ef 3d 0a e9 b4 bd
       0.0072668004 0.021627905 0.116966255 -0.08833511
0001e0 92 13 33 3e 3e 84 4c be 28 24 88 3d 47 14 67 be
       0.17487934 -0.19972321 0.06647521 -0.22566329
0001f0 5c 7d eb 3d 25 07 9a be df f5 d9 be 34 b1 a7 3e
       0.1149852 -0.30083576 -0.42570397 0.32752383
000200 bd 17 0d 3e 87 57 f1 bc c7 f0 f4 3d 23 a7 b3 3e
       0.13778587 -0.029460682 0.11959987 0.35088453
000210 66 42 fa 3d 57 a9 1b be c5 11 e9 3c e0 9a d9 bd
       0.12219696 -0.15201317 0.028450856 -0.10625243
000220 9e 90 8a 3e 71 41 14 be e4 f1 12 be 08 cf 82 be
       0.2706346 -0.14478089 -0.14350086 -0.25548577
000230 93 74 f6 bd 5d 50 90 be 1d cb 0d be 1a 5f e0 3d
       -0.120339535 -0.28186312 -0.13847013 0.10955639
000240 d4 0d e2 bc 46 13 bf 3e bb e9 b3 be 14 25 1d be
       -0.027594484 0.37319392 -0.3513926 -0.15346175
000250 26 dc 1a 3e be f2 8e bd 92 94 6b be 0b 17 9d 3c
       0.15123042 -0.06979893 -0.23005894 0.019176027
000260 8f 3f 30 3d 20 5b b1 be f4 5d 7d 3e c1 34 61 3e
       0.043029364 -0.34639835 0.24742872 0.2199278
000270 e8 31 0a 3e 7f f3 55 3d 57 17 04 3e f4 f3 23 be
       0.134956 0.05223417 0.12899528 -0.1601103
000280 9d 1d 8f be aa 7c 82 3e 12 48 0b bc a3 d3 c0 3d
       -0.2795228 0.25485736 -0.00850107 0.094153665
000290 71 b0 0d 3e 66 b3 ca bd bd 42 7c 3e 24 77 17 3e
       0.13836838 -0.09897499 0.24634834 0.14791542
0002a0 88 e1 34 be 4c f5 41 3e ea c6 9e 3c 87 86 ee bc
       -0.17664158 0.1894123 0.019381959 -0.029116882
0002b0 f7 c2 a2 bc fa 09 ea bd 99 4b 3d 3e 2c e3 a7 be
       -0.019868357 -0.11427684 0.1848587 -0.32790506
0002c0 5d 6b 79 3e 0a c2 1c 3d 52 80 5f 3c 2f 43 35 3e
       0.24357362 0.038270988 0.013641434 0.1770141
0002d0 fc 05 12 3e 12 b6 01 be 22 7c 1e 3e a7 81 82 bd
       0.14260095 -0.1266711 0.1547704 -0.063723855
0002e0 39 f4 b6 3d 0f 33 05 bf b6 bc 35 be c3 3f d1 bd
       0.089333005 -0.52031034 -0.17747769 -0.1021724
0002f0 ba d3 b7 be f5 1c 39 3e f6 9e 87 3e 5e a1 d5 bc
       -0.35903722 0.18077452 0.26488465 -0.026077922
000300 34 27 c6 3d 90 87 be 3d 0b 26 9f bd b9 42 36 be
       0.09675446 0.093032 -0.07770928 -0.1779889
000310 af 3b b6 3d f2 66 c1 3c 26 d9 51 bd 62 e1 fb bd
       0.088981025 0.023608658 -0.05123248 -0.12298848
000320 08 3a 18 bc a4 3e fb bc c0 33 cc bd b5 ce 26 be
       -0.0092911795 -0.030669518 -0.09970808 -0.1628979
000330 b5 72 27 be 09 33 df bc c9 9a f7 bd 3e 5e 45 3e
       -0.16352351 -0.027246015 -0.1209007 0.19274232
000340 49 9d 8c bd b2 4c 1e 3e c3 f8 6f bd 28 63 b1 bd
       -0.06865937 0.15458944 -0.058586847 -0.08661491
000350 c9 d1 79 bd d4 b7 88 3e b7 4f 99 3c 4f 13 1f 3e
       -0.060991082 0.2670275 0.018714769 0.1553471
000360 b2 e6 53 3e f0 65 3f be 4a 9a 0d 3e b7 f7 88 3e
       0.20693472 -0.1869123 0.13828388 0.2675149
000370 55 f0 11 bc c4 e8 3a 3d cb ef b4 3d 0d 68 60 3d
       -0.008907397 0.04563214 0.088347994 0.05478673
000380 e7 4c 80 3e 7e aa 28 3d 7f 20 80 bd 85 7d 8b 3d
       0.25058672 0.04117822 -0.06256198 0.0681105
000390 8c 5a d5 3e a9 b0 4c be 6c 0c 26 3c 67 6a f5 bd
       0.41670644 -0.19989266 0.010134798 -0.11983185
0003a0 9c b3 21 bd d5 87 55 3e c7 07 87 be 34 3c 00 be
       -0.03947793 0.20852597 -0.2637312 -0.12522966
0003b0 64 e7 18 bd c2 4a bc 3d 99 fc c3 bc 12 c5 e0 bd
       -0.037330046 0.091939464 -0.023924159 -0.10975088
0003c0 2b d3 bb 3d 08 7b d6 bd 0c 35 69 3e 28 83 0d bd
       0.091711365 -0.10472685 0.22774142 -0.03454891
0003d0 ea ba a4 bd 70 b2 20 3e 1d 8a 87 be 42 1d 97 3d
       -0.080434635 0.15693069 -0.2647256 0.07378627
0003e0 f7 67 8b 3d d6 b1 da bd c8 77 d7 3d 27 d7 1f 3e
       0.06806939 -0.10678451 0.10520893 0.15609418
0003f0 14 d7 24 be bf 3b 56 be 73 45 d8 3d 2f 75 66 be
       -0.16097671 -0.20921229 0.105601214 -0.2250564

lstm2.weight_hh_l0 f4 [128, 32]
000000 86 28 1d be bc 73 a1 be 42 69 62 bc c7 b7 b9 3e
       -0.1534749 -0.3153361 -0.013819041 0.36273023
000010 99 b2 e4 3d 34 14 d3 bc db 31 07 bf 4e 4c 13 be
       0.11166877 -0.02576647 -0.5281045 -0.14384577
000020 78 9d 01 be c5 f8 a5 3d 52 f6 8e be 6b 25 cd bc
       -0.12657726 0.0810409 -0.27922302 -0.025042256
000030 e5 c3 2c be 21 47 14 3e 1f 5c 39 3d 44 41 ea be
       -0.16871603 0.14480259 0.04525387 -0.4575292
000040 a1 46 ce bc fa 11 da 3c 5e 69 18 3c f4 78 b5 3c
       -0.025180163 0.0266199 0.009302465 0.022152402
000050 39 e0 b6 3d 6a 3a c3 bd 69 4b 23 be c5 54 40 3e
       0.08929486 -0.09532626 -0.15946735 0.18782337
000060 72 99 01 3e 2a 7f e8 bd 8d 9a ce bd 60 27 3c be
       0.12656191 -0.113523796 -0.10088072 -0.18374395
000070 49 0f b7 be 07 d4 b2 3d 55 cb 37 be b8 b1 c0 3c
       -0.3575385 0.08731847 -0.17948659 0.023522243
000080 45 1d 08 bf 00 5c 91 bd dd b1 ac 3d da c4 15 be
       -0.5316966 -0.07097626 0.08432362 -0.14625874
000090 fb 14 12 3e 45 98 1e ba cf ce bd bd 47 6d 33 be
       0.14265816 -0.00060499116 -0.09267961 -0.17522155
0000a0 4a ad 13 be 77 b7 7a be 57 be eb bb 11 0a 1e 3d
       -0.14421573 -0.24484049 -0.007194321 0.03858382
0000b0 0d 77 21 3e a6 e8 90 3e 31 3d 32 3d 14 05 41 be
       0.1576807 0.28302497 0.043515388 -0.18849593
0000c0 6c d3 9d 3e 58 50 a0 3e cb 6c 3f be eb 9e 99 3d
       0.30825365 0.31311297 -0.18693845 0.07501014
0000d0 10 25 45 bc 96 e4 2b be f3 bb a9 be fd 51 a8 3e
       -0.012032762 -0.16786417 -0.33151206 0.32875052
0000e0 0a eb 10 3e a3 26 b1 bd 26 93 17 be f5 56 b6 bd
       0.1415216 -0.086499475 -0.14802226 -0.089033045
0000f0 8c 8e 5e be 01 e9 a1 be b3 39 fa bd bb 6f 65 bd
       -0.21734065 -0.3162308 -0.122180365 -0.056014758
000100 ad 46 99 3d 99 ee 6e 3e 83 69 8c be ef 0d 9d be
       0.074841835 0.23333205 -0.2742425 -0.30674693
000110 10 d4 29 3d 24 33 64 be 7e 53 9a 3e bd df 1f 3d
       0.041462004 -0.22285134 0.30141824 0.039031733
000120 d6 8d 7b be d7 b8 06 3d a8 ef 85 be 38 a9 9d bc
       -0.24565825 0.03289112 -0.26159406 -0.019245729
000130 a5 23 47 3e 32 93 61 be 46 12 b7 3d 43 1f 92 3e
       0.19447191 -0.22028807 0.08939032 0.28539476
000140 12 a0 c8 3d f3 de 2e be a9 a9 9d 3d 9f 81 0e 3c
       0.09796156 -0.17077236 0.07698376 0.008697896
000150 bb ff 2a bc 21 de 91 3b be 8b 4c 3e df f4 21 3e
       -0.010436947 0.0044515287 0.19975182 0.15816067
000160 83 c6 aa be da bb 90 3d 00 b8 cf bd 33 c6 2a 3e
       -0.33354577 0.0706708 -0.10142517 0.1667717
000170 58 18 fa 3d 09 c3 25 bd 78 a0 4e bd d2 93 2b 3e
       0.122116745 -0.040469203 -0.050446004 0.16755608
000180 51 b3 d9 3c e1 42 1d be 55 b4 93 bd b0 d5 dd 3d
       0.026574763 -0.15357544 -0.0721213 0.10831773
000190 24 d3 c7 bd 3b fd be 3e 14 4d 6d be 0f f4 fb bd
       -0.09757069 0.37302575 -0.23173934 -0.1230241
0001a0 31 90 a9 3e ff bc 22 3e 1a fb 8a 3d f0 52 49 bd
       0.33117822 0.15892409 0.06786175 -0.04915136
0001b0 b9 9e 4d be 42 a3 2a bd 60 ef 1b 3d d5 77 0d be
       -0.20080079 -0.0416596 0.038070083 -0.13815244
0001c0 30 3f 29 bd 0e 5e 3c 3e ad eb c1 3d 2b bc ab 3d
       -0.041320026 0.18395254 0.0946878 0.083854996
0001d0 a2 8b ec bd 8b ff 26 be cc b3 75 be 79 9f 60 3c
       -0.1155007 -0.1630842 -0.23994368 0.013709896
0001e0 44 2f 81 3d 34 af 16 be 41 7a 3d bd 50 62 0b be
       0.06307843 -0.14715272 -0.04625917 -0.13611722
0001f0 a6 6a f8 bd 4d 9a d3 bd 5b 28 1c be 9c 89 3a be
       -0.121297166 -0.10332165 -0.1524977 -0.18216556
000200 b9 08 26 3e 01 21 a5 bd 16 49 0f be cf 05 23 3e
       0.16214265 -0.080629356 -0.13992724 0.15920185
000210 d4 1e 23 3d fb 5b 9d be 89 2a 3c 3d b7 75 af bd
       0.039824322 -0.30734238 0.045939002 -0.08567374
000220 0a c2 cc be d4 84 4c bc 02 df 88 3e 7b 87 3a 3e
       -0.3999179 -0.012482841 0.2673264 0.18215744
000230 07 d5 1c be eb 8a f8 be fc 5b 06 3e 28 5b 81 3e
       -0.15315638 -0.48543486 0.13121027 0.2526486
000240 e4 f9 80 3e f7 cb b0 bd 3e 41 9f 3d fb 0f d1 bd
       0.2519065 -0.08632653 0.07776116 -0.10208126
000250 4a 25 10 be 7b da f9 bb 3b 43 96 3c 0e 39 2b bf
       -0.14076725 -0.007624922 0.018342605 -0.66883934
000260 0b 80 9b be dc 59 66 3e 4c ec 90 3d aa a6 83 3d
       -0.30371127 0.22495216 0.0707632 0.06428273
000270 1e 41 9d 3d 87 fc d8 bc 3f 57 45 bd 62 3b 90 3e
       0.07678436 -0.026487602 -0.048178907 0.28170305
000280 3d c5 14 3e 04 4f 05 3d ac d8 d2 bd 8e cc 01 ba
       0.14528365 0.03254606 -0.10295233 -0.00049514405
000290 ee 9b 5a be d0 6e 20 3d 3f 5b 39 bc d9 22 28 bd
       -0.21348545 0.03916818 -0.011313259 -0.04104886
0002a0 25 bf 89 be aa 3f 48 3d ee 26 fd bd 93 9d 98 be
       -0.26903644 0.04888884 -0.12360941 -0.2980772
0002b0 60 4f 0d bf eb 20 d2 3d 5e e7 67 3e 2a 01 fc bc
       -0.5519924 0.10260185 0.22646853 -0.030762274
0002c0 af 71 0b 3e f6 23 4b be 58 07 64 be 60 26 13 bf
       0.13617586 -0.19837937 -0.22268426 -0.5748043
0002d0 06 7c 58 be 3d a2 0e be 5d e9 14 be f2 07 0f be
       -0.21141061 -0.13929076 -0.14542146 -0.13967875
0002e0 cd 99 75 3e f7 4b a3 3e d3 65 9a be 25 9c 79 be
       0.23984452 0.31893894 -0.3015581 -0.2437597
0002f0 8a cf 69 bd 3e f1 1e 3d 64 f1 db be 16 3f bd bc
       -0.05708269 0.038804285 -0.42957604 -0.02310137
000300 13 64 43 be dd e8 e8 bd 2a 4e 11 3d bf f0 39 3d
       -0.19081144 -0.1137254 0.035474934 0.04539561
000310 aa 90 35 be 33 75 4e be 09 47 a4 be 18 c0 58 3e
       -0.17730966 -0.20161895 -0.32085446 0.21167028
000320 ac ff 55 be 95 9a a0 bd 98 7f 87 3c 00 67 84 bd
       -0.20898312 -0.07841984 0.016540334 -0.06464958
000330 e4 0d e2 bd 1a ff 01 be 88 26 c0 3d 42 04 72 3e
       -0.11037806 -0.1269497 0.09382349 0.23634437
000340 be 19 6c be 8f 93 dd bd 35 41 09 be 25 48 03 3e
       -0.23056695 -0.1081916 -0.13403781 0.1282049
000350 92 02 98 3d 26 54 8b be b2 26 17 be 84 6b 89 3d
       0.07422365 -0.27212638 -0.14760855 0.0670996
000360 66 f3 c3 3e 75 f5 e3 bd 62 3d 94 3e 4f 5a c1 be
       0.38271636 -0.111308016 0.2895308 -0.37764212
000370 92 e6 5e 3e 85 31 7f 3d 5b d0 85 3e 30 cf 39 3d
       0.21767643 0.062303085 0.26135525 0.045363605
000380 c9 42 89 3e 6e 9c 48 3e f7 47 05 be 58 3f d3 bd
       0.26808766 0.19590923 -0.13015734 -0.10314816
000390 5e 6b 03 be 90 0c 50 3d af d1 3f 3e f6 81 70 3e
       -0.12833926 0.05079323 0.18732332 0.23487076
0003a0 f8 e1 e4 be 05 2d cd 3d ca fd 08 3e ec f9 25 3e
       -0.4470365 0.100183524 0.13378063 0.16208619
0003b0 d6 86 94 bd 7d 5d 18 bd 3b dc 9b 3d b0 81 17 3e
       -0.072522804 -0.037198532 0.07610365 0.14795566
0003c0 c6 c5 dc bc 15 86 4a be 01 9d e1 bc a3 bc bb bc
       -0.026949774 -0.1977771 -0.027540686 -0.022917097
0003d0 00 98 9e be 16 45 2e 3d fd 67 c5 bd ec dd 19 bf
       -0.30975342 0.042546354 -0.09638975 -0.6010425
0003e0 68 07 66 be 49 15 fe 3e 8c 54 8b 3d ea 92 97 3e
       -0.22463763 0.49625614 0.068032354 0.29604274
0003f0 cc ea e6 3e 37 9e f5 bd 35 79 3b bd ba 6c 08 3d
       0.4510101 -0.11993068 -0.04576989 0.033306815

lstm2.bias_ih_l0 f4 [128]
000000 81 83 de 3d 79 c2 2e 3e 92 98 05 be a6 06 65 3e
       0.10864926 0.17066373 -0.13046482 0.22365817
000010 e2 6e a1 3d 43 6d 67 3e 2b 00 65 3d 65 48 01 be
       0.07882477 0.22600274 0.055908363 -0.12625273
000020 0e a3 61 bd 9e 27 0a 3e 66 cb 0d 3d 9b 27 fe bd
       -0.05508714 0.13491675 0.034617804 -0.12409898
000030 b0 7f 31 bc b5 8d 06 be b1 f7 17 be bf c1 d0 bd
       -0.010833666 -0.13139994 -0.1484058 -0.10193204
000040 88 dc 47 be ac 17 0f 3b 8f 09 e5 3c 0e b9 20 3c
       -0.1951772 0.0021834178 0.02795866 0.0098097455
000050 d2 fa 2e 3e e1 1e 3a 3e 07 97 5e be 23 2c 27 3d
       0.17087868 0.18175842 -0.217373 0.040813576
000060 33 e9 2f 3e 3b dc 80 3d fd 09 1c be 47 24 aa 3e
       0.17178802 0.06292006 -0.15238185 0.33230802
000070 10 12 23 be 04 2d 67 3e ca ba e0 bd d4 54 8f bc
       -0.15924859 0.22575766 -0.10973127 -0.017496504
000080 78 c1 c1 3e e1 3f 10 3e 8c 23 1d 3e 70 70 8d 3e
       0.37842917 0.14086868 0.15345591 0.27624846
000090 30 d9 30 3d 25 5a 9e 3e 10 92 58 3e ff 4a ae 3d
       0.043175876 0.3092815 0.21149468 0.08510398
0000a0 39 12 46 3e 08 19 92 3e 06 eb f8 3d fc 57 fc 3e
       0.19342889 0.28534722 0.12154202 0.49285877
0000b0 bf 45 8f 3e c9 08 bc 3e fc 81 b5 3e c8 38 7c 3d
       0.279829 0.36725453 0.35450733 0.06157759
0000c0 4f 3d cf 3e 42 45 b5 3c 5a 92 51 3b 45 eb 27 3e
       0.40476462 0.022127751 0.0031978101 0.16398342
0000d0 80 9c 3c 3e 33 36 72 3e 61 2b 74 bd e6 8e b8 3d
       0.18419075 0.23653488 -0.05961168 0.09011631
0000e0 27 7f e9 3e bd fe 30 3e a6 20 c1 bd fd f2 89 3e
       0.45604822 0.17284675 -0.09430055 0.26943198
0000f0 31 96 19 3e df 83 86 3e 1b 17 8c 3c 41 d9 43 3d
       0.149987 0.26272485 0.017100861 0.04781461
000100 71 a9 eb 3d 26 20 a3 3d a2 4e f9 3c 1b fe 9c bd
       0.11506928 0.07965116 0.030433003 -0.07665654
000110 c0 f7 05 3e 53 ee 20 3e f6 c8 55 be 36 c8 06 3e
       0.1308279 0.15715913 -0.20877442 0.13162312
000120 3a e4 bb bd 74 06 5f 3e 35 f3 90 3d 2a 97 66 3d
       -0.0917439 0.21779805 0.07077638 0.056296505
000130 29 cb 61 bd e6 d2 f8 bd 6b 5c 09 be 57 af e0 bd
       -0.05512539 -0.12149601 -0.13414161 -0.109709434
000140 f3 c5 1e 3d cd 5a 14 3e 5c 6d 54 bd b8 c9 a5 3c
       0.038762998 0.14487763 -0.051862106 0.020237789
000150 9a 19 ef 3d 79 74 cf bd dd 22 3e bd cd 10 e0 bd
       0.11674805 -0.10129637 -0.046419967 -0.109407045
000160 ae 5b 45 3e 05 2a 72 bc c8 d6 62 bd 92 3a 31 be
       0.19273254 -0.014780526 -0.055380613 -0.17307499
000170 27 4a 53 bd 05 2c 5c bd 9e 01 2a be 83 a8 c1 bd
       -0.05158439 -0.053752918 -0.1660218 -0.09455969
000180 06 b0 4d be 7e d5 42 3e 7b 08 f6 bd dd 20 b2 3e
       -0.20086679 0.19026753 -0.12013336 0.34790698
000190 46 9b 0d 3e d9 79 0a 3d 78 ee b2 3c 3c 9a 10 bd
       0.13828763 0.03380761 0.021842226 -0.03530334
0001a0 58 b3 ad 3d fc c1 81 3e 4f 71 14 3e f8 33 51 3e
       0.08481473 0.2534331 0.14496349 0.20429981
0001b0 8e 00 55 3e 0b 65 07 be 65 42 0f be f8 71 76 3e
       0.20800993 -0.13222139 -0.13990171 0.24066913
0001c0 80 1b 7e be 02 cc 8a 3d 79 9a be 3e a3 2d 62 3e
       -0.24815178 0.06777193 0.37227228 0.22087722
0001d0 bd 7f 90 3e 1f d9 34 3e 92 8f b7 bd b6 10 85 3e
       0.28222457 0.1766095 -0.08962931 0.25989312
0001e0 47 31 fd 3d 2f 33 36 3e 81 72 ac 3d 5e 88 66 3e
       0.123629145 0.17792962 0.084202774 0.22512957
0001f0 e6 3a 76 be 62 25 b8 3d 29 1c a8 3e 27 9b 69 3e
       -0.24045905 0.08991505 0.32833984 0.22813092

lstm2.bias_hh_l0 f4 [128]
000000 a0 c4 0b be e3 53 28 3e 8a ae 05 bd 73 57 e6 bc
       -0.13649225 0.1643825 -0.032637157 -0.02811787
000010 7e 6a 1e bd 4e 70 23 3e 35 35 20 3e c7 89 6c bd
       -0.038675778 0.1596081 0.15645297 -0.057748582
000020 d2 9e 6e be 3a c9 f8 bd f6 b4 f5 3d a6 99 83 3d
       -0.23302773 -0.12147756 0.11997406 0.064257905
000030 b4 ef 68 bc ca ed ae 3d 0e 74 89 be e8 a1 c8 3d
       -0.014217306 0.085414484 -0.26846355 0.09796506
000040 69 94 a0 be e9 24 74 be 4c 4e 5a 3d ec 1a 14 3e
       -0.31363228 -0.23842205 0.053297326 0.14463395
000050 8c 67 07 bd 1f 23 ee 3d 1d b3 68 bd 85 c7 e1 bd
       -0.033057734 0.116277926 -0.05681144 -0.110243835
000060 5c b0 a6 bb a8 73 ae 3d d6 d8 32 be fe 2d 1c 3e
       -0.0050869416 0.085181534 -0.17465529 0.1525192
000070 ec 5d 73 bd 5f 6d f3 3c 1e 24 57 be 99 34 4d 3d
       -0.059415743 0.029715238 -0.21009871 0.05009899
000080 c7 aa ca 3e 3c b5 0b 3e 38 18 a5 3e 35 17 7f 3e
       0.39583418 0.13643354 0.3224504 0.24911197
000090 a5 ba 80 3e 19 e5 7c 3e 92 95 74 3e 78 95 aa bd
       0.25142398 0.24696769 0.23885182 -0.0832929
0000a0 c4 16 82 3e 73 7e 14 3e a0 e1 95 3e c0 e4 8a 3e
       0.25407994 0.14501362 0.292737 0.27127647
0000b0 4e 9a ae 3e 0f 6a 06 3e 71 a4 cf 3e 0b bf 2b 3e
       0.341021 0.13126396 0.40555146 0.16772096
0000c0 b9 1f 18 3e c0 d3 7b 3d 73 ff 76 3e 9f 69 84 3d
       0.14855851 0.061481237 0.24120884 0.06465458
0000d0 67 fe 3d 3e 24 65 97 3e 57 5f bf bb 5a 55 48 3e
       0.18554078 0.29569352 -0.005840223 0.19563809
0000e0 0b 3f 7d 3e f9 38 ab 3e 8c d8 57 3e 80 45 a6 3e
       0.2473108 0.33441904 0.210787 0.324749
0000f0 1d 24 d1 3e b8 60 32 bc 29 32 ab 3c 61 5c 8a ba
       0.40847865 -0.010887317 0.020897942 -0.0010556096
000100 5e 54 6f bd ff a3 af bd 8a e7 a1 3d 39 7a d6 3d
       -0.05843007 -0.08576202 0.07905491 0.10472531
000110 b1 3a 97 3c 53 e4 13 3e be fd e0 bb 01 f6 02 3e
       0.018460603 0.14442568 -0.006866186 0.12789156
000120 a7 c7 f8 bd 1a 06 bd bd 51 ad 2b be 26 6c c8 3d
       -0.12147456 -0.092296794 -0.16765334 0.09786253
000130 3d 21 99 3d 9a a1 9e bc 42 7d b4 bd c4 8c 7b 3c
       0.07477043 -0.019364167 -0.088129535 0.015353385
000140 a6 5b 0e be e6 14 ba 3d c0 2d b8 bc 14 bd 07 3e
       -0.13902149 0.09086017 -0.022482753 0.13255721
000150 3a 2f 36 be 09 ff 30 3d 30 29 09 bd 94 be 6f bd
       -0.17791453 0.04321197 -0.033486545 -0.05853136
000160 30 c8 6d 3e 7c 7f 0a be 47 09 7b 3d 5d d6 31 bc
       0.23220897 -0.13525194 0.061288144 -0.010854331
000170 40 05 81 bd cf 53 5a 3e e7 23 68 bc f3 bd 5c bc
       -0.062998295 0.21321033 -0.014168716 -0.013473022
000180 e9 50 66 bd 2e 5f 07 3e aa 79 83 be cb e0 80 3d
       -0.056229506 0.13219902 -0.2567876 0.06292876
000190 d6 d8 b0 bd 6c 07 b4 3c dd 14 c7 3b 85 f6 27 3e
       -0.08635108 0.021976195 0.006075485 0.16402633
0001a0 dd 00 54 3e fd 4e ca bc d3 6c 08 3e 23 26 3a 3e
       0.20703454 -0.024695868 0.13322763 0.1817861
0001b0 f7 e5 4f 3e 82 80 4a bd 41 13 b3 be 7d 93 01 3e
       0.20302568 -0.04943896 -0.34975627 0.12653919
0001c0 4b 26 01 be 8f 3c 8c be ac 8c 0c 3f f8 f5 ec 3c
       -0.12612264 -0.27389953 0.5490215 0.02892588
0001d0 88 59 24 3c 0e 7f 53 3e 76 4b 42 bb d1 b2 cc 3d
       0.010031112 0.20653936 -0.002964703 0.09995044
0001e0 b8 de 12 3e c0 bd 0d 3e 2b 5d 90 bd 48 90 e8 bd
       0.14342773 0.13841915 -0.070490204 -0.113556445
0001f0 c2 d4 2d 3c 1a a5 93 3e 19 73 4f 3e 1a 5c ac bc
       0.010609807 0.288369 0.2025875 -0.021040011
